lightning_logs/version_4/checkpoints/epoch=2-step=645.ckpt (torch, 668780 bytes, 18 tensors)

model.1.weight f4 [64, 784]
0.0025216995 -0.020788593 -0.034457773 -0.0017808606 -0.0013460126 0.006645446 -0.0072339713 -0.012552981
-0.017525671 -0.021593193 -0.019433955 -0.027570423 -0.031751946 0.020369973 0.009218395 0.012300528
-0.00037869238 0.028403137 -0.0299692 0.009619304 -0.034434322 0.026064757 -0.020965211 0.0051693018
-0.017979844 -0.016911276 -0.021350283 -0.02786164 0.012720761 -0.03411989 -0.035040185 0.027635079
-0.031517293 0.014085681 0.01287178 0.009691354 -0.0063525513 0.0069934446 0.023336587 0.037528425
0.015368415 -0.008926746 -0.00041159953 -0.0141329225 -0.031317122 0.0020059512 -0.017725294 0.020399693
-0.021160703 -0.015584193 -0.019879032 -0.03309757 -0.023794096 -0.025001595 -0.008782691 0.0017497276
-0.021738429 -0.00026135042 0.010984378 0.010811898 -0.0134777045 0.011058757 -0.017476061 -0.031915672
-0.012455284 0.026000084 0.050152086 0.020942539 0.036146887 0.032137197 0.05968371 0.03686663
0.061462633 0.05218675 0.032761462 0.0538602 -0.00066513533 0.008383329 0.028500197 -0.022807656
-0.015156302 -0.0061975 0.027789045 -0.013801053 -0.019861026 -0.030624462 0.033325717 -0.031996615
0.0044818544 0.008163207 0.026146479 -0.018931633 0.040473133 0.030287595 -0.0018085404 0.013532415
0.042902924 0.030716896 0.0066645513 0.026064387 0.044233784 0.025695655 -0.0010122922 0.022132311
0.062625356 0.015268817 0.033288147 -0.0035234916 0.03203212 0.034312736 0.02495653 0.021519652
-0.011708232 -0.022852756 0.014599979 -0.012625667 0.0018071736 0.028246753 -0.017295344 -0.01369927
0.0363823 -0.009177982 0.007842422 0.0074336613 0.008005184 0.04255317 0.033903446 0.04539083
0.010432227 0.027788136 0.0047954884 0.059462633 0.015391727 0.049585227 0.04126585 0.0031907128
0.025081258 0.005965152 0.0062386114 0.0018674161 -0.021011021 -0.006782303 0.030329494 0.0055938084
0.008676714 0.01642233 -0.016371619 -0.018488675 0.01178693 0.04050618 0.052385874 -0.002281086
-0.010628565 0.023075871 0.03369978 -0.01738584 0.009483504 0.03738477 0.026478896 0.04814661
0.016393455 0.038799763 -0.00019394228 0.036120456 -0.018138159 0.0004354095 -0.013761792 -0.021488111
-0.029174242 -0.013634664 -0.0035505416 -0.0012047661 0.01140754 -0.030577514 0.029403852 -0.021023067
0.015837016 0.007958521 0.03425091 -0.03942337 -0.019265387 -0.018411642 -0.017190948 -0.0070008724
-0.016075874 -0.04264996 -0.025679722 0.00047722505 0.006441672 0.02661595 0.046707235 -0.008832503
0.0017055556 -0.013197136 0.012233849 -0.02049104 0.009888057 0.005368795 -0.012250995 -0.021397062
-0.043980695 -0.017007075 0.005741067 0.0046809665 -0.02094689 0.0048613725 -0.017833786 -0.008269895
-0.0029657918 -0.015512068 -0.06406828 -0.037196115 -0.063953914 -0.027663037 -0.029567346 -0.06982573
-0.03441283 -0.042545713 0.007441128 -0.022035142 -0.02772642 0.0029330566 0.026564786 -0.024566734
-0.01188159 -0.00036525636 -0.012223561 -0.014015977 -0.0075462386 0.0028999134 -0.0053090807 0.022321058
-0.008781281 0.033676773 -0.014521487 0.020705534 -0.012541349 -0.024611223 -0.011933802 -0.010169954
-0.060213193 -0.05443442 -0.052665614 -0.018328065 -0.020635834 0.006866548 0.018836936 0.0056276056
-0.029225908 -0.040026672 -0.026289497 0.01802395 -0.023012737 -0.010887763 0.019938687 0.0028015084
00000000: 1943 253b d74c aabc 9823 0dbd c46b e9ba
00000010: b06c b0ba 0bc2 d93b f30a edbb 05ab 4dbc
00000020: ff91 8fbc 35e4 b0bc f533 9fbc 5edb e1bc
00000030: 540e 02bd eede a63c c008 173c 2788 493c
00000040: 3b8b c6b9 b2ad e83c f881 f5bc 499a 1d3c
00000050: 010b 0dbd c285 d53c 3cbf abbc 3f63 a93b
00000060: 774a 93bc 8489 8abc cae6 aebc 183e e4bc
00000070: bd6a 503c 4cc1 0bbd 4c86 0fbd f662 e23c
00000080: 4718 01bd a1c7 663c 29e4 523c 7cc8 1e3c
00000090: 1029 d0bb 4429 e53b 5f2c bf3c 68b7 193d
000000a0: cecb 7b3c 7d41 12bc f4cb d7b9 c68d 67bc
000000b0: 6246 00bd 4776 033b a334 91bc 421d a73c
000000c0: 3659 adbc d854 7fbc 5ad9 a2bc 5191 07bd
000000d0: d6eb c2bc 25d0 ccbc 47e5 0fbc 1e57 e53a
000000e0: ca14 b2bc dc05 89b9 d2f7 333c 6324 313c
000000f0: 97d1 5cbc ca2f 353c f529 8fbc 02ba 02bd
00000100: 3f11 4cbc 21fe d43c 466c 4d3d b08f ab3c
00000110: c20e 143d 4ba2 033d e876 743d 7701 173d
00000120: 3ec0 7b3d c6c1 553d e230 063d 839c 5c3d
00000130: 7a5c 2eba 3b5a 093c 3f79 e93c 1fd7 babc
00000140: 2352 78bc 6614 cbbb daa5 e33c d01d 62bc
00000150: 97b3 a2bc 27e0 fabc 8c80 083d e20e 03bd
00000160: 85dc 923b f9be 053c 2431 d63c 8316 9bbc
00000170: 28c7 253d b11d f83c 8c0c edba 10b7 5d3c
00000180: faba 2f3d 00a2 fb3c 4f62 da3b fb84 d53c
00000190: 7c2e 353d b27f d23c e4ae 84ba d24e b53c
000001a0: b941 803d 0f2a 7a3c 2759 083d 61ea 66bb
000001b0: 1d34 033d 838b 0c3d a371 cc3c fb49 b03c
000001c0: e2d3 3fbc b435 bbbc c034 6f3c e3db 4ebc
000001d0: afde ec3a bc65 e73c f7ae 8dbc e772 60bc
000001e0: 9b05 153d 3f5f 16bc 817d 003c 1296 f33b
000001f0: 2d28 033c 3c4c 2e3d 57de 0a3d bceb 393d
00000200: eeeb 2a3c f2a3 e33c 7923 9d3b 178f 733d
00000210: 952d 7c3c e119 4b3d 6106 293d 471b 513b
00000220: 3677 cd3c 5277 c33b 446d cc3b 16c4 f43a
00000230: 4e1f acbc 153e debb 8f75 f83c 444c b73b
00000240: c728 0e3c 1f88 863c c61d 86bc 9075 97bc
00000250: f81d 413c cfe9 253d 9292 563d 467e 15bb
00000260: 6f23 2ebc 9c09 bd3c c808 0a3d c06c 8ebc
00000270: b360 1b3c c620 193d 45ea d83c 6135 453d
00000280: 914b 863c 80ec 1e3d fc5c 4bb9 0bf3 133d
00000290: 7a96 94bc ad47 e439 2479 61bc d607 b0bc
000002a0: d2fe eebc ed63 5fbc 34b0 68bb 3ee9 9dba
000002b0: b1e6 3a3c b27d fabc 59e0 f03c 9138 acbc
000002c0: a1bc 813c 7564 023c af4a 0c3d 667a 21bd
000002d0: 72d2 9dbc 03d4 96bc 08d4 8cbc 9367 e5bb
000002e0: 8db1 83bc b9b1 2ebd 485e d2bc 1034 fa39
000002f0: a914 d33b b109 da3c 1650 3f3d 34b6 10bc
00000300: f38c df3a cd38 58bc 7b70 483c d3dc a7bc
00000310: 8401 223c b7ec af3b 66b8 48bc e448 afbc
00000320: 1a25 34bd 6c52 8bbc 901f bc3b cb62 993b
00000330: d098 abbc 264c 9f3b 2918 92bc 747e 07bc
00000340: bb5d 42bb 5426 7ebc 3b36 83bd f45a 18bd
00000350: 45fa 82bd 989d e2bc 3837 f2bc cb00 8fbd
00000360: 78f4 0cbd 6a44 2ebd b5d4 f33b 0b83 b4bc
00000370: 8422 e3bc 8638 403b 659e d93c 2d40 c9bc
00000380: 00ab 42bc e17f bfb9 5545 48bc 45a3 65bc
00000390: 7046 f7bb 790c 3e3b ccf7 adbb a7da b63c
000003a0: 5ddf 0fbc a8f0 093d 88eb 6dbc a79e a93c
000003b0: 3b7a 4dbc 7a9d c9bc fe85 43bc e19f 26bc
000003c0: 1ca2 76bd a0f6 5ebd e6b7 57bd bd24 96bc
000003d0: 7b0c a9bc c800 e13b eb4f 9a3c c767 b83b
000003e0: 2c6b efbc 02f3 23bd 125d d7bc f6a6 933c
000003f0: 3585 bcbc 9762 32bc 7556 a33c 8399 373b

model.1.bias f4 [64]
0.01972846 0.010463285 0.0011210945 0.044154316 0.048306495 0.029828385 -0.023850555 0.049422923
0.009167881 0.02562597 0.015265785 -0.012498379 -0.0149232 -0.007636506 0.018388027 0.02709792
0.028482579 0.033292376 -0.008731572 0.014637104 0.025094246 0.0062124864 0.00047384246 0.0074252216
-0.001165515 -0.011113711 0.016860496 0.033936385 0.04595329 -0.021101778 -0.019695817 -0.01641075
0.030161062 0.042761713 0.038235962 -0.020821674 -0.001807719 0.043537963 -0.017894259 0.012403161
-0.023172015 0.040623277 -0.033868406 -0.019265171 -0.012806776 -0.006926616 -0.010212959 0.004604454
-0.00040681817 -0.021071775 0.020875458 -0.004199182 -0.005776458 0.011975582 0.005932531 -0.0075993524
-0.0060513667 -0.022166066 -0.011726868 0.018525193 0.021006057 0.027673982 0.03587732 0.016941888
00000000: 949d a13c 336e 2b3c b0f1 923a 28db 343d
00000010: 08dd 453d a85a f43c 3d62 c3bc b16f 4a3d
00000020: e134 163c 8eed d13c 581d 7a3c 00c6 4cbc
00000030: 7080 74bc a83b fabb 7da2 963c 75fc dd3c
00000040: 4c54 e93c 965d 083d de0e 0fbc 77d0 6f3c
00000050: 7392 cd3c 1d92 cb3b 0f6e f839 464f f33b
00000060: 32c4 98ba 4816 36bc 061f 8a3c e100 0b3d
00000070: 8439 3c3d a3dd acbc 1f59 a1bc d66f 86bc
00000080: 5514 f73c e826 2f3d 509d 1c3d 3792 aabc
00000090: fcf0 ecba dd54 323d fb96 92bc a136 4b3c
000000a0: 3dd3 bdbc 9864 263d 99b9 0abd fed1 9dbc
000000b0: 83d3 51bc abf8 e2bb 4154 27bc f6e0 963b
000000c0: 364a d5b9 b79e acbc 0203 ab3c 4b99 89bb
000000d0: 7148 bdbb 3b35 443c ad65 c23b fd03 f9bb
000000e0: 8b4a c6bb 9c95 b5bc 0d22 40bc 25c2 973c
000000f0: e514 ac3c 8cb4 e23c 19f4 123d b7c9 8a3c

model.4.weight f4 [64, 64]
0.00046158317 0.15459293 0.05491848 0.065463975 0.03874322 0.09168806 0.15144597 -0.08234116
-0.053905096 -0.08568871 0.15994644 0.040700875 -0.068448 0.06591082 -0.011291297 -0.091200635
0.0022442418 0.06238021 0.03167623 0.11781937 -0.11129183 0.12405901 -0.0962765 0.15065132
-0.052852415 -0.08628839 -0.045050036 0.037183452 0.084612094 0.17939606 0.076612495 -0.001355994
-0.07750298 0.0482265 -0.13072298 -0.08040383 -0.018722814 -0.025828253 0.06543412 -0.017500293
0.116993695 0.032659784 0.1509878 -0.05361769 -0.041398622 0.11422717 -0.06778878 0.07905754
-0.059621215 -0.1295144 0.07277908 0.005465424 0.06523084 -0.053434156 0.15565634 0.053006828
0.12902021 -0.01972095 -0.023635669 -0.036354043 -0.039777406 -0.10996958 -0.023632806 -0.04487427
-0.010234751 -0.12662713 -0.059755035 -0.019032959 0.0039216205 0.088840194 -0.0243353 -0.03213144
0.087556854 0.06847506 0.103602715 -0.1259089 0.0024888138 -0.035286453 0.016238006 0.110394195
-0.10383958 0.16709621 0.0848258 0.0908103 0.0295192 0.14527403 -0.07397107 0.12535086
0.0017263108 -0.07353865 -0.17889337 0.051920533 -0.041265797 -0.010499992 0.03350422 0.060099285
0.06256064 -0.036082864 0.010720062 -0.15948148 0.100716606 -0.028382841 0.14974831 -0.062247075
-0.008867206 -0.19758497 -0.03931739 -0.07134194 0.068237916 -0.046618618 0.062372822 -0.055550616
0.06868456 -0.023964997 0.07845734 -0.057402942 0.043495294 0.06573751 0.11893313 0.044989668
0.007984807 -0.104046494 0.025501752 0.076528445 -0.001692851 0.03578398 -0.060219925 -0.15741684
0.15469863 0.09736208 0.039631538 0.12957735 -0.12687078 0.017740972 -0.07159255 0.07963863
-0.0855443 0.0061634434 0.023626283 0.11848892 0.099800766 -0.07334524 0.10694078 0.071886055
0.073433466 -0.021605227 -0.12256245 0.047470596 -0.05993639 -0.050392598 0.12188012 -0.17963319
-0.0338232 -0.13258821 0.070539415 0.05886727 -0.065428704 -0.055332657 -0.10818487 0.047041148
-0.010017011 0.1549025 0.038795225 0.08008612 0.085247695 0.041943554 0.116589494 0.12449099
0.08556203 0.11197232 -0.033862744 -0.026320547 -0.08836777 -0.013006366 0.057698753 0.04764897
0.08341308 0.14270206 -0.098773964 0.04211741 -0.057446375 -0.079481475 0.061288886 -0.034072112
0.0034261083 0.05977976 -0.09312753 0.06673035 0.05958301 0.059894517 0.07272673 0.07927543
-0.1383201 -0.0803093 0.12972917 0.0060490672 0.090857245 0.09921411 0.09479296 0.11958162
0.15232842 0.047941443 -0.0733588 0.10204254 -0.16778333 -0.044199858 -0.067289114 0.1342737
-0.034927145 0.12204049 0.06674994 -0.012143476 0.081215724 -0.062389992 -0.024151606 0.16001183
-0.12731211 0.14868583 0.024753574 -0.023663098 0.13885432 -0.11949467 0.030233333 0.07639498
0.034695745 -0.12610216 0.10581655 0.06558378 0.08304071 0.16770017 0.04844492 0.053625617
0.025392445 -0.13814057 -0.0339813 0.07572457 0.104049586 0.13505189 0.056537993 -0.043479487
-0.098903984 0.07340284 -0.13319728 -0.028686004 -0.01082246 -0.023581468 -0.12099787 0.089473374
-0.0062294886 0.061302423 0.13401835 -0.0056917802 0.044544604 0.027622495 0.1602884 -0.01813941
00000000: a500 f239 9c4d 1e3e 33f2 603d fa11 863d
00000010: 36b1 1e3d f3c6 bb3d a714 1b3e 7ba2 a8bd
00000020: 97cb 5cbd 907d afbd 00c9 233e f6b5 263d
00000030: 772e 8cbd 41fc 863d 22ff 38bc 66c7 babd
00000040: 2114 133b 6482 7f3d efbe 013d 484b f13d
00000050: f9ec e3bd a612 fe3d 9d2c c5bd 5744 1a3e
00000060: c67b 58bd f8b7 b0bd 6386 38bd ad4d 183d
00000070: 1b49 ad3d 9ab3 373e 03e7 9c3d 9cbb b1ba
00000080: e2b9 9ebd 2789 453d 3fdc 05be c3aa a4bd
00000090: 9660 99bc c695 d3bc 5302 863d c65c 8fbc
000000a0: 649a ef3d 44c6 053d 8c9c 1a3e 399e 5bbd
000000b0: 9a91 29bd efef e93d d8d4 8abd ebe8 a13d
000000c0: 6035 74bd 6c9f 04be 330d 953d 4d17 b33b
000000d0: bf97 853d c6dd 5abd 6064 1f3e b01d 593d
000000e0: e01d 043e d48d a1bc 979f c1bc fae7 14bd
000000f0: a2ed 22bd bb37 e1bd 9699 c1bc 15ce 37bd
00000100: a8af 27bc 8baa 01be b2c1 74bd 02eb 9bbc
00000110: f080 803b d9f1 b53d d35a c7bc 429c 03bd
00000120: 0251 b33d a73c 8c3d a92d d43d 43ee 00be
00000130: 5e1b 233b 8788 10bd 9105 853c 5a16 e23d
00000140: d9a9 d4bd 451b 2b3e 26b9 ad3d c0fa b93d
00000150: 40d2 f13c b7c2 143e 257e 97bd fa5b 003e
00000160: 6145 e23a 6f9b 96bd d32f 37be a0aa 543d
00000170: 5306 29bd 2908 2cbc b93b 093d ab2a 763d
00000180: cb1f 803d a0cb 13bd 33a3 2f3c 1d4f 23be
00000190: 8244 ce3d 2283 e8bc 9f57 193e caf6 7ebd
000001a0: c247 11bc b753 4abe 460b 21bd b91b 92bd
000001b0: 52c0 8b3d 2af3 3ebd a57a 7f3d 0b89 63bd
000001c0: 7eaa 8c3d 3e52 c4bc 3eae a03d 591f 6bbd
000001d0: 1f28 323d 63a1 863d 3693 f33d 1647 383d
000001e0: b5d2 023c 5416 d5bd 0de9 d03c f2ba 9c3d
000001f0: a7e2 ddba 3992 123d 2ba9 76bd e131 21be
00000200: 5169 1e3e c565 c73d ae54 223d edaf 043e
00000210: 6aea 01be 8455 913c 1d9f 92bd 9419 a33d
00000220: da31 afbd b6f6 c93b e88b c13c 52aa f23d
00000230: 5864 cc3d 0736 96bd c503 db3d ff38 933d
00000240: 4964 963d 72fd b0bc 0602 fbbd 8770 423d
00000250: dc7f 75bd 7868 4ebd 499c f93d c3f1 37be
00000260: 328a 0abd 34c5 07be f876 903d ce1e 713d
00000270: 7cff 85bd 7fa4 62bd 0790 ddbd 38ae 403d
00000280: 641e 24bc c39e 1e3e bee7 1e3d 3104 a43d
00000290: 5896 ae3d 01cd 2b3d 79c6 ee3d 22f5 fe3d
000002a0: 253b af3d be51 e53d a9b3 0abd 309e d7bc
000002b0: 29fa b4bd a718 55bc 8755 6c3d 912b 433d
000002c0: 7ad4 aa3d 7d20 123e 014a cabd 4e83 2c3d
000002d0: e44c 6bbd 2fc7 a2bd 0e0a 7b3d 338f 0bbd
000002e0: 8f88 603b 9fdb 743d a5b9 bebd eca9 883d
000002f0: 500d 743d f453 753d c0f1 943d 285b a23d
00000300: c9a3 0dbe 3479 a4bd b9d7 043e 4137 c63b
00000310: 5d13 ba3d c430 cb3d d022 c23d 35e7 f43d
00000320: fbfb 1b3e 3f5e 443d 233d 96bd aefb d03d
00000330: 65cf 2bbe e90a 35bd e0ce 89bd 0b7f 093e
00000340: c40f 0fbd 5df0 f93d 31b4 883d 6ef5 46bc
00000350: 6e54 a63d a68c 7fbd 97d9 c5bc 24da 233e
00000360: 1b5e 02be 1941 183e 02c8 ca3c 1dd9 c1bc
00000370: d42f 0e3e 9fb9 f4bd e5ab f73c f974 9c3d
00000380: 201d 0e3d ed20 01be 59b6 d83d ca50 863d
00000390: 3f11 aa3d 98b9 2b3e 2e6e 463d 89a6 5b3d
000003a0: d103 d03c b974 0dbe fa2f 0bbd 7c15 9b3d
000003b0: f317 d53d 0b4b 0a3e 6294 673d 8c17 32bd
000003c0: 2c8e cabd 3a54 963d de64 08be e9fe eabc
000003d0: b050 31bc ec2d c1bc bbcd f7bd d13d b73d
000003e0: bd20 ccbb 4018 7b3d 1b3c 093e 1d82 babb
000003f0: 6774 363d 9248 e23c a422 243e 1a99 94bc

model.4.bias f4 [64]
0.06601697 -0.041241255 0.073642984 -0.071120165 -0.04120091 -0.09415358 -0.0014603114 0.06536904
0.10872903 0.07081019 -0.07055392 -0.08917392 0.11773816 0.1202392 -0.00034273323 -0.05551
-0.04465663 0.09131937 0.060301375 0.033271212 -0.040474977 0.015835354 -0.022104574 0.0947294
-0.03223816 -0.02000087 -0.00035328878 0.01302154 0.03936493 -0.10822402 0.045697976 0.095685735
0.053815275 -0.09670814 -0.043047242 -0.051523816 -0.035697177 -0.045997072 0.06161265 0.12742941
-0.04167503 -0.11637233 0.046992164 0.08929655 -0.021861587 -0.06687576 -0.09807824 0.12759054
-0.07523753 0.11337296 0.028895196 0.06964022 0.11221025 -0.062011037 0.045429707 -0.07099343
-0.037783343 0.048981823 0.07286701 0.12589604 0.054788608 -0.10072613 0.07081299 0.042504065
00000000: e833 873d 97ec 28bd 22d2 963d 73a7 91bd
00000010: 49c2 28bd 98d3 c0bd eb67 bfba 34e0 853d
00000020: 53ad de3d ef04 913d 937e 90bd d1a0 b6bd
00000030: b420 f13d f83f f63d e0b0 b3b9 745e 63bd
00000040: dfe9 36bd a605 bb3d 93fe 763d 6547 083d
00000050: 17c9 25bd 25b9 813c a714 b5bc 7d01 c23d
00000060: 290c 04bd ddd8 a3bc 9e39 b9b9 4c58 553c
00000070: 1f3d 213d 8ea4 ddbd cd2d 3b3d e2f6 c33d
00000080: 686d 5c3d eb0e c6bd 4e52 30bd a30a 53bd
00000090: 3437 12bd 6d67 3cbd 8c5d 7c3d db7c 023e
000000a0: 70b3 2abd 9e54 eebd db7a 403d 1ce1 b63d
000000b0: 1217 b3bc 29f6 88bd 3fdd c8bd 18a7 023e
000000c0: 2216 9abd 1530 e83d 9eb5 ec3c 889f 8e3d
000000d0: 7dce e53d 49ff 7dbd 8014 3a3d 0165 91bd
000000e0: b5c2 1abd 2aa1 483d 4d3b 953d e4ea 003e
000000f0: 056a 603d 8049 cebd 6706 913d be18 2e3d

model.7.weight f4 [10, 64]
-0.09450324 0.05077402 -0.12659816 0.09957842 0.09712018 0.050735768 -0.11419396 -0.0129098585
0.008230917 0.031586833 -0.0577359 0.048301518 0.07577564 0.012504212 -0.12543602 0.035576627
-0.013854473 -0.065907866 0.16774242 -0.015966488 -0.0014383184 -0.09147917 -0.07672776 -0.14688787
0.14183037 0.0980112 -0.08071711 0.14252017 0.028907143 -0.12297068 0.09566855 0.086393364
-0.06212812 0.144522 -0.05207406 -0.15234317 -0.14935705 0.16086562 -0.08110147 -0.0712843
0.08754953 0.077494785 -0.15051363 0.02312769 -0.15091236 -0.04804893 -0.112674564 -0.05139972
0.002249413 0.044206653 -0.006374221 -0.087816335 0.12720782 -0.039657958 -0.13451888 -0.11938833
0.040560074 -0.12073922 -0.11283983 0.019736264 -0.0028127679 0.14830469 0.054657817 -0.120306596
0.015234388 0.079556614 -0.105959214 0.11879571 0.06249003 0.037161898 -0.13622952 0.010905698
0.120949246 0.050689492 -0.107898064 -0.122351624 -0.06941012 0.0013331587 -0.051922336 -0.18227139
0.057700474 0.017112967 -0.028178705 0.18375148 0.03231082 -0.056511894 -0.050365493 0.0711305
-0.047586218 -0.054262143 0.075909115 -0.09817643 -0.15953223 -0.018352348 -0.074481614 -0.12444595
0.11770211 -0.060535956 0.09696534 0.012523544 -0.02611964 0.067725934 -0.12118936 0.076190256
-0.14903829 0.06976423 0.08515311 -0.085385315 0.05783186 -0.114455484 0.03160856 0.07292352
0.122530624 -0.10583275 0.16512428 0.15254705 -0.17830218 -0.12727953 0.04361955 -0.0607641
0.014806277 -0.011922095 0.0126861585 0.15761359 -0.092747286 -0.09346295 -0.06779528 0.019841842
0.07151295 -0.06517543 0.08291556 0.052983593 0.16710801 -0.110375606 -0.07457212 -0.040963724
0.061165363 -0.008399492 0.06293571 0.11470179 -0.11983671 -0.11016423 -0.08592986 -0.055453736
0.06438735 0.14353088 -0.097068414 -0.044971522 -0.11137949 -0.043786768 0.042205993 -0.02282884
-0.016063431 -0.046516635 0.15918255 0.087625064 0.00072879606 0.0797464 -0.13188551 0.0153066525
0.11979029 -0.090040766 0.06867435 0.055510443 -0.14425647 -0.07295836 0.092135444 -0.03269961
0.11032843 -0.116332404 -0.08210911 -0.15252797 0.016260182 0.011076017 -0.14942099 -0.12749067
-0.14890659 -0.078222536 0.06192715 -0.10537178 0.10423372 0.14455546 -0.07670578 -0.16698916
-0.18892321 -0.08685686 0.0421976 0.07780871 -0.14245483 0.043978523 0.043205254 0.08580591
0.056923848 0.094720215 -0.13246928 -0.010831746 0.06783456 -0.07450144 0.057458036 -0.13973929
-0.04744236 -0.13160989 0.01701238 -0.05196187 -0.013280131 0.061569918 0.07207349 0.010436732
-0.14427342 0.14097077 0.10215454 -0.17932932 0.027753804 -0.044093534 0.14982465 0.16763158
-0.1505105 0.072403625 -0.05126882 0.10573744 -0.056904554 -0.12955041 -0.12665553 -0.12980825
-0.13104253 -0.11299601 0.012037075 -0.067775674 -0.056479253 0.05161969 0.09932819 0.014361755
0.090097405 0.07272089 0.06229313 -0.14871433 -0.005423562 -0.04218508 0.04321775 0.03300922
0.12444082 0.1275067 -0.16183478 -0.107075475 -0.14045285 0.026273236 -0.027101407 0.064001404
-0.007850129 -0.048178136 -0.09574478 -0.03916761 0.08308357 0.040538084 0.05918169 0.05806058
00000000: ea8a c1bd 6bf8 4f3d f3a2 01be c5ef cb3d
00000010: f2e6 c63d 4fd0 4f3d 86de e9bd df83 53bc
00000020: f8da 063c 3261 013d 7b7c 6cbd d0d7 453d
00000030: 4230 9b3d 77de 4c3c 4d72 00be ccb8 113d
00000040: dffd 62bc b4fa 86bd abc4 2b3e 27cc 82bc
00000050: f585 bcba 6e59 bbbd 7223 9dbd c669 16be
00000060: fb3b 113e 19ba c83d 034f a5bd cff0 113e
00000070: acce ec3c 0dd8 fbbd dfed c33d 01ef b03d
00000080: 0e7a 7ebd 93fd 133e 9c4b 55bd d9ff 1bbe
00000090: 0ef1 18be f5b9 243e 8718 a6bd 81fd 91bd
000000a0: 2b4d b33d 96b5 9e3d 3f20 1abe 4876 bd3c
000000b0: c588 1abe f4ce 44bd ecc1 e6bd 8388 52bd
000000c0: e36a 133b 0912 353d d7de d0bb 0dd9 b3bd
000000d0: c442 023e 6270 22bd 51bf 09be de81 f4bd
000000e0: 5222 263d 2046 f7bd 9218 e7bd f2ad a13c
000000f0: 6a56 38bb 2fdd 173e e0e0 5f3d 4e63 f6bd
00000100: a899 793c 94ee a23d 2501 d9bd 2a4b f33d
00000110: 8cf5 7f3d 1337 183d c07f 0bbe d0ad 323c
00000120: 3db4 f73d c99f 4f3d a9f9 dcbd 7d93 fabd
00000130: e526 8ebd 62bd ae3a 84ac 54bd 5aa5 3abe
00000140: 5557 6c3d 7e30 8c3c 07d7 e6bc 5929 3c3e
00000150: 5a58 043d 0479 67bd 0c4c 4ebd deac 913d
00000160: c4e9 42bd fb41 5ebd 3d76 9b3d b910 c9bd
00000170: 6b5c 23be aa57 96bc d189 98bd 85dd febd
00000180: ce0d f13d 8df4 77bd c495 c63d 8d2f 4d3c
00000190: dbf8 d5bc e5b3 8a3d 2132 f8bd a309 9c3d
000001a0: 7e9d 18be 8ce0 8e3d c164 ae3d 7fde aebd
000001b0: 1ae1 6c3d a367 eabd fa77 013d ed58 953d
000001c0: 56f1 fa3d d7be d8bd 5716 293e 4b35 1c3e
000001d0: d994 36be 9155 02be 6aaa 323d c7e3 78bd
000001e0: 0796 723c e454 43bc 9bd9 4f3c 7565 213e
000001f0: 4af2 bdbd 8169 bfbd 40d8 8abd 5c8b a23c
00000200: 6275 923d b27a 85bd a2cf a93d 5305 593d
00000210: 5d1e 2b3e 9b0c e2bd 45b9 98bd 94c9 27bd
00000220: 8888 7a3d 069e 09bc 70e4 803d c6e8 ea3d
00000230: f36c f5bd c99d e1bd fffb afbd 7523 63bd
00000240: 84dd 833d c2f9 123e cecb c6bd 0f34 38bd
00000250: ee1a e4bd c159 33bd 31e0 2c3d 8c03 bbbc
00000260: 7597 83bc 3a88 3ebd c000 233e c574 b33d
00000270: ad0c 3f3a 1552 a33d ff0c 07be c1c8 7a3c
00000280: 9d54 f53d 4b67 b8bd 23a5 8c3d eb5e 633d
00000290: f8b7 13be 316b 95bd 82b1 bc3d 07f0 05bd
000002a0: dff3 e13d af3f eebd d228 a8bd 4b30 1cbe
000002b0: 1334 853c 2f78 353c d101 19be ea8c 02be
000002c0: f87a 18be 2333 a0bd 53a7 7d3d 29cd d7bd
000002d0: 7d78 d53d 5906 143e ec17 9dbd 35ff 2abe
000002e0: 1675 41be 02e2 b1bd 64d7 2c3d 2c5a 9f3d
000002f0: aedf 11be d322 343d fef7 303d 02bb af3d
00000300: fb28 693d acfc c13d 07a6 07be a377 31bc
00000310: d9ec 8a3d 3694 98bd 1e59 6b3d d117 0fbe
00000320: ec52 42bd bec4 06be 8c5d 8b3c f8d5 54bd
00000330: e894 59bc bd30 7c3d 449b 933d d4fe 2a3c
00000340: 69bc 13be a45a 103e 6636 d13d 1ba2 37be
00000350: f25b e33c 6c9b 34bd a26b 193e 9da7 2b3e
00000360: 6d1f 1abe 5a48 943d 41ff 51bd df8c d83d
00000370: c014 69bd dda8 04be fdb1 01be 74ec 04be
00000380: 0330 06be 746a e7bd 2737 453c f9cd 8abd
00000390: ca56 67bd 2b6f 533d 946c cb3d 914d 6b3c
000003a0: fd84 b83d b1ee 943d 1527 7f3d 9248 18be
000003b0: 23b8 b1bb 43ca 2cbd 1805 313d ad34 073d
000003c0: d4da fe3d 1e91 023e 04b8 25be 634a dbbd
000003d0: dfd2 0fbe f83a d73c c503 debc 2b13 833d
000003e0: d49d 00bc 7056 45bd d715 c4bd 376e 20bd
000003f0: b827 aa3d 430b 263d 8068 723d eed0 6d3d

model.7.bias f4 [10]
0.052058414 -0.06824894 -0.0016667511 0.018519053 -0.045713235 -0.041080162 -0.100562915 -0.041639704
0.060293246 -0.039633363
00000000: 343b 553d 1ac6 8bbd e376 daba 45b5 973c
00000010: cd3d 3bbd ac43 28bd eef3 cdbd 658e 2abd
00000020: 0df6 763d 9856 22bd

exp_avg f4 [64, 784]
0.0002739064 0.0002739064 0.0002739064 0.0002739064 0.0002739064 0.0002739064 0.0002739064 0.0002739064
0.0002739064 0.0002739064 0.0002739064 0.0002739064 0.00027389536 0.00027366795 0.00027366795 0.00027389647
0.0002739064 0.0002739064 0.0002739064 0.0002739064 0.0002739064 0.0002739064 0.0002739064 0.0002739064
0.0002739064 0.0002739064 0.0002739064 0.0002739064 0.0002739064 0.0002739064 0.0002739064 0.0002739064
0.00027388727 0.00027385025 0.00027387193 0.00026436473 0.0002101886 0.00025618757 0.00025147124 0.0002650626
0.000266335 0.00026294013 0.000261307 0.0002551244 0.00026346542 0.0002683882 0.00027251444 0.0002733318
0.00027294987 0.00027361233 0.0002737882 0.0002739053 0.0002739064 0.0002739064 0.0002739064 0.0002739064
0.0002739064 0.0002739064 0.0002739064 0.00027390683 0.00027379615 0.00027387106 0.00027280205 0.0002648844
0.00020122908 0.00021128228 0.00016766576 0.00015253958 0.00022712938 0.00020488429 0.00013754024 0.00016673264
0.00011182384 0.00011794585 0.00019307258 0.00016606119 0.00023291851 0.00024330322 0.0002617995 0.00026828318
0.00027071533 0.00027325779 0.0002739064 0.0002739064 0.0002739064 0.0002739064 0.00027404376 0.00027402243
0.00027559194 0.00027123024 0.00026182644 0.00028974307 0.0003049898 0.00019013375 0.00016475061 5.018831e-05
0.00017516642 0.00016945679 -0.00021208053 0.00013937145 0.0003797732 0.00026690733 0.00044419078 0.00023305237
0.00039760408 0.00024226728 0.00017082762 0.00011057401 0.00013796335 0.00026012756 0.00027375526 0.0002739064
0.0002739064 0.00027396972 0.00027712353 0.00027574642 0.00028254476 0.0002801696 0.00034260616 0.00023166544
0.0002181369 0.00019537195 4.2110405e-05 -0.00013291636 -0.00030071128 -0.0002869799 -9.276593e-07 0.00044342608
0.00039808056 0.00017851162 0.00047925356 0.00062240235 0.0005083411 0.00020419607 5.0076815e-05 -1.8942475e-05
0.00015619975 0.00027453472 0.00027484176 0.0002738872 0.0002739064 0.0002739064 0.00027488716 0.0002786227
0.00034876546 0.00030280295 0.00026617586 0.00010943496 0.00010158453 4.1676387e-05 0.00022221918 0.0002997422
0.00020694733 0.0003636052 -7.42538e-05 0.00013692195 0.00022598729 -7.5613657e-06 0.00048116097 0.00048809146
0.00030435857 0.0002788182 0.00023343283 6.3559855e-05 5.532861e-05 0.00034613133 0.0003176712 0.0002735901
0.0002739064 0.0002739064 0.00027410063 0.00028416744 0.00032285062 0.00032618706 0.0002810944 -5.098443e-05
-0.00015895478 3.6763733e-05 0.0004908249 0.000585798 0.0007427357 0.00056896236 9.278859e-05 3.3129145e-05
0.00030086096 -0.0004532896 -7.291791e-05 7.921558e-05 -4.2060314e-05 7.5934586e-05 1.4999185e-05 6.827453e-05
5.9281392e-05 0.00029741143 0.00026693 0.0002739097 0.0002739064 0.00027390977 0.00028188303 0.0003065169
0.0003155403 0.00034207024 0.00022723505 4.417677e-05 -6.6986795e-05 0.00010950631 7.615107e-05 -2.2920094e-05
0.0002864972 4.3494114e-05 -0.0005055411 -0.00028591018 0.00024979675 -6.384143e-05 -0.00047892804 -0.0005238904
3.565051e-06 0.00014822787 -0.00017592701 -0.00015347647 -2.6486752e-05 0.00032922957 0.00028596286 0.00028552325
0.00027390642 0.00027700744 0.0003146744 0.00030744556 0.00038487444 0.000361735 0.0001699359 -3.316081e-06
0.00017209395 -0.000102489474 -0.00033324154 -0.00018665328 8.697062e-05 0.000279874 -3.7834092e-05 -0.00044515394
-0.00025974895 -0.00012278302 -0.000595281 -0.00050460576 0.00034594012 0.00020212428 0.00019161012 0.00030123277
0.0003483132 0.0003837883 0.00031760294 0.00028420702 0.0002739064 0.00027808986 0.00027821737 0.00027722138
00000000: 189b 8f39 189b 8f39 189b 8f39 189b 8f39
00000010: 189b 8f39 189b 8f39 189b 8f39 189b 8f39
00000020: 189b 8f39 189b 8f39 189b 8f39 189b 8f39
00000030: 9d99 8f39 177b 8f39 177b 8f39 c399 8f39
00000040: 189b 8f39 189b 8f39 189b 8f39 189b 8f39
00000050: 189b 8f39 189b 8f39 189b 8f39 189b 8f39
00000060: 189b 8f39 189b 8f39 189b 8f39 189b 8f39
00000070: 189b 8f39 189b 8f39 189b 8f39 189b 8f39
00000080: 8798 8f39 8f93 8f39 7896 8f39 6f9a 8a39
00000090: 1366 5c39 ea50 8639 e6d7 8339 1af8 8a39
000000a0: e1a2 8b39 3adb 8939 0800 8939 38c2 8539
000000b0: bb21 8a39 74b6 8c39 45e0 8e39 f94d 8f39
000000c0: b61a 8f39 a073 8f39 3b8b 8f39 f29a 8f39
000000d0: 189b 8f39 189b 8f39 189b 8f39 189b 8f39
000000e0: 189b 8f39 189b 8f39 189b 8f39 279b 8f39
000000f0: 4c8c 8f39 5a96 8f39 df06 8f39 2fe0 8a39
00000100: 0501 5339 a88b 5d39 6fcf 2f39 08f3 1f39
00000110: 9429 6e39 35d6 5639 ad38 1039 f4d4 2e39
00000120: f882 ea38 b259 f738 8773 4a39 b620 2e39
00000130: 963b 7439 361f 7f39 2242 8939 5ca8 8c39
00000140: ccee 8d39 0a44 8f39 189b 8f39 189b 8f39
00000150: 189b 8f39 189b 8f39 88ad 8f39 abaa 8f39
00000160: 537d 9039 e833 8e39 c045 8939 a8e8 9739
00000170: 0ae7 9f39 a45e 4739 e8c0 2c39 4a81 5238
00000180: e1ac 3739 36b0 3139 ef61 5eb9 3d24 1239
00000190: 4c1c c739 b2ef 8b39 47e2 e839 855f 7439
000001a0: 8475 d039 2109 7e39 3120 3339 f8e3 e738
000001b0: 41aa 1039 bb61 8839 cf86 8f39 189b 8f39
000001c0: 189b 8f39 98a3 8f39 e44a 9139 0f92 9039
000001d0: 8422 9439 bae3 9239 d29f b339 38eb 7239
000001e0: aebb 6439 c2dc 4c39 b49f 3038 775f 0bb9
000001f0: c9a8 9db9 ca75 96b9 4304 79b5 a47b e839
00000200: 78b5 d039 d92e 3b39 5344 fb39 b728 233a
00000210: 3242 053a 771d 5639 9209 5238 a8e6 9eb7
00000220: 8dc9 2339 6def 8f39 a318 9039 8598 8f39
00000230: 189b 8f39 189b 8f39 bb1e 9039 1b14 9239
00000240: 82da b639 86c1 9e39 858d 8b39 7280 e538
00000250: c709 d538 aecd 2e38 8203 6939 b826 9d39
00000260: 0000 5939 44a2 be39 b5b8 9bb8 b592 0f39
00000270: 00f7 6c39 a3b7 fdb6 5544 fc39 87e6 ff39
00000280: 5192 9f39 582e 9239 a6c5 7439 704b 8538
00000290: a510 6838 f678 b539 1b8d a639 a470 8f39
000002a0: 189b 8f39 189b 8f39 2ab5 8f39 4ffc 9439
000002b0: 4744 a939 1604 ab39 da5f 9339 1dd8 55b8
000002c0: 19ad 26b9 c232 1a38 b4aa 003a 3d90 193a
000002d0: 26b4 423a 6b26 153a 7f97 c238 26f4 0a38
000002e0: e0bc 9d39 80a7 edb9 81eb 98b8 8a20 a638
000002f0: eb69 30b8 123f 9f38 02a5 7b37 9c2e 8f38
00000300: e9a4 7838 e3ed 9b39 bdf2 8b39 8a9b 8f39
00000310: 189b 8f39 8c9b 8f39 b3c9 9339 00b4 a039
00000320: 1a6f a539 e457 b339 f245 6e39 724a 3938
00000330: 437b 8cb8 c1a6 e538 4bb3 9f38 8744 c0b7
00000340: 0135 9639 736d 3638 4a86 04ba 37e6 95b9
00000350: 27f7 8239 9be2 85b8 a218 fbb9 b155 09ba
00000360: 1c3f 6f36 9e6d 1b39 0c79 38b9 87ee 20b9
00000370: de2f deb7 729c ac39 49ed 9539 48b2 9539
00000380: 199b 8f39 4f3b 9139 e2fa a439 a530 a139
00000390: f9c8 c939 40a7 bd39 d230 3239 d689 5eb6
000003a0: 1e74 3439 9eef d6b8 ecb6 aeb9 5cb8 43b9
000003b0: ff63 b638 0dbc 9239 0cb0 1eb8 8d63 e9b9
000003c0: ea2e 88b9 51bf 00b9 a20c 1cba 8547 04ba
000003d0: 4c5f b539 53f1 5339 f3ea 4839 c7ee 9d39
000003e0: ce9d b639 3237 c939 f283 a639 9f01 9539
000003f0: 189b 8f39 97cc 9139 b4dd 9139 0658 9139

exp_avg_sq f4 [64, 784]
5.519662e-07 5.519662e-07 5.519662e-07 5.519662e-07 5.519662e-07 5.519662e-07 5.519662e-07 5.519662e-07
5.519662e-07 5.519662e-07 5.519662e-07 5.519662e-07 5.5196824e-07 5.520073e-07 5.520073e-07 5.5196807e-07
5.519662e-07 5.519662e-07 5.519662e-07 5.519662e-07 5.519662e-07 5.519662e-07 5.519662e-07 5.519662e-07
5.519662e-07 5.519662e-07 5.519662e-07 5.519662e-07 5.519662e-07 5.519662e-07 5.519662e-07 5.519662e-07
5.519743e-07 5.5198325e-07 5.5484657e-07 5.617662e-07 5.567538e-07 5.5437977e-07 5.550923e-07 5.438704e-07
5.401912e-07 5.523749e-07 5.539669e-07 5.505925e-07 5.5408196e-07 5.5576095e-07 5.4645005e-07 5.503076e-07
5.504899e-07 5.533398e-07 5.5162366e-07 5.517634e-07 5.519662e-07 5.519662e-07 5.519662e-07 5.519662e-07
5.519662e-07 5.519662e-07 5.517279e-07 5.5088447e-07 5.5197586e-07 5.52282e-07 5.561128e-07 5.70967e-07
5.823503e-07 5.90278e-07 6.0708476e-07 5.615352e-07 5.5805924e-07 6.463984e-07 7.652548e-07 8.164623e-07
8.0537814e-07 7.9998534e-07 7.7783744e-07 6.8187364e-07 5.97746e-07 5.5358504e-07 5.4967626e-07 5.435306e-07
5.6391445e-07 5.604917e-07 5.519662e-07 5.519662e-07 5.519662e-07 5.519662e-07 5.512186e-07 5.4944314e-07
5.5134154e-07 5.5042335e-07 5.562635e-07 5.857464e-07 6.3985647e-07 7.4329074e-07 7.7675315e-07 8.143967e-07
9.748042e-07 1.2882101e-06 1.8026749e-06 2.2401773e-06 2.601801e-06 2.78669e-06 2.531133e-06 1.8238188e-06
1.1541123e-06 8.606492e-07 7.052426e-07 6.486568e-07 6.697466e-07 5.8134304e-07 5.6609224e-07 5.519662e-07
5.519662e-07 5.519716e-07 5.5149417e-07 5.5031006e-07 5.497843e-07 5.6266964e-07 5.890077e-07 6.4862735e-07
7.7356503e-07 1.016195e-06 1.1802023e-06 1.362061e-06 1.654252e-06 2.0875275e-06 2.8464829e-06 3.594606e-06
4.0782747e-06 4.098571e-06 3.2441226e-06 2.5138934e-06 1.9822962e-06 1.4223561e-06 1.1784407e-06 9.759002e-07
7.948624e-07 6.3723417e-07 5.494117e-07 5.4843883e-07 5.519662e-07 5.519662e-07 5.523237e-07 5.528631e-07
5.650932e-07 6.225649e-07 6.956526e-07 8.222015e-07 1.211732e-06 1.628651e-06 1.8612265e-06 2.2481909e-06
2.863375e-06 3.768397e-06 4.842973e-06 5.807718e-06 6.3491943e-06 5.5129763e-06 4.072157e-06 2.977636e-06
2.3014077e-06 1.8681237e-06 1.5699877e-06 1.2865598e-06 9.2021025e-07 6.647094e-07 5.5957474e-07 5.4849835e-07
5.519662e-07 5.5197313e-07 5.5177924e-07 5.6478075e-07 5.881643e-07 6.673842e-07 9.0842616e-07 1.1800199e-06
1.7091938e-06 2.002368e-06 2.6989997e-06 3.778436e-06 5.3828917e-06 6.8030417e-06 7.778315e-06 7.5469447e-06
6.6211305e-06 6.0041993e-06 5.2116798e-06 4.2692836e-06 3.151202e-06 2.2745007e-06 1.7175203e-06 1.2727702e-06
8.4402154e-07 6.77746e-07 5.728627e-07 5.558056e-07 5.519631e-07 5.5281475e-07 5.547689e-07 5.775703e-07
6.3639783e-07 8.3060115e-07 1.0620643e-06 1.4039025e-06 1.9576082e-06 2.6871892e-06 4.0707896e-06 5.528091e-06
7.1838804e-06 8.821457e-06 1.0950412e-05 1.0884916e-05 1.0789022e-05 9.7610955e-06 8.142677e-06 5.8940645e-06
3.9276447e-06 2.535644e-06 1.7105117e-06 1.2853316e-06 8.817252e-07 6.538505e-07 5.552348e-07 5.528532e-07
5.527234e-07 5.519532e-07 5.5970867e-07 5.7707183e-07 6.652929e-07 8.919533e-07 1.1506629e-06 1.6502381e-06
2.441135e-06 3.4383395e-06 4.752175e-06 6.084249e-06 7.149766e-06 8.993827e-06 1.0581558e-05 1.216518e-05
1.2989142e-05 1.2554288e-05 1.0954141e-05 6.6935613e-06 4.1941344e-06 2.9340247e-06 2.058269e-06 1.4260473e-06
8.9008086e-07 6.431607e-07 5.57283e-07 5.544218e-07 5.518347e-07 5.507251e-07 5.647445e-07 5.977484e-07
00000000: d42a 1435 d42a 1435 d42a 1435 d42a 1435
00000010: d42a 1435 d42a 1435 d42a 1435 d42a 1435
00000020: d42a 1435 d42a 1435 d42a 1435 d42a 1435
00000030: f82a 1435 a72d 1435 a72d 1435 f52a 1435
00000040: d42a 1435 d42a 1435 d42a 1435 d42a 1435
00000050: d42a 1435 d42a 1435 d42a 1435 d42a 1435
00000060: d42a 1435 d42a 1435 d42a 1435 d42a 1435
00000070: d42a 1435 d42a 1435 d42a 1435 d42a 1435
00000080: 632b 1435 002c 1435 c4f0 1435 48cc 1635
00000090: d473 1535 b0d0 1435 a701 1535 7dfe 1135
000000a0: a801 1135 ea46 1435 51b4 1435 6ecc 1335
000000b0: 39bc 1435 9a2f 1535 c3af 1235 dab8 1335
000000c0: 61c5 1335 3989 1435 4a13 1435 e41c 1435
000000d0: d42a 1435 d42a 1435 d42a 1435 d42a 1435
000000e0: d42a 1435 d42a 1435 741a 1435 7ee0 1335
000000f0: 7e2b 1435 8840 1435 c847 1535 8e44 1935
00000100: cf52 1c35 9873 1e35 8cf6 2235 68bc 1635
00000110: 8acd 1535 2984 2d35 e96b 4d35 dd2a 5b35
00000120: 2a31 5835 93be 5635 95cc 5035 000a 3735
00000130: cb74 2035 139a 1435 778d 1335 23e7 1135
00000140: e85f 1735 b274 1635 d42a 1435 d42a 1435
00000150: d42a 1435 d42a 1435 74f7 1335 727d 1335
00000160: e7ff 1335 cec0 1335 2352 1535 303c 1d35
00000170: 9ac2 2b35 8d86 4735 1282 5035 ea9c 5a35
00000180: 04d6 8235 90e6 ac35 70f3 f135 f455 1636
00000190: 9a9a 2e36 f802 3b36 89dc 2936 f0c9 f435
000001a0: ffe6 9a35 5d07 6735 e74f 3d35 5b1f 2e35
000001b0: a3c8 3335 970d 1c35 90f5 1735 d42a 1435
000001c0: d42a 1435 332b 1435 640a 1435 05b9 1335
000001d0: e494 1335 5d0a 1735 4d1c 1e35 551d 2e35
000001e0: fca6 4f35 3264 8835 7167 9e35 0fd0 b635
000001f0: aa07 de35 7317 0c36 3406 3f36 dc3a 7136
00000200: 1dd8 8836 7586 8936 9ab5 5936 5cb4 2836
00000210: 9707 0536 c9e7 be35 ea2a 9e35 adfb 8235
00000220: 875e 5535 660e 2b35 497b 1335 6e38 1335
00000230: d42a 1435 d42a 1435 6543 1435 7768 1435
00000240: e9b0 1735 561e 2735 e2bc 3a35 42b5 5c35
00000250: cba2 a235 0698 da35 41cf f935 a0df 1636
00000260: 6828 4036 91e4 7c36 d280 a236 ebdf c236
00000270: 2a0b d536 1bfc b836 90a3 8836 66d3 4736
00000280: e271 1a36 3ebc fa35 5eb8 d235 dcad ac35
00000290: 5e04 7735 7b6e 3235 af35 1635 853c 1335
000002a0: d42a 1435 4e2b 1435 fb1d 1435 709b 1735
000002b0: 58e2 1d35 4b26 3335 92da 7335 2d61 9e35
000002c0: 7467 e535 6c60 0636 7620 3536 0991 7d36
000002d0: b09e b436 af45 e436 9c7f 0237 c33b fd36
000002e0: 142b de36 ae77 c936 fddf ae36 de40 8f36
000002f0: 3d79 5336 a0a3 1836 8c85 e635 0dd4 aa35
00000300: b890 6235 5aee 3535 d3c6 1935 ac32 1535
00000310: 9e2a 1435 2465 1435 6eeb 1435 540a 1b35
00000320: edd4 2a35 7af6 5e35 408c 8e35 b96d bc35
00000330: 745f 0336 8f55 3436 d197 8836 f17d b936
00000340: 100d f136 dfff 1337 a9b7 3737 5c9e 3637
00000350: 7f02 3537 96c3 2337 889c 0837 a1c5 c536
00000360: 36ca 8336 082a 2a36 bc94 e535 a883 ac35
00000370: b2af 6c35 4484 2f35 720b 1535 c867 1435
00000380: dd5e 1435 ef29 1435 e33e 1635 13e8 1a35
00000390: 9496 3235 906e 6f35 7a70 9a35 c07d dd35
000003a0: 61d2 2336 39be 6636 df74 9f36 4d27 cc36
000003b0: 06e8 ef36 31e4 1637 7287 3137 0d19 4c37
000003c0: f1eb 5937 42a0 5237 adc7 3737 4199 e036
000003d0: 57bb 8c36 29e6 4436 cb20 0a36 9d66 bf35
000003e0: e4ed 6e35 aba5 2c35 3298 1535 93d3 1435
000003f0: cb21 1435 8ad5 1335 f298 1735 f574 2035

exp_avg f4 [64]
-0.00064568134 -0.00044925482 2.266376e-05 -0.00050038623 0.0007614444 0.00060696586 -0.00043272684 6.308847e-05
-0.00035645193 0.0010166878 -4.4007997e-05 -0.000254315 -1.0446579e-06 0.00035595812 -0.00070806604 -0.00080174167
-0.00032463897 0.0004528287 0.00049686607 6.213465e-05 0.00043252434 2.2027687e-05 -0.00014386431 0.00070993684
1.0776126e-05 -0.00027868504 0.00050638267 0.00013835297 0.0005186384 -0.0001520356 -0.00028692913 0.000145263
0.00037495527 0.00049380655 8.204673e-05 -6.3103194e-05 -8.044436e-05 0.0012840866 -0.00032788512 -0.00089448376
0.0002794821 -0.0010856958 2.4955158e-05 3.2844136e-07 0.00032351003 0.00047989262 -0.00010236807 -0.00019102273
0.00055107597 -0.00054123445 0.00053047756 -0.00037069854 -0.00012781391 0.000170153 0.00011808047 -0.00020113894
0.00061774784 -0.00060513377 0.00029257833 -0.00019610333 -0.00013613122 0.00069037324 0.00067072146 -0.00040191927
00000000: f142 29ba f689 ebb9 0e1e be37 5a2c 03ba
00000010: ab9b 473a ca1c 1f3a 9ddf e2b9 5d4e 8438
00000020: 2be2 bab9 6242 853a 3a95 38b8 9555 85b9
00000030: 2c36 8cb5 e49f ba39 829d 39ba f92b 52ba
00000040: 4e34 aab9 a469 ed39 1e40 023a 494e 8238
00000050: 6fc4 e239 19c8 b837 48da 16b9 0e1b 3a3a
00000060: 1ccb 3437 791c 92b9 c4be 043a d812 1139
00000070: 3cf5 073a bf6b 1fb9 fa6e 96b9 bd51 1839
00000080: a595 c439 cc72 013a 8110 ac38 4556 84b8
00000090: 3db4 a8b8 cc4e a83a ffe7 abb9 ca7b 6aba
000000a0: 7487 9239 e84d 8eba cb56 d137 a354 b034
000000b0: c89c a939 199a fb39 70ae d6b8 464d 48b9
000000c0: 1576 103a a1e1 0dba bf0f 0b3a 515a c2b9
000000d0: c905 06b9 196b 3239 f8a1 f738 d3e8 52b9
000000e0: 5bf0 213a d7a1 1eba 3365 9939 16a1 4db9
000000f0: 72be 0eb9 2afa 343a 5bd3 2f3a b1b8 d2b9

exp_avg_sq f4 [64]
3.067216e-06 2.4644858e-06 3.5130115e-06 1.8281562e-06 3.907377e-06 1.9949382e-06 3.0559647e-06 3.4620969e-06
1.1641321e-06 2.187607e-06 2.0192379e-06 2.254708e-06 2.6540342e-06 3.3643396e-06 1.8162943e-06 2.6988916e-06
2.3687296e-06 1.815464e-06 2.964278e-06 3.0916667e-06 3.0120927e-06 3.709534e-06 2.095087e-06 2.867639e-06
2.070419e-06 1.5686821e-06 2.74781e-06 1.6543578e-06 1.8324412e-06 1.5346931e-06 1.8037999e-06 1.3887378e-06
1.748884e-06 2.1539295e-06 4.8349364e-07 1.5674381e-06 1.8265863e-06 4.2186975e-06 2.2771173e-06 2.9015018e-06
2.918733e-06 2.5846555e-06 3.3211647e-06 1.1103742e-08 2.0681396e-06 2.6826963e-06 2.0545547e-06 1.5931288e-06
2.4963852e-06 4.2960446e-06 1.2717488e-06 3.1330621e-06 7.79569e-07 2.5993952e-06 1.7518444e-06 2.3914151e-06
1.8571808e-06 2.2286927e-06 2.4860628e-06 1.5588225e-06 2.4460248e-06 2.1061028e-06 3.948883e-06 2.3693178e-06
00000000: 5fd6 4d36 8b63 2536 14c1 6b36 f85e f535
00000010: 1d1c 8336 c7e0 0536 1315 4d36 5f56 6836
00000020: 463f 9c35 cdce 1236 3e82 0736 974f 1736
00000030: f61b 3236 eac6 6136 66c7 f335 9b1e 3536
00000040: 77f6 1e36 deaa f335 e9ed 4636 6e7a 4f36
00000050: 5c23 4a36 4ff1 7836 5299 0c36 aa71 4036
00000060: 87f1 0a36 828b d235 0467 3836 4d0b de35
00000070: 33f2 f535 a7fb cd35 181a f235 ab64 ba35
00000080: 32bb ea35 3a8c 1036 6ec9 0135 c360 d235
00000090: 0729 f535 568e 8d36 94d0 1836 6cb7 4236
000000a0: 73df 4336 0b74 2d36 2de1 5e36 c6c2 3e32
000000b0: 5eca 0a36 5f08 3436 fbe0 0936 7dd3 d535
000000c0: 9287 2736 be26 9036 f5b0 aa35 9941 5236
000000d0: 9343 5135 4571 2e36 ea20 eb35 337c 2036
000000e0: 3f44 f935 a690 1536 3cd6 2636 bc38 d135
000000f0: 6326 2436 9256 0d36 a680 8436 9200 1f36

exp_avg f4 [64, 64]
-0.0007025046 -0.002434615 0.00073705334 -0.0005422245 -0.0010757903 0.00010238294 -0.0016917961 -0.0010230808
0.001475479 0.00015299105 -0.0010734263 -0.0023048518 -0.0025143973 -0.0011273907 -0.00018640952 -2.9286026e-05
-0.0020044527 -0.0007712031 6.2521474e-05 0.0010302329 0.0011878939 -0.0018165526 -0.0005800402 -0.0004075819
0.00045378544 0.0016902967 -0.00012546698 0.00088709104 0.0009324002 -0.0013655503 -0.0008080746 -0.0002799975
0.0011844746 0.00022858357 0.0008197272 0.0013609057 0.0002489043 -0.0011968814 0.0015288466 -0.0004613044
-0.00046100584 -0.0021897897 -0.0008911207 7.1354435e-07 -0.00038636432 0.0011421095 -0.0007132302 0.00021732168
0.0004962528 0.00026087 -0.00010107184 -0.00029559238 0.0017711002 0.0011561919 -0.0016838893 -0.00092519127
0.000654607 -0.00021828144 -7.3943724e-05 0.00023665055 0.0021409034 -0.0014488617 -4.9781604e-05 -1.4565434e-05
0.0003186604 0.0003339297 0.00015805112 -0.00013125327 0.0014466301 -0.0007841128 0.00028745935 0.0028340982
0.0013733669 0.00028645337 0.00085703155 0.0007660235 -0.00094013393 -0.0032789223 -0.00057215366 0.0007656962
-0.0007558729 0.00064759626 -0.00036066133 -0.0004719494 -0.00025982974 -0.0002597023 -0.00042003195 -0.0001358419
-0.0013958983 -0.00044456928 0.0006144497 0.0003475566 0.00012600534 -0.00047770987 0.0010922214 -0.002597718
0.00029538176 0.0016993621 0.0016731801 0.0009145933 -0.0016207611 0.0019473381 0.00026043114 -0.0013493373
-0.00065929646 0.0011010786 -0.0002232065 8.652518e-07 0.0006493459 0.00078951585 0.00042585883 0.0016175265
-0.0007489113 0.0002486054 -0.0017596773 -0.00029984288 0.0011400135 0.0010801028 -0.0003442609 0.0012559663
0.0024514045 4.4613767e-05 0.0007389517 -0.0001847972 0.0016411216 -0.00044607496 0.002060947 0.00089793216
-0.0010049223 -0.0007733694 -0.0029578854 -0.0011463951 -0.0012345024 -0.002273267 0.0008536078 -0.00069947686
-0.0011537162 -0.0008340277 -0.0003794715 -0.0009239492 0.00083017896 -0.00048608586 -0.0025920614 -0.0023805648
-0.00035917948 -0.0046840934 -0.0008857265 -0.0011899408 -0.0013854326 -0.0013275852 -0.001368401 0.000121987956
0.00041472976 -0.0010258848 -0.00063378824 -0.00065751816 -0.0003637074 -0.00030069586 -0.00028483503 -0.00036964318
-0.0013776878 -0.0005592917 -0.0005707618 -0.00016517958 -0.0013960275 -0.0012901957 -0.0018416786 -0.0011482061
-0.0009386551 -0.00021630188 -0.0025986624 -9.7360704e-08 0.0005473387 -0.001735834 -0.0029622559 -0.00096194196
-0.002592254 -0.0012286219 -0.0021423048 -0.0024562085 -0.0005055147 0.00020856607 1.9212282e-05 -0.0007886436
-0.0017056778 -0.0022470187 -0.00048401358 -0.0030932364 1.7202063e-06 -0.00072299584 -0.0011174041 -0.00028172214
0.0018123374 -0.00031040222 0.0016511386 0.0013623746 -0.00030630705 -0.00047040373 -0.0011022358 0.000808016
0.0002502623 -0.0006940985 0.00046234575 0.001061208 0.00088648335 0.0006661721 0.0006732142 4.0009963e-05
0.0005528259 0.0036106815 -0.00080069125 0.00020377201 0.0014844936 0.00088731095 0.0012099933 0.00024535187
0.000666321 0.00039565758 -0.0007230599 -0.0003154879 -0.0008176053 0.00035421472 -0.0006134704 0.0010344863
0.0021485083 -0.0003008721 -0.00065319194 -0.00025401177 0.0008762515 -0.0003565982 0.002106183 0.0002265273
-0.00026189195 0.00058165204 0.0010846582 -2.6867906e-07 -0.00079432013 0.0002533524 0.0022138923 0.001059252
0.0019802656 0.00083510746 -3.184533e-05 0.000792499 0.00051365077 -0.00080204 5.1289182e-05 -0.00012069188
0.0012038376 0.0003311733 -0.00035729623 0.0020896262 0.0011228293 0.00017623515 0.00029917556 0.0007564495
00000000: 4928 38ba 108e 1fbb d036 413a 1224 0eba
00000010: 8801 8dba 6cb6 d638 42bf ddba e518 86ba
00000020: dc64 c13a 396c 2039 36b2 8cba ff0c 17bb
00000030: 96c8 24bb f4c4 93ba ed76 43b9 43ab f5b7
00000040: 235d 03bb 902a 4aba f61d 8338 e108 873a
00000050: 1bb3 9b3a 6419 eeba d70d 18ba b7b0 d5b9
00000060: 0dea ed39 f28c dd3a c98f 03b9 ac8b 683a
00000070: 516c 743a 44fc b2ba f8d4 53ba a1cc 92b9
00000080: 5f40 9b3a efaf 6f39 f6e2 563a 6b60 b23a
00000090: 5f7f 8239 ade0 9cba 9463 c83a 3adb f1b9
000000a0: 28b3 f1b9 9382 0fbb 199a 69ba 658a 3f35
000000b0: f190 cab9 d6b2 953a 12f8 3aba d8e0 6339
000000c0: f616 023a 61c5 8839 88f6 d3b8 bdf9 9ab9
000000d0: 4324 e83a 5d8b 973a f3b5 dcba 8988 72ba
000000e0: ef99 2b3a 7ae2 64b9 3c12 9bb8 6625 7839
000000f0: 664e 0c3b bbe7 bdba 97cc 50b8 105e 74b7
00000100: e011 a739 4913 af39 86ba 2539 08a1 09b9
00000110: da9c bd3a eb8c 4dba 24b6 9639 47bc 393b
00000120: 8c02 b43a 1f2f 9639 6aaa 603a f8ce 483a
00000130: 5273 76ba 30e3 56bb 95fc 15ba 01b9 483a
00000140: c625 46ba 73c3 293a 2517 bdb9 fa6f f7b9
00000150: c239 88b9 a728 88b9 bc37 dcb9 c870 0eb9
00000160: 93f6 b6ba 1415 e9b9 0513 213a 4238 b639
00000170: 4d20 0439 2275 fab9 de28 8f3a 7a3e 2abb
00000180: 78dd 9a39 21bd de3a 9c4e db3a 51c1 6f3a
00000190: b86f d4ba d33d ff3a 7a8a 8839 3fdc b0ba
000001a0: a3d4 2cba 1152 903a 8a0c 6ab9 a743 6835
000001b0: de38 2a3a 83f7 4e3a ce45 df39 2f03 d43a
000001c0: 9652 44ba 4157 8239 f9a4 e6ba 3b34 9db9
000001d0: 816c 953a 3c92 8d3a ea7d b4b9 3c9f a43a
000001e0: bea7 203b ab1f 3b38 36b6 413a 1fc6 41b9
000001f0: e71a d73a 2bdf e9b9 f410 073b 3563 6b3a
00000200: 99b7 83ba f1bb 4aba 15d9 41bb a342 96ba
00000210: 07cf a1ba 17fb 14bb a6c4 5f3a 195d 37ba
00000220: 4b38 97ba a7a2 5aba cdf3 c6b9 2e35 72ba
00000230: 5ea0 593a 57d9 feb9 93df 29bb 4003 1cbb
00000240: 4150 bcb9 067d 99bb 1930 68ba caf7 9bba
00000250: 6797 b5ba 5e02 aeba eb5b b3ba c9d3 ff38
00000260: 1670 d939 fb76 86ba cf24 26ba 4c5d 2cba
00000270: fbaf beb9 b7a6 9db9 e955 95b9 abcc c1b9
00000280: 8893 b4ba 6e9d 12ba 2d9f 15ba 0e34 2db9
00000290: e9fa b6ba c91b a9ba 7b64 f1ba 677f 96ba
000002a0: 1410 76ba 18cf 62b9 524e 2abb 9d14 d1b3
000002b0: 477b 0f3a ed84 e3ba 6822 42bb d52a 7cba
000002c0: cee2 29bb b609 a1ba e965 0cbb 57f8 20bb
000002d0: 8484 04ba 87b2 5a39 102a a137 fabc 4eba
000002e0: 0d91 dfba b842 13bb 34c3 fdb9 e5b7 4abb
000002f0: d7e1 e635 6e87 3dba dc75 92ba 1bb4 93b9
00000300: f48b ed3a 7bbd a2b9 056b d83a b591 b23a
00000310: d697 a0b9 85a0 f6b9 e578 90ba 09d1 533a
00000320: a335 8339 29f4 35ba ff66 f239 3b18 8b3a
00000330: e462 683a 0ea2 2e3a a47a 303a 5fd0 2738
00000340: 85eb 103a 2fa1 6c3b 7be5 51ba a2ab 5539
00000350: 5793 c23a 6e9a 683a a398 9e3a 92a2 8039
00000360: 0cac 2e3a 4370 cf39 ba8b 3dba 1268 a5b9
00000370: 9054 56ba e5b5 b939 4dd1 20ba 9a97 873a
00000380: fdcd 0c3b 5fbe 9db9 f83a 2bba e22c 85b9
00000390: 3eb4 653a cdf5 bab9 e307 0a3b f687 6d39
000003a0: 8b4e 89b9 027a 183a 172b 8e3a f83e 90b4
000003b0: ec39 50ba 62d4 8439 f316 113b 99d6 8a3a
000003c0: 58c7 013b 1deb 5a3a aa91 05b8 b5bf 4f3a
000003d0: 85a6 063a fe3f 52ba 571f 5738 f61b fdb8
000003e0: 16ca 9d3a 54a1 ad39 7d53 bbb9 1cf2 083b
000003f0: e62b 933a c3cb 3839 aada 9c39 774c 463a
