lightning_logs/version_0/checkpoints/epoch=2-step=2580.ckpt (torch, 668524 bytes, 18 tensors)

model.1.weight f4 [64, 784]
0	0x3c238330	0.009980008
1	0x3beb2199	0.007175636
2	0xbcec737e	-0.028863665
3	0xbc82398f	-0.015896587
4	0x3a327fc3	0.0006809199
5	0xbbf44002	-0.0074539194
6	0xbcc64478	-0.02420257
7	0xbcc9635e	-0.024583515
8	0xbd136f51	-0.03599483
9	0x3c375084	0.01118863
10	0xbc4ac0c6	-0.012375062
11	0xbd0a474f	-0.03375941
12	0xbc61852e	-0.013764663
13	0xbbdf5a63	-0.006816195
14	0xbd0021f4	-0.03128238
15	0xbbd199d2	-0.0063965106
16	0xbc961050	-0.018318325
17	0x3ce60c3a	0.028082002
18	0xbcd75fee	-0.02629086
19	0xbcc86ad4	-0.024465002
20	0xbad25f5d	-0.0016050149
21	0xbcca9396	-0.024728578
22	0x3cd50a60	0.026005924
23	0x3cb49e78	0.02204822
24	0xbc2c61fc	-0.010521408
25	0xbbcde245	-0.006283077
26	0xbbd93806	-0.006628993
27	0xbcbab68a	-0.02279212
28	0xbc68c3d6	-0.014206847
29	0xbcabad62	-0.020956699
30	0xbcb52476	-0.022112112
31	0xbc726505	-0.014794593
32	0x3ba9faa8	0.0051873513
33	0xbc684591	-0.014176742
34	0xbc03a61f	-0.008035212
35	0x3a538f0b	0.00080703263
36	0xbcd76ed8	-0.026297972
37	0xbc259c6f	-0.010108097
38	0xbb2641c0	-0.002536878
39	0xbcc61e3a	-0.024184335
40	0xbbea1d83	-0.0071446314
41	0x3c8bccdf	0.017065464
42	0xbcc55f58	-0.024093315
43	0xbce7ddd0	-0.02830401
44	0xbd27fc43	-0.04101206
45	0xbd12ad0c	-0.03580956
46	0xbc6a8d35	-0.014315893
47	0xbcbecdc6	-0.02329148
48	0xbc4d3934	-0.012525845
49	0xbc647e80	-0.013946176
50	0xbc9c9516	-0.019114058
51	0xbba8cf06	-0.0051516322
52	0xbcb3d594	-0.021952428
53	0x3cbe48ac	0.023228012
54	0x3c5f858e	0.013642682
55	0xbcffe2e9	-0.031236129
56	0x3c23a09a	0.009987021
57	0xbd2b76bf	-0.041861292
58	0xbbaeaf5e	-0.005330964
59	0xbbbc7c51	-0.0057521244
60	0xbd0c4a38	-0.034250468
61	0xbaccb7cd	-0.0015618742
62	0x37b5511f	2.1614656e-05
63	0xbcd00ea3	-0.025397604
64	0x3c072b5d	0.008250085
65	0x3b9cec6a	0.004788925
66	0xbce02515	-0.027361432
67	0x3cc05c25	0.023481438
68	0x3c5df43f	0.013547002
69	0xb9ca90e3	-0.0003863639
70	0xbc9f5f2c	-0.019454561
71	0x3ca279b2	0.01983342
72	0x3c91d4da	0.01780169
73	0x3aefb683	0.0018288646
74	0xbc2154e9	-0.009846904
75	0xbc7ecb2c	-0.01555137
76	0xbc029361	-0.007969708
77	0x3c6f2de2	0.014598342
78	0xbbd545d3	-0.006508568
79	0x3c587577	0.0132116
80	0x3c575df0	0.013144955
81	0xbc75de3b	-0.015006597
82	0xbd030347	-0.031985547
83	0x3c1145f1	0.008866773
84	0xbbc2d071	-0.0059452583
85	0xbca2a656	-0.019854706
86	0x3bbbea14	0.0057346914
87	0xbd1e872b	-0.038703125
88	0x3c874782	0.01651359
89	0xbce37f76	-0.027770739
90	0x3c1cbc85	0.009566431
91	0x3bd55bd1	0.0065111895
92	0xba492f81	-0.000767462
93	0xbd217c09	-0.03942493
94	0xbd117477	-0.03551146
95	0xbb25ecc1	-0.0025318118
96	0xbd0cbc83	-0.034359466
97	0xbc6c4a1a	-0.014421964
98	0x3c80e6d1	0.015735062
99	0x3c09b530	0.008405015
100	0x3cc374ac	0.023859344
101	0xbd19a101	-0.03750706
102	0xbc328117	-0.010895035
103	0x3ccf6b82	0.025319818
104	0x3d15a2a0	0.036532044
105	0x3b02d458	0.0019962993
106	0x3bce0e27	0.006288308
107	0x3c5615ab	0.0130666895
108	0xbc052dd5	-0.008128603
109	0x3cd02c79	0.025411831
110	0x3aa51cb3	0.0012597054
111	0xbd25ee91	-0.040510718
112	0x3ca88230	0.02056989
113	0xbcc348e5	-0.02383847
114	0x3c1337dc	0.008985486
115	0x3c873673	0.016505456
116	0xbcd4d7c5	-0.025981793
117	0x3c06586b	0.008199791
118	0xbc00d133	-0.007862377
119	0x3ca81710	0.02051881
120	0xbc98101c	-0.018562369
121	0x3c5379aa	0.012907425
122	0xbd47ff03	-0.048827183
123	0xbcf5efea	-0.030021627
124	0xbd2db823	-0.042411935
125	0xbc21077c	-0.009828445
126	0xbaf66e0c	-0.0018801107
127	0xbc9a82b8	-0.01886116
128	0xbd07e280	-0.03317499
129	0xbcd6cfd4	-0.026222147
130	0xbca7b072	-0.020469878
131	0xbc9e12af	-0.019296018
132	0x3d0ed811	0.034874026
133	0xbbff123e	-0.007784157
134	0x3ce7d987	0.028301967
135	0xbcb381a8	-0.02191241
136	0xbd36c38e	-0.04462009
137	0x3c84aa8c	0.016194604
138	0xbd30f2c3	-0.043200266
139	0xbcc8c958	-0.02451007
140	0xbd2c96db	-0.042136054
141	0xbcbd3be2	-0.023099843
142	0x3cbac7f4	0.022800423
143	0x3c1e2a9a	0.009653712
144	0x3c19705f	0.00936517
145	0xba278eea	-0.000639184
146	0xbc1ffc81	-0.0097647915
147	0xba58fdf0	-0.0008277586
148	0x3b556944	0.0032563964
149	0xbd08b556	-0.03337606
150	0xbd2898d9	-0.041161392
151	0xbcd98d83	-0.026556736
152	0x3a68ade3	0.0008876009
153	0xbcaf276d	-0.021381104
154	0xbd7c1a46	-0.061548494
155	0xbd6597a0	-0.056052804
156	0xbd32abd3	-0.043620896
157	0xbd965d84	-0.073420554
158	0xbd1b1de7	-0.037870314
159	0x3abd3491	0.0014435222
160	0x3c0a7654	0.008451063
161	0x3ca61609	0.020274179
162	0x3cb05a03	0.021527296
163	0xbc9f4df0	-0.019446343
164	0xbd056ae5	-0.032572646
165	0x3c20bb80	0.0098103285
166	0xbcc42236	-0.023942094
167	0xbabf4d87	-0.0014595249
168	0xbd24a099	-0.04019222
169	0xbcfa8371	-0.030580254
170	0xba0ca3dd	-0.00053649937
171	0xbcd72a61	-0.026265325
172	0x3be15687	0.00687677
173	0xbd451311	-0.048113886
174	0xbc2d8cd5	-0.010592659
175	0xbd19de04	-0.037565246
176	0xbd427672	-0.04747624
177	0xbd33cb52	-0.043895073
178	0xbce27796	-0.027644914
179	0x3d09d60a	0.03365139
180	0xbca0f5a5	-0.019648382
181	0xbb5c79dd	-0.0033641972
182	0x3bea55a0	0.0071513206
183	0x3c0c6e24	0.008571181
184	0x3c7ca4dd	0.015420166
185	0x3d183c15	0.037166674
186	0xb9a90129	-0.00032235056
187	0xbd10f39b	-0.03538857
188	0xbb811e07	-0.003940347
189	0x3c7c0ece	0.015384389
190	0xbcbafe4c	-0.022826336
191	0x3bca0774	0.0061654393
192	0xbc82a837	-0.015949352
193	0xbcdb0f10	-0.02674058
194	0xbcb7742a	-0.022394259
195	0xbcbf83c8	-0.023378268
196	0x3cc51ed5	0.024062553
197	0xbd03671e	-0.032080762
198	0x3af23d1d	0.0018481348
199	0x3c0018fe	0.007818459
200	0xbd58c912	-0.05292613
201	0xbbc307c0	-0.0059518516
202	0xbd305887	-0.043053176
203	0xbd856692	-0.06513704
204	0xbd3befe9	-0.045883093
205	0xbc52e0c2	-0.012870969
206	0xbcb4d992	-0.022076402
207	0xbc87bb52	-0.016568813
208	0x3cbcefbe	0.023063537
209	0x3d81e8d2	0.06343235
210	0x3d78209a	0.060577966
211	0x3d13beb3	0.036070537
212	0x3d5ef624	0.054433957
213	0xbbdaa201	-0.0066721444
214	0xbcae3517	-0.02126555
215	0x3ce1be6b	0.027556619
216	0xbd4ca43a	-0.049961306
217	0xbc88fc75	-0.016721943
218	0xbd68fb64	-0.05688037
219	0xbc36b75e	-0.011152117
220	0xbcc99484	-0.02460695
221	0xbcab053a	-0.020876516
222	0x3c8a0d79	0.016852127
223	0xbc2b2d06	-0.010447746
224	0xbd286025	-0.041107316
225	0x3c9733ac	0.018457256
226	0xbcb7c532	-0.022432897
227	0xbc47a41c	-0.012185123
228	0xbbe6b5d2	-0.0070407176
229	0xbce624de	-0.028093752
230	0xbc9d251b	-0.019182732
231	0xbbbe9c86	-0.005816999
232	0xbcf215ac	-0.02955135
233	0x3cabe1e4	0.020981736
234	0xbab27c27	-0.0013617323
235	0x3c9e976f	0.019359319
236	0x3cbfa9f0	0.023396462
237	0xbbc3d970	-0.0059768483
238	0x3d1a91b3	0.037736606
239	0x3d320ce9	0.043469343
240	0x3c37ba02	0.011213781
241	0x3b9dba7a	0.0048134895
242	0xbbc7a92d	-0.0060931654
243	0xbd214cfa	-0.03938005
244	0xbd20d591	-0.039266173
245	0xbc78386c	-0.015150171
246	0xbd07e4d5	-0.033177216
247	0xbd61d589	-0.055135284
248	0xbbd54448	-0.006508384
249	0xbd6d352d	-0.05791204
250	0xbd3f4067	-0.04669228
251	0xbbe676b7	-0.007033195
252	0xbc80b96e	-0.01571342
253	0xbd30ccb8	-0.043163985
254	0x3b96bf41	0.004600436
255	0x3a52c324	0.00080399425

model.1.bias f4 [64]
0	0xbcd1bb0c	-0.025601886
1	0xbc885be8	-0.016645387
2	0x3c5f0cd5	0.013613899
3	0xbbcda92c	-0.0062762704
4	0x3b3db067	0.0028944255
5	0x3cbffbc3	0.023435479
6	0xbcfb5874	-0.030681826
7	0xbc49522d	-0.012287659
8	0x3c206b8d	0.009791267
9	0x3d07d7a1	0.033164624
10	0xbcd5b584	-0.02608753
11	0xbb023493	-0.0019867762
12	0xbc10040f	-0.00879003
13	0xbc8f692b	-0.017506203
14	0xbc745726	-0.014913356
15	0x3bf14bf5	0.007363791
16	0x3c574f63	0.013141486
17	0xbd17cb29	-0.037058983
18	0xbc9bfa98	-0.01904039
19	0xbcc24be6	-0.023717832
20	0xbc9347ea	-0.017978627
21	0x3cafe7fd	0.021472925
22	0x3d291f40	0.041289568
23	0x3ae426c9	0.0017406578
24	0x3cdfa0d7	0.027298374
25	0x3b6db2fd	0.0036270015
26	0x3d1813f8	0.03712842
27	0xbb3e0876	-0.0028996742
28	0xbc857bf5	-0.016294459
29	0xbcef61a1	-0.029221358
30	0x3d3d2433	0.0461771
31	0x3d10682d	0.0352556
32	0xba7ac754	-0.00095664454
33	0x3c85ba54	0.0163242
34	0xbbf184cb	-0.0073705665
35	0xbc0c527f	-0.0085645905
36	0xbbd47322	-0.0064834515
37	0xbbba956e	-0.005694083
38	0xbcee8830	-0.029117674
39	0x3c1e0f2c	0.009647172
40	0xbc1301fc	-0.008972641
41	0x3c59df13	0.013297814
42	0x3c2680db	0.0101625575
43	0xbd310227	-0.043214943
44	0x3b8bfc7b	0.0042720414
45	0xbd1303a2	-0.035892136
46	0x3d014d00	0.031567574
47	0x3b817123	0.0039502545
48	0xbc3d1d13	-0.011542576
49	0x3b634e61	0.0034684169
50	0x3ba3efb4	0.00500294
51	0xbbd40922	-0.0064708153
52	0xbc813346	-0.01577152
53	0x3d26bacf	0.0407055
54	0x3d32da22	0.04366506
55	0xbae786ba	-0.0017664053
56	0xbbd9c5c6	-0.006645891
57	0xbc42c274	-0.011887182
58	0xbcfb27b9	-0.03065859
59	0xbcaff7e7	-0.021480514
60	0xbc03ac62	-0.008036705
61	0x3d0ba9bb	0.034097414
62	0xbcc32221	-0.023819985
63	0xbcbd89d6	-0.023137014

model.4.weight f4 [64, 64]
0	0xbc10121f	-0.008793383
1	0xbc40cfe1	-0.011768312
2	0xbd4c525b	-0.049883228
3	0x3d1fb573	0.038991403
4	0xbbc967d9	-0.006146413
5	0x3cefb92e	0.029263105
6	0x3dafdbc5	0.085868396
7	0x3dfc3bba	0.123160794
8	0xbab42bdc	-0.0013745981
9	0xbdb962d3	-0.09052052
10	0xbd224572	-0.03961701
11	0x3d8494af	0.06473672
12	0xbd540f54	-0.05177243
13	0xbdecb601	-0.11558152
14	0x3cff1456	0.031137627
15	0xbd17cb35	-0.037059028
16	0x3db38162	0.08764912
17	0x3dbb7983	0.09154036
18	0xbdb6e514	-0.08930412
19	0x3e51aa7f	0.20475195
20	0x3e09c1a1	0.1345277
21	0xbcf21738	-0.029552087
22	0x3cd57df1	0.02606103
23	0x3cfa9338	0.030587777
24	0x3d1878a6	0.037224434
25	0xbdbd8ba8	-0.09255153
26	0xbe07e0bd	-0.13269325
27	0xbc71490f	-0.014726891
28	0x3dff61a7	0.124697976
29	0x3da74e4d	0.081692316
30	0xbdec1755	-0.11527888
31	0x3da0442a	0.07825501
32	0xbd2af723	-0.041739594
33	0x3dd7b937	0.10533374
34	0x3c3fafaf	0.011699601
35	0xbd5511c9	-0.052018914
36	0xbd2bc535	-0.04193612
37	0xbe16dc4c	-0.14732474
38	0x3dde374b	0.1085039
39	0x3d04d144	0.032426134
40	0x3da8b3ca	0.08237417
41	0xbd44b00b	-0.04801945
42	0x3dd75310	0.1051389
43	0xbd796a00	-0.060892105
44	0x3c929279	0.01789211
45	0xb9b3da5d	-0.00034304234
46	0xbcf851d8	-0.030312464
47	0x3df0e06b	0.11761554
48	0xbcd18e1a	-0.025580455
49	0x3b77546e	0.0037739533
50	0xbd851a15	-0.064991154
51	0xbd8a0c66	-0.06740646
52	0xbd5292b7	-0.05140945
53	0x3cec0aa4	0.028813668
54	0xbccbe2ae	-0.024888363
55	0xbe00af8c	-0.12566966
56	0x3d4317c2	0.04763008
57	0x3ddf3cab	0.10900243
58	0x3c4c4e25	0.012469803
59	0xbcd3a4e8	-0.02583547
60	0x3e04425c	0.12915939
61	0xbd9e0d2f	-0.07717358
62	0x3dcbff5f	0.099608175
63	0x3d9ea4a1	0.07746244
64	0x3d1b6770	0.037940443
65	0x3bf4f8f2	0.0074759657
66	0x3d39306f	0.045212205
67	0x3deb6b84	0.11495116
68	0x3da58ca4	0.08083466
69	0x3e186be9	0.14884914
70	0x3e3185e6	0.17336234
71	0x3d2907fe	0.041267388
72	0xbd2e8128	-0.04260364
73	0xbd317c34	-0.04333134
74	0x3d4e5ffb	0.050384503
75	0x3dd53e8d	0.10412321
76	0x3e14af4d	0.14519997
77	0x3d6db83b	0.058037024
78	0xbbeaac2a	-0.007161637
79	0x3de8e352	0.11371483
80	0xbd287cf2	-0.041134782
81	0xbd7ebb13	-0.062190127
82	0xbddf6bc9	-0.1090923
83	0x3d10863c	0.035284266
84	0x3e4ebc81	0.20189096
85	0xbd0954d2	-0.033528157
86	0xbe486f16	-0.19573626
87	0xbccabb37	-0.024747474
88	0xbe154e6e	-0.145807
89	0xbd8e1348	-0.06937271
90	0xbe10e249	-0.14148821
91	0xbd8fa491	-0.070138104
92	0xbdbe216d	-0.09283719
93	0x3d11d24b	0.03560094
94	0xbd569a49	-0.05239323
95	0xbd2cff2d	-0.042235542
96	0xbd55d692	-0.052206583
97	0x3da31047	0.07962089
98	0xbc5bf94a	-0.013426134
99	0x3e0205f6	0.12697586
100	0x3df5a165	0.11993674
101	0xbd80567f	-0.06266498
102	0xbe006c53	-0.12541322
103	0xbc6c7666	-0.014432525
104	0xbb576d5b	-0.0032871577
105	0xbdd2a944	-0.10286191
106	0x3e2b35e0	0.1671977
107	0x3e16526d	0.1467988
108	0x3d300a5d	0.042978633
109	0xbd918288	-0.07104975
110	0x3c87b935	0.016567806
111	0x3dfd2700	0.12360954
112	0x3e0f91b3	0.14020424
113	0xbc0302e1	-0.007996292
114	0x3c1537b5	0.00910752
115	0xbdaf7985	-0.085681
116	0x3d5805f3	0.05274005
117	0x3ca11f0d	0.019668126
118	0xbd103234	-0.035204127
119	0xbd731fe8	-0.0593566
120	0xbd8eec8f	-0.06978714
121	0x3d9832c6	0.07431559
122	0x3e0a38a7	0.13498174
123	0xbd5d38bc	-0.054009184
124	0x3b8c5fb5	0.00428387
125	0xbc96c41b	-0.018404057
126	0x3e3ec49b	0.18629687
127	0xbcbfae22	-0.023398463
128	0xbd2d68a2	-0.042336114
129	0xbd83a890	-0.06428635
130	0x3dc636f4	0.0967845
131	0xbda5eeca	-0.08102186
132	0xbd009928	-0.03139606
133	0x3c8aabfa	0.016927708
134	0xbc766559	-0.015038812
135	0x3d4986f9	0.049200986
136	0x3de3512c	0.11099467
137	0x3d936f6c	0.071989864
138	0x3d8e347f	0.069436066
139	0xbd3c334f	-0.04594737
140	0x3ca3a0ac	0.019974075
141	0x3dc80975	0.09767429
142	0xbe04e2fd	-0.12977214
143	0x3d74a8ea	0.0597314
144	0xbd478593	-0.04871137
145	0x3cd81d2a	0.026381094
146	0x3e14ea91	0.14542605
147	0xbdc7cf4e	-0.09756337
148	0x3dea45f0	0.11439121
149	0xbc1b615b	-0.009483661
150	0xbd78f5df	-0.060781356
151	0x3da146f0	0.078748584
152	0xbd8c6783	-0.06855681
153	0xbd140f6b	-0.036147516
154	0xbe3c833d	-0.18409438
155	0x3e30a306	0.17249689
156	0x3dc477a1	0.0959313
157	0x3db3c48f	0.08777725
158	0x3dc03b43	0.09386303
159	0xbd445812	-0.047935553
160	0x3e301546	0.17195615
161	0x3d45b4d9	0.048268173
162	0x3d40365c	0.04692684
163	0xbe13fc50	-0.14451718
164	0xbdad5b41	-0.08464671
165	0x3dd7e074	0.10540858
166	0xbdaebb37	-0.08531802
167	0xbd271c1d	-0.040798295
168	0xbc45a99c	-0.012064364
169	0xbd83e9f2	-0.06441106
170	0x3d1cf2c7	0.038317468
171	0xbd737df4	-0.05944629
172	0x3ce4af21	0.02791554
173	0xbd373d79	-0.04473636
174	0xbc06ad41	-0.008220018
175	0x3d5b3300	0.053515434
176	0xbcb4a3c5	-0.022050748
177	0xbc5b47df	-0.013383835
178	0x3dd84a33	0.105610274
179	0xbd300e8b	-0.04298262
180	0xbdb2932c	-0.08719477
181	0x3ddf2920	0.10896516
182	0x3d3dabf0	0.04630655
183	0x3e35f26a	0.17768255
184	0x3cbd792a	0.023129065
185	0x3d8be321	0.06830431
186	0xbdbc6b9e	-0.09200214
187	0xbdb747f5	-0.089492716
188	0x3e22f0ef	0.15912221
189	0x3e31593f	0.17319201
190	0xbde9ea6a	-0.11421664
191	0x3d5a88aa	0.05335299
192	0x3dc9de73	0.09856882
193	0xbd394762	-0.04523409
194	0xbdda8db5	-0.1067156
195	0xbdce7cb8	-0.10082382
196	0xbd047dae	-0.03234642
197	0xbd543639	-0.051809523
198	0xbc7ac2be	-0.015305219
199	0x3d0bde37	0.034147467
200	0xbbcf7794	-0.0063313935
201	0xbe0ba657	-0.13637672
202	0xbdc4fac6	-0.09618144
203	0x3d7a1976	0.061059438
204	0x3e00feb9	0.12597169
205	0xbba077fe	-0.0048971167
206	0x3e06ff94	0.13183433
207	0x3ded4aee	0.11586557
208	0x3c428601	0.011872769
209	0xbd7b7b6f	-0.061397012
210	0x3e22677f	0.15859793
211	0x3c2fb729	0.010724821
212	0xbc816d2f	-0.015799133
213	0x3d9bf583	0.07615187
214	0x3c240e4a	0.010013172
215	0xbe1eb83d	-0.15499969
216	0xbd018822	-0.031623967
217	0xbdc36dbb	-0.09542414
218	0xbcf8ea5d	-0.03038519
219	0xbdf6aa42	-0.12044193
220	0x3cb495a6	0.022044014
221	0x3e1a61b0	0.15076327
222	0x3dcdd75f	0.100508444
223	0x3d0fb210	0.035081923
224	0x3e39a98d	0.18131085
225	0x3d4a22c8	0.049349576
226	0x3ceb731f	0.028741417
227	0xbe028e41	-0.12749578
228	0x3e42d3df	0.19026135
229	0x3dc8471d	0.09779189
230	0xba2aefdd	-0.0006520728
231	0x3d268187	0.04065087
232	0xbdb87010	-0.09005749
233	0x3c541f5d	0.012946931
234	0x3d7aae4d	0.061201382
235	0xbd726740	-0.059180498
236	0x3e11dfb9	0.142455
237	0xbe625eca	-0.22106472
238	0x3dbc2c8b	0.091881834
239	0xbbf93060	-0.0076046437
240	0xbdf6a43a	-0.120430425
241	0x3cc8e5ec	0.024523698
242	0x3e1ab19e	0.15106818
243	0x3dd7b8da	0.105333045
244	0xb9a3c389	-0.00031235468
245	0x3e0291b2	0.12750891
246	0xbc92c5a7	-0.017916514
247	0x3cdcf58b	0.026972553
248	0xbd8ab56a	-0.06772883
249	0xbd589571	-0.052876893
250	0x3dbd2781	0.092360504
251	0x3e2da16c	0.16956109
252	0xbd44b593	-0.048024725
253	0x3d6903a4	0.056888238
254	0xbe1d922c	-0.15387791
255	0x3aa35a03	0.0012462739

model.4.bias f4 [64]
0	0x3d2e298f	0.042520102
1	0x3db25c7e	0.08709048
2	0xbd6410bd	-0.055680025
3	0x3db12003	0.08648684
4	0x3e0808c5	0.13284595
5	0xbd64a5ca	-0.05582217
6	0x3da1a7f4	0.07893363
7	0xbd82b753	-0.063826226
8	0x3de61df7	0.11236184
9	0xbd0b3924	-0.03399004
10	0xbd1fff0c	-0.03906159
11	0x3dd88218	0.105716884
12	0x3d646b37	0.05576631
13	0x3e020e46	0.12700757
14	0x3c480bab	0.012209813
15	0xbbffd8a0	-0.007807806
16	0xbd74b480	-0.05974245
17	0xbc26db88	-0.010184176
18	0xbcebf6fe	-0.028804298
19	0xbb89d6fc	-0.0042065363
20	0x3d3993ac	0.045306846
21	0xbc99f9ce	-0.018795874
22	0x3c2edd5e	0.010672895
23	0xbc949250	-0.018136173
24	0x3d6fcaec	0.05854313
25	0x3d8777c2	0.06614639
26	0xbb6af522	-0.0035851677
27	0xbbb3b659	-0.005484384
28	0x3da27dde	0.079341635
29	0xbca8721f	-0.02056223
30	0x3ddc8068	0.10766679
31	0xbd39c091	-0.04534966
32	0x3d0ef3b6	0.03490039
33	0xbdab3ca1	-0.083611734
34	0x3e08973c	0.13338941
35	0x3dff75ff	0.12473678
36	0x3dea87d7	0.11451691
37	0x3ddf6f15	0.10909859
38	0xbde660cf	-0.112489335
39	0xbd87c468	-0.066292584
40	0x3de836bd	0.113385655
41	0x3d802743	0.062574886
42	0x3cc63b28	0.02419813
43	0x3d125c6d	0.035732675
44	0x3b648f6a	0.003487552
45	0x3c64486e	0.013933284
46	0x3d0ce848	0.03440121
47	0xbcdf162b	-0.02723225
48	0xbda88e5a	-0.082302764
49	0xbda41353	-0.08011498
50	0xbc87069e	-0.016482648
51	0x3e063f0e	0.13109991
52	0x3df99cb4	0.12188092
53	0xbdbb4d89	-0.09145648
54	0x3df593ae	0.11991058
55	0x3b8ca088	0.0042915978
56	0x3dbf0362	0.09326817
57	0x3de7df54	0.11321893
58	0xbd5ebec7	-0.05438116
59	0xbd23abaa	-0.039958633
60	0x3d8dfe66	0.06933288
61	0x3db3653d	0.08759544
62	0xbda28f5d	-0.079375006
63	0xbdb76a4c	-0.089558214

model.7.weight f4 [10, 64]
0	0xbcb8cf00	-0.022559643
1	0x3cf9765f	0.030451952
2	0x3d954b7e	0.072897896
3	0xbe66b956	-0.22531638
4	0x3c9bca42	0.019017342
5	0xbe5e9935	-0.21738131
6	0x3df385e1	0.1189077
7	0x3d9c19ba	0.076220945
8	0x3de69478	0.11258787
9	0x3d615ba1	0.055019025
10	0x3cebd5e8	0.028788522
11	0xbe0888e0	-0.13333464
12	0x3df26ea8	0.11837512
13	0x3e059814	0.13046294
14	0x3d131774	0.03591104
15	0x3dd7c7f2	0.105361834
16	0xbdbab2ff	-0.09116172
17	0x3e0f6780	0.14004326
18	0xbd1de37a	-0.038547017
19	0xbe474767	-0.19460832
20	0x3db38f27	0.087675385
21	0x3ccf17d5	0.025279919
22	0xbdc981d0	-0.09839213
23	0xbcb0aa4b	-0.021565577
24	0xbc95ee0d	-0.018301988
25	0xba0a0f03	-0.0005266519
26	0xbd565b4b	-0.052333158
27	0xbdec803a	-0.11547895
28	0xbe1a9c80	-0.15098763
29	0xbe260ce7	-0.1621586
30	0x3db8fd29	0.090326615
31	0x3d08865a	0.033331253
32	0x3e446d70	0.19182372
33	0xbe0dde10	-0.13854241
34	0xbde6f6ec	-0.11277565
35	0xbe534a8b	-0.20633905
36	0xbe1a7a35	-0.15085681
37	0xbb00294a	-0.001955586
38	0xbda510fb	-0.080598794
39	0xbd3daef3	-0.046309423
40	0xbe75290a	-0.23941436
41	0x3e26634e	0.16248819
42	0x3dad2cce	0.084558114
43	0x3df48932	0.119402304
44	0x3dd87c5b	0.10570594
45	0x3b9f3157	0.0048581767
46	0xbdd75848	-0.10514885
47	0xbdfe357c	-0.12412545
48	0x3dca1199	0.09866638
49	0xbdca0af8	-0.098653734
50	0xbd81dc46	-0.06340842
51	0xbd3d1d3d	-0.046170462
52	0x3dc41e0f	0.09576046
53	0xbd391194	-0.04518278
54	0x3e183828	0.14865172
55	0xbdce957e	-0.10087107
56	0x3ccca3ad	0.02498039
57	0xbd99b359	-0.07504911
58	0x3d76e474	0.060276464
59	0xbe2997a0	-0.16561747
60	0x3cf46245	0.029832015
61	0x3dc75e9f	0.097348444
62	0xbdbd69ed	-0.09248719
63	0x3d94ca2b	0.07265123
64	0x3d7e907f	0.06214952
65	0xbd186e1e	-0.03721439
66	0xbdebee99	-0.11520118
67	0xbb1b999a	-0.0023742677
68	0xbd1b267b	-0.037878495
69	0x3da14212	0.0787393
70	0xbd7d8cb1	-0.061901752
71	0x3da6158c	0.081095785
72	0xbe3fb3e7	-0.18720971
73	0x3d2beaa3	0.041971814
74	0x3df77c74	0.120842844
75	0xbdc1c026	-0.094604775
76	0x3dd4e94e	0.10396062
77	0xbe41df3a	-0.1893281
78	0xbe5e267b	-0.21694367
79	0xbe0554d3	-0.13020639
80	0x3c3246b0	0.010881111
81	0xbd6177e4	-0.055045977
82	0xbe669e5c	-0.22521347
83	0x3d803c63	0.06261518
84	0xbe102e4a	-0.14080158
85	0xbe07cf96	-0.13262782
86	0x3d0d8c5a	0.034557678
87	0x3e2d7cb0	0.16942096
88	0xbdebaf32	-0.11508025
89	0x3d38788d	0.04503684
90	0xbe08f03f	-0.13372897
91	0xbe1ac1e1	-0.15113021
92	0xbdb37a3a	-0.08763547
93	0x3e0a2857	0.13491951
94	0xbdd4294e	-0.10359441
95	0x3e040149	0.12891115
96	0xbdb16036	-0.08660929
97	0x3de39f15	0.11114327
98	0x3e03c00a	0.12866226
99	0x3d225ea6	0.039641045
100	0x3e4b4b7a	0.19853011
101	0xbe353f6c	-0.17699975
102	0xbc78e1f5	-0.015190591
103	0xbe1cd692	-0.15316227
104	0xbd99d2f2	-0.07510938
105	0xbe0e6b75	-0.13908179
106	0xbdc36d22	-0.095423
107	0xbcdfe19b	-0.027329257
108	0xbd064358	-0.032779068
109	0xbc9c60c3	-0.019089108
110	0x3e0ba6ef	0.13637899
111	0xbe1200a4	-0.14258057
112	0xbe4fcf20	-0.20293856
113	0xbc94129e	-0.018075284
114	0x3d9abeca	0.075559214
115	0x3e1227b6	0.14272961
116	0xbdc51767	-0.09623604
117	0xbdf8a5a7	-0.12140971
118	0xbe3fe474	-0.18739492
119	0x3e3e778c	0.18600291
120	0x3dedd3c9	0.116126604
121	0xbcc2a988	-0.02376248
122	0xbe5bf8c2	-0.21481612
123	0x3d0869ad	0.033303905
124	0x3e2783ce	0.16358873
125	0x3cff606e	0.031173911
126	0xbd8dbf00	-0.06921196
127	0xbd9683e2	-0.073493734
128	0xbe202848	-0.15640366
129	0xbda4769c	-0.080304354
130	0x3ae28566	0.0017282187
131	0xbca9ec5e	-0.020742591
132	0x3e19188e	0.14950773
133	0xbd0d6a89	-0.034525428
134	0x3e0b4bf7	0.13603197
135	0xbd6f8fb7	-0.058486667
136	0xbbdd2648	-0.0067489482
137	0x3e049f07	0.12951289
138	0xbd0ab4a2	-0.03386367
139	0x3e087541	0.13325979
140	0x3e1a4057	0.15063606
141	0xbe110243	-0.14161019
142	0x3e1c8cd5	0.15288098
143	0x3d071403	0.03297807
144	0x3bef42f3	0.007301682
145	0xbe4a7c02	-0.19773868
146	0xbe22e7ed	-0.15908785
147	0xbbc111af	-0.0058920006
148	0xbdd6ef8b	-0.10494908
149	0xbde9724c	-0.113987535
150	0xbcef0251	-0.02917591
151	0xbddcf406	-0.10788731
152	0xbdf87e7e	-0.121335015
153	0xbdaa529e	-0.08316539
154	0xbdf53733	-0.11973419
155	0xbdffd136	-0.12491076
156	0x3d4548a4	0.04816498
157	0x3dd4c40a	0.10388954
158	0x3dcc5e1a	0.09978886
159	0x3e25014e	0.16113779
160	0xbd140863	-0.03614081
161	0xbddcfad4	-0.10790029
162	0x3d8812ce	0.06644212
163	0xbbc0bd79	-0.005881962
164	0xbd2dde9b	-0.04244862
165	0x3dfa3b4b	0.122183405
166	0x3cec71b6	0.028862815
167	0xbdc19a03	-0.094532035
168	0xbe266b5d	-0.16251893
169	0x3d7c8478	0.06164977
170	0xbd8888ba	-0.066667035
171	0xbd8831c7	-0.06650119
172	0x3d97760c	0.073955625
173	0xbcb9af4b	-0.022666594
174	0xbd8c7d2c	-0.06859812
175	0x3e070cdd	0.131885
176	0xbde65de5	-0.11248378
177	0xbe2167ec	-0.157623
178	0x3dbcb6d6	0.09214561
179	0xbdfab353	-0.12241235
180	0x3e26f40e	0.16304037
181	0x3b76f5f6	0.0037683225
182	0x3d2ea6f8	0.042639703
183	0xbe335ba1	-0.17515422
184	0xbc68825d	-0.014191237
185	0xbe09fbe3	-0.13474993
186	0xbdfa9e40	-0.12237215
187	0x3de3c5ef	0.11121737
188	0x3dcc76e1	0.09983612
189	0x3e233470	0.15937972
190	0x3df0e91a	0.117632106
191	0x3e322a14	0.17398864
192	0xbc89ae09	-0.01680662
193	0x3e0005d7	0.12502228
194	0x3d5aaa99	0.05338535
195	0x3d8bcfd4	0.068267494
196	0x3d87187d	0.06596468
197	0xbdcba285	-0.099431075
198	0xbc85a255	-0.016312758
199	0xbcc59666	-0.024119567
200	0xbe5bde14	-0.21471435
201	0xbe113603	-0.1418076
202	0xbe1267f3	-0.14297466
203	0x3d70259b	0.058629613
204	0xbdcad4e0	-0.09903884
205	0xbdb8eca5	-0.09029511
206	0xbe0323af	-0.12806581
207	0xbd9fe8dd	-0.07808087
208	0x3d586f51	0.052840535
209	0xbd3d5d41	-0.046231512
210	0x3cafd38d	0.02146318
211	0x3d39aea4	0.045332566
212	0xbe1eb0b2	-0.15497091
213	0xbd9c395f	-0.0762813
214	0x3dfdf3fb	0.12400051
215	0xbe51bac6	-0.20481405
216	0x3d64a8b5	0.055824954
217	0xbda4697e	-0.080279335
218	0xbe42554b	-0.18977849
219	0x3c16e045	0.009208743
220	0x3e1a5f7f	0.15075491
221	0x3d68e30b	0.05685715
222	0x3d8fefd0	0.070281625
223	0xbd22934a	-0.039691247
224	0x3dcd6284	0.10028556
225	0xbdc8c5fd	-0.09803388
226	0x3dc6ff6f	0.09716689
227	0x3e1b9b19	0.15195884
228	0xbd33ddce	-0.0439127
229	0xbd832698	-0.064038455
230	0x3e19572b	0.14974658
231	0xbe710c2d	-0.23539801
232	0x3db05d42	0.086115375
233	0xbdaedff7	-0.08538812
234	0xbe11e066	-0.14245757
235	0xbcf3efa0	-0.029777348
236	0x3dc898c1	0.097947605
237	0xbca3bbbe	-0.019986983
238	0xbcf3f281	-0.02977872
239	0xbe17e559	-0.14833583
240	0x3e1cd167	0.15314256
241	0xbd593694	-0.053030565
242	0xbd44aa8f	-0.04801422
243	0x3e222ddf	0.15837811
244	0x3e0e2537	0.13881384
245	0x3c211b64	0.009833191
246	0x3dcdc05e	0.10046457
247	0xba004b9e	-0.00048940803
248	0x3dc49c9b	0.096001826
249	0xbbcfa352	-0.006336608
250	0x3cf35c57	0.029707117
251	0xbd3c701f	-0.046005365
252	0xbdb5094c	-0.08839664
253	0x3d4f409a	0.05059872
254	0x3df38f9b	0.11892625
255	0x3d9cd453	0.07657685

model.7.bias f4 [10]
0	0x3c9da73b	0.01924478
1	0x3dc1239d	0.09430621
2	0xbde5c271	-0.112187274
3	0xbd8c31af	-0.06845414
4	0xbda898da	-0.08232279
5	0xbd9cbda3	-0.07653358
6	0x3c01c126	0.007919585
7	0x3d29d6c7	0.041464593
8	0x3cd6fdc7	0.026244057
9	0x3d8db27b	0.06918808

exp_avg f4 [64, 784]
0	0x39190320	0.00014592381
1	0x39190320	0.00014592381
2	0x39190320	0.00014592381
3	0x39190320	0.00014592381
4	0x39190320	0.00014592381
5	0x39190320	0.00014592381
6	0x39190320	0.00014592381
7	0x39190320	0.00014592381
8	0x39190320	0.00014592381
9	0x39190320	0.00014592381
10	0x39190320	0.00014592381
11	0x39190320	0.00014592381
12	0x39190320	0.00014592381
13	0x39190320	0.00014592381
14	0x39190320	0.00014592381
15	0x39190320	0.00014592381
16	0x39190320	0.00014592381
17	0x39190320	0.00014592381
18	0x39190320	0.00014592381
19	0x39190320	0.00014592381
20	0x39190320	0.00014592381
21	0x39190320	0.00014592381
22	0x39190320	0.00014592381
23	0x39190320	0.00014592381
24	0x39190320	0.00014592381
25	0x39190320	0.00014592381
26	0x39190320	0.00014592381
27	0x39190320	0.00014592381
28	0x39190320	0.00014592381
29	0x39190320	0.00014592381
30	0x39190320	0.00014592381
31	0x39190320	0.00014592381
32	0x39190320	0.00014592381
33	0x39190320	0.00014592381
34	0x3919032b	0.00014592397
35	0x39190283	0.00014592153
36	0x39186fa0	0.00014537433
37	0x3911bb8b	0.00013898143
38	0x39189bba	0.00014553862
39	0x391a94f3	0.00014742072
40	0x392143f4	0.00015379471
41	0x3919a7d2	0.00014653735
42	0x3916d4b1	0.00014384348
43	0x3917f08a	0.0001449009
44	0x3918ca9a	0.00014571325
45	0x39152f54	0.00014227378
46	0x39150c44	0.00014214317
47	0x391887ae	0.00014546394
48	0x391760d5	0.00014436555
49	0x3918958c	0.0001455156
50	0x39190320	0.00014592381
51	0x39190320	0.00014592381
52	0x39190320	0.00014592381
53	0x39190320	0.00014592381
54	0x39190320	0.00014592381
55	0x39190320	0.00014592381
56	0x39190320	0.00014592381
57	0x39190320	0.00014592381
58	0x39190320	0.00014592381
59	0x39190320	0.00014592381
60	0x39190320	0.00014592381
61	0x391901f1	0.0001459194
62	0x3918f4f6	0.00014587105
63	0x391897d2	0.00014552407
64	0x39138855	0.000140698
65	0x390cf961	0.00013444341
66	0x39139734	0.0001407534
67	0x39162f61	0.00014322765
68	0x38ef3ba2	0.000114075156
69	0x38e408c4	0.0001087352
70	0x390339c0	0.00012514647
71	0x388070ca	6.124524e-05
72	0xb80485b0	-3.159576e-05
73	0xb6a7d210	-5.0014423e-06
74	0x38df60b4	0.00010651481
75	0x38e43eb0	0.00010883564
76	0x390f1595	0.00013645583
77	0x3932418c	0.00016999821
78	0x3916cd91	0.00014381694
79	0x3918d2aa	0.00014574328
80	0x39190320	0.00014592381
81	0x39190320	0.00014592381
82	0x39190320	0.00014592381
83	0x39190320	0.00014592381
84	0x39190320	0.00014592381
85	0x39190320	0.00014592381
86	0x39190320	0.00014592381
87	0x39190320	0.00014592381
88	0x39190213	0.0001459199
89	0x391a5e94	0.00014721818
90	0x391afaec	0.0001478006
91	0x391519f2	0.00014219413
92	0x390e17b0	0.00013551
93	0x3947d6a7	0.00019058083
94	0x39915fc2	0.000277279
95	0x39b867e9	0.00035172634
96	0x39b06a28	0.00033648429
97	0x3919c61b	0.00014665017
98	0xb8ad26f6	-8.25654e-05
99	0xb93f63b9	-0.00018252329
100	0xb9497cc9	-0.0001921534
101	0xb95b10b6	-0.00020891693
102	0xb74b5ada	-1.2120896e-05
103	0x392694b0	0.00015886384
104	0x39417774	0.00018450414
105	0x392c31ec	0.00016421796
106	0x3931a344	0.00016940857
107	0x3970a9ee	0.00022951487
108	0x39481557	0.00019081436
109	0x391a1168	0.00014693069
110	0x39192eb0	0.0001460861
111	0x39190320	0.00014592381
112	0x39190320	0.00014592381
113	0x39190320	0.00014592381
114	0x39190320	0.00014592381
115	0x3919032c	0.00014592399
116	0x391902d6	0.00014592274
117	0x391b5be5	0.00014816185
118	0x391fdcb0	0.00015245634
119	0x391cce9f	0.00014954292
120	0x37d82174	2.5764784e-05
121	0xb883fa0a	-6.29314e-05
122	0x38d4550a	0.000101247875
123	0x38e062f9	0.000106995874
124	0x3848ecbe	4.79042e-05
125	0xb9536e67	-0.00020163656
126	0xb9c64d07	-0.00037822893
127	0xba01d59e	-0.0004952791
128	0xba54c5fb	-0.00081166596
129	0xba49d6f2	-0.0007699571
130	0xb9af58ea	-0.00033444847
131	0xb880b5c0	-6.137369e-05
132	0xb7bf5e4c	-2.2812885e-05
133	0x39418a42	0.0001845742
134	0x39450142	0.00018787853
135	0x3965e2c0	0.00021923613
136	0x391189fb	0.0001387968
137	0x391aabb0	0.00014750543
138	0x391912c6	0.0001459821
139	0x39190320	0.00014592381
140	0x39190320	0.00014592381
141	0x39190320	0.00014592381
142	0x39190320	0.00014592381
143	0x39191f75	0.00014602936
144	0x391947a0	0.000146179
145	0x39228e26	0.00015502478
146	0x395166f9	0.00019970154
147	0x399054e9	0.00027529083
148	0x39371072	0.00017458366
149	0xb831273c	-4.223663e-05
150	0x39df02c2	0.0004253593
151	0x39e89e41	0.00044368397
152	0x398f9b25	0.00027390677
153	0xb927a78d	-0.00015988779
154	0xb94dfb0f	-0.0001964385
155	0xb994f3d5	-0.0002841043
156	0xba943d93	-0.0011309854
157	0xba974930	-0.0011542197
158	0xba647674	-0.00087151607
159	0xb9c898a4	-0.000382607
160	0xb806ad58	-3.210953e-05
161	0x3a13cfb3	0.00056385546
162	0x3a3ab3ff	0.00071221584
163	0x39e6b7ef	0.0004400606
164	0x38aaa9cf	8.137861e-05
165	0x38b52c59	8.639013e-05
166	0x38ea4dd2	0.00011172485
167	0x39190320	0.00014592381
168	0x39190320	0.00014592381
169	0x39190320	0.00014592381
170	0x3919804b	0.0001463901
171	0x3919b7f5	0.00014659746
172	0x391f5480	0.000151949
173	0x392c25a1	0.00016417216
174	0x397c8db7	0.00024085386
175	0x39ac80cd	0.0003290236
176	0x39a7d66e	0.00032012485
177	0x385fc50f	5.335087e-05
178	0x3a1f1461	0.00060684053
179	0x3919729d	0.00014633914
180	0xb9ee3e1e	-0.00045441178
181	0x39bfc69e	0.0003657834
182	0x3a124cfa	0.00055809284
183	0x39c84414	0.00038197695
184	0xb8cb0c6c	-9.682108e-05
185	0xb9ac7a16	-0.00032897358
186	0xba02ed38	-0.0004994455
187	0xb9875196	-0.00025809993
188	0xb940f454	-0.00018401566
189	0x39ad0d5b	0.00033007082
190	0x39c6190c	0.00037784164
191	0x39d8f8ab	0.00041384003
192	0x38648a7e	5.4488417e-05
193	0x38b41fcf	8.588994e-05
194	0x390489e6	0.00012639872
195	0x39191b90	0.00014601485
196	0x39190320	0.00014592381
197	0x39190322	0.00014592384
198	0x391984d7	0.00014640704
199	0x39184176	0.00014520236
200	0x3917545c	0.00014431908
201	0x3932b454	0.0001704258
202	0x390030b9	0.00012225182
203	0x3786f914	1.609003e-05
204	0xb84f0aba	-4.9362636e-05
205	0x399478da	0.000283188
206	0x390fbc0c	0.00013707596
207	0x39518dd0	0.00019984622
208	0x3ac039e8	0.0014665695
209	0x3a977657	0.0011555654
210	0x3aba6272	0.0014220013
211	0x39733d20	0.00023197057
212	0x39a5032d	0.0003147362
213	0x3663a180	3.3919641e-06
214	0xb9d3697f	-0.00040323657
215	0xba40e785	-0.0007358718
216	0xb9201982	-0.00015268291
217	0x399294e0	0.0002795821
218	0x39b2612b	0.000340232
219	0x3848ab7d	4.7843427e-05
220	0xb8a1e369	-7.719437e-05
221	0x39060342	0.0001278045
222	0x3918ed20	0.00014584186
223	0x391909a3	0.00014594807
224	0x39190320	0.00014592381
225	0x39190320	0.00014592381
226	0x39187e6b	0.00014542944
227	0x3916b686	0.0001437311
228	0x391684ce	0.00014354588
229	0x3931ee42	0.00016968793
230	0x38c64f47	9.456142e-05
231	0x38c3ebd7	9.342253e-05
232	0x39f5266b	0.00046758665
233	0x3a626616	0.0008636428
234	0x3a47caa8	0.00076214457
235	0x3aad51ea	0.0013223265
236	0x3b018f18	0.0019769128
237	0x3b06c4d2	0.0020564091
238	0x3ae0e471	0.0017157925
239	0x3a9e9018	0.0012097387
240	0x3a78a0b5	0.00094843964
241	0x3ac0a6ca	0.0014698145
242	0x3a2c9936	0.00065841095
243	0xb97de674	-0.0002421381
244	0xb72f512c	-1.0449712e-05
245	0x3a1d3bf2	0.0005998007
246	0x397c0eb8	0.00024038076
247	0xb931252c	-0.00016893883
248	0xb979bb64	-0.00023816299
249	0x3923e05e	0.00015628475
250	0x39209cb6	0.00015317168
251	0x391903b5	0.00014592598
252	0x39190884	0.0001459439
253	0x391907b7	0.00014594091
254	0x3901e234	0.00012386666
255	0x38da94c6	0.00010422761

exp_avg_sq f4 [64, 784]
0	0x35ae5303	1.298817e-06
1	0x35ae5303	1.298817e-06
2	0x35ae5303	1.298817e-06
3	0x35ae5303	1.298817e-06
4	0x35ae5303	1.298817e-06
5	0x35ae5303	1.298817e-06
6	0x35ae5303	1.298817e-06
7	0x35ae5303	1.298817e-06
8	0x35ae5303	1.298817e-06
9	0x35ae5303	1.298817e-06
10	0x35ae5303	1.298817e-06
11	0x35ae5303	1.298817e-06
12	0x35ae5345	1.2988245e-06
13	0x35ae9edc	1.3010244e-06
14	0x35ae6915	1.2994593e-06
15	0x35ae53a4	1.2988353e-06
16	0x35ae5303	1.298817e-06
17	0x35ae5303	1.298817e-06
18	0x35ae5303	1.298817e-06
19	0x35ae5303	1.298817e-06
20	0x35ae5303	1.298817e-06
21	0x35ae5303	1.298817e-06
22	0x35ae5303	1.298817e-06
23	0x35ae5303	1.298817e-06
24	0x35ae5303	1.298817e-06
25	0x35ae5303	1.298817e-06
26	0x35ae5303	1.298817e-06
27	0x35ae5303	1.298817e-06
28	0x35ae5303	1.298817e-06
29	0x35ae5303	1.298817e-06
30	0x35ae5303	1.298817e-06
31	0x35ae5303	1.298817e-06
32	0x35ae5302	1.2988169e-06
33	0x35ae52f6	1.2988155e-06
34	0x35aede2d	1.3028672e-06
35	0x35af3d58	1.3056369e-06
36	0x35af4979	1.3059899e-06
37	0x35aea67c	1.3012464e-06
38	0x35ae7af8	1.2999799e-06
39	0x35aebc7b	1.3018865e-06
40	0x35b24897	1.328316e-06
41	0x35af350a	1.3053952e-06
42	0x35af2d8f	1.3051775e-06
43	0x35b0ed3e	1.3182068e-06
44	0x35b83a66	1.3726064e-06
45	0x35b0dc49	1.3177133e-06
46	0x35ae4ebf	1.2986928e-06
47	0x35ae3ac3	1.2981112e-06
48	0x35ae30ec	1.2978248e-06
49	0x35ae1b73	1.2971999e-06
50	0x35ae3a08	1.29809e-06
51	0x35ae3b2d	1.2981233e-06
52	0x35ae5303	1.298817e-06
53	0x35ae5303	1.298817e-06
54	0x35ae5303	1.298817e-06
55	0x35ae5303	1.298817e-06
56	0x35ae5303	1.298817e-06
57	0x35ae5303	1.298817e-06
58	0x35ae52c2	1.2988096e-06
59	0x35adf670	1.2961227e-06
60	0x35ae3e6e	1.298218e-06
61	0x35ae577b	1.298947e-06
62	0x35ae1a6e	1.2971702e-06
63	0x35af3520	1.3053977e-06
64	0x35afd7b3	1.3101293e-06
65	0x35b21709	1.3268738e-06
66	0x35b39c8e	1.3382103e-06
67	0x35b4bc31	1.3465816e-06
68	0x35b9e380	1.3849785e-06
69	0x35bfd7b7	1.429339e-06
70	0x35c1cef9	1.4439858e-06
71	0x35c0e979	1.4373064e-06
72	0x35be6db7	1.4188034e-06
73	0x35b9e0ca	1.3848996e-06
74	0x35ba0c0e	1.3861588e-06
75	0x35b7513a	1.3658203e-06
76	0x35b31d17	1.3345006e-06
77	0x35b0d08f	1.317372e-06
78	0x35af27f7	1.3050147e-06
79	0x35adcf9f	1.294993e-06
80	0x35afef86	1.3108227e-06
81	0x35ae9d1b	1.3009734e-06
82	0x35ae5303	1.298817e-06
83	0x35ae5303	1.298817e-06
84	0x35ae5303	1.298817e-06
85	0x35ae5303	1.298817e-06
86	0x35ae5576	1.2988883e-06
87	0x35ad7def	1.2926156e-06
88	0x35ae0386	1.2965036e-06
89	0x35aea37d	1.3011592e-06
90	0x35ae22c2	1.2974126e-06
91	0x35b21280	1.3267418e-06
92	0x35b1ab91	1.323746e-06
93	0x35b6db6a	1.3623915e-06
94	0x35c5266d	1.4688827e-06
95	0x35c8d8bb	1.4964238e-06
96	0x35dc629e	1.6419979e-06
97	0x35f5cced	1.8313564e-06
98	0x3609e2a7	2.054652e-06
99	0x360db374	2.1115093e-06
100	0x35fe2109	1.8934089e-06
101	0x35ec13ec	1.7589168e-06
102	0x35ded7a1	1.6603045e-06
103	0x35dc8bb8	1.6431941e-06
104	0x35da40b5	1.6261098e-06
105	0x35c56973	1.4708334e-06
106	0x35b8f646	1.3780743e-06
107	0x35bb0444	1.3933827e-06
108	0x35b4ed97	1.3480193e-06
109	0x35ae390c	1.2980613e-06
110	0x35ae4c20	1.2986166e-06
111	0x35ae5303	1.298817e-06
112	0x35ae5303	1.298817e-06
113	0x35ae530d	1.2988181e-06
114	0x35ae59a4	1.2990099e-06
115	0x35ae6138	1.2992305e-06
116	0x35adab5b	1.2939375e-06
117	0x35b3cafd	1.3395617e-06
118	0x35b8f8b9	1.3781456e-06
119	0x35c0a698	1.43536e-06
120	0x35c37406	1.4562399e-06
121	0x35e0e639	1.6756304e-06
122	0x35fe9b4c	1.8969672e-06
123	0x360fe621	2.1442613e-06
124	0x36324f28	2.6570142e-06
125	0x3661576e	3.3578503e-06
126	0x3683b7f2	3.9255183e-06
127	0x3688cf8d	4.077278e-06
128	0x367a4b4c	3.7296732e-06
129	0x36508f12	3.1077693e-06
130	0x36345261	2.687004e-06
131	0x362c65aa	2.5689174e-06
132	0x36284728	2.507537e-06
133	0x360ca638	2.0958378e-06
134	0x35fcef88	1.8845176e-06
135	0x35d9ea3e	1.6235933e-06
136	0x35c355f7	1.4553651e-06
137	0x35b055a9	1.3137952e-06
138	0x35adf699	1.2961274e-06
139	0x35ae47f4	1.2984951e-06
140	0x35ae5303	1.298817e-06
141	0x35ae5303	1.298817e-06
142	0x35ae5403	1.2988461e-06
143	0x35afc2bc	1.3095191e-06
144	0x35ae1852	1.2971088e-06
145	0x35b94dc9	1.3806213e-06
146	0x35ca86ab	1.5089366e-06
147	0x35dfcf40	1.6675112e-06
148	0x3605e674	1.9952686e-06
149	0x362b2986	2.5505155e-06
150	0x365e1e3a	3.3098172e-06
151	0x36a9b462	5.057592e-06
152	0x36efa707	7.1421996e-06
153	0x37152147	8.88884e-06
154	0x3726643b	9.917708e-06
155	0x372f0710	1.0432457e-05
156	0x371dd35a	9.407138e-06
157	0x370c79da	8.373021e-06
158	0x36d6d423	6.402393e-06
159	0x36a3eb09	4.8851402e-06
160	0x36805af9	3.825288e-06
161	0x364936e4	2.9983285e-06
162	0x3623e96c	2.4424762e-06
163	0x35fba938	1.8750206e-06
164	0x35cf0bdd	1.5426155e-06
165	0x35b2af93	1.3313132e-06
166	0x35ae64e6	1.2993376e-06
167	0x35ae7b32	1.2999865e-06
168	0x35ae5303	1.298817e-06
169	0x35ae4e84	1.2986861e-06
170	0x35aedb21	1.3027785e-06
171	0x35b1a2ca	1.3234906e-06
172	0x35b29bc6	1.330737e-06
173	0x35c5734f	1.4711203e-06
174	0x35f1ea60	1.8024111e-06
175	0x361a714f	2.3013743e-06
176	0x365326f7	3.146413e-06
177	0x369999f7	4.577679e-06
178	0x36efb3da	7.1436925e-06
179	0x372a305e	1.0144051e-05
180	0x37642c21	1.3600134e-05
181	0x378f408f	1.707699e-05
182	0x37a51c6f	1.9682773e-05
183	0x37aea248	2.0817984e-05
184	0x37a694b6	1.9857991e-05
185	0x378af524	1.6565034e-05
186	0x3763d7d1	1.3580503e-05
187	0x37256038	9.857169e-06
188	0x36e63498	6.860657e-06
189	0x368622ab	3.997547e-06
190	0x364c4b46	3.0442184e-06
191	0x3618673f	2.2709862e-06
192	0x35d32149	1.5730412e-06
193	0x35b5cd38	1.3545277e-06
194	0x35afe11c	1.3104031e-06
195	0x35adf1c7	1.2959871e-06
196	0x35ae52ef	1.2988147e-06
197	0x35ae31c4	1.2978494e-06
198	0x35b19099	1.3229611e-06
199	0x35b4051d	1.3412533e-06
200	0x35b925eb	1.379461e-06
201	0x35ddd5ed	1.6528044e-06
202	0x361b85b8	2.3174634e-06
203	0x366a8bba	3.4950049e-06
204	0x36b48da6	5.380908e-06
205	0x37088b00	8.138595e-06
206	0x374ac556	1.2086084e-05
207	0x37928055	1.7464316e-05
208	0x37bc1cca	2.2424752e-05
209	0x37d48c7f	2.5337793e-05
210	0x37e70fc0	2.754468e-05
211	0x37ee8a79	2.8436292e-05
212	0x37dff28f	2.6696622e-05
213	0x37c881ed	2.390236e-05
214	0x37a8c915	2.0120797e-05
215	0x377cf029	1.5076287e-05
216	0x3731919c	1.0583924e-05
217	0x36d4d487	6.342834e-06
218	0x368dfe02	4.231698e-06
219	0x364011f7	2.8620686e-06
220	0x35f0fd17	1.7955052e-06
221	0x35c404f4	1.460458e-06
222	0x35b1dc4d	1.3251644e-06
223	0x35adcf89	1.2949905e-06
224	0x35ae6595	1.2993575e-06
225	0x35ae8d84	1.3005197e-06
226	0x35b21f4c	1.3271142e-06
227	0x35b960cf	1.3811749e-06
228	0x35c79b3d	1.4871836e-06
229	0x360288dc	1.9451172e-06
230	0x3654e061	3.1721067e-06
231	0x36ab6e3b	5.1090296e-06
232	0x370806aa	8.107783e-06
233	0x374f2b77	1.2348281e-05
234	0x3795aeb9	1.7843546e-05
235	0x37be7249	2.2702983e-05
236	0x37db1680	2.6117312e-05
237	0x37e3e73b	2.7168184e-05
238	0x37dd4111	2.6375552e-05
239	0x37e23e2d	2.6970252e-05
240	0x37df9073	2.6650936e-05
241	0x37d4d628	2.5372094e-05
242	0x37c046c5	2.2921138e-05
243	0x3793ed11	1.7634158e-05
244	0x376194a2	1.3445651e-05
245	0x370b9771	8.320306e-06
246	0x36aca977	5.1457278e-06
247	0x36626b7e	3.3739193e-06
248	0x360ad395	2.068676e-06
249	0x35cb7d49	1.5161141e-06
250	0x35b17e0f	1.3224216e-06
251	0x35ae6e1a	1.2996054e-06
252	0x35ae35b5	1.2979641e-06
253	0x35af31f9	1.305306e-06
254	0x35b22d63	1.3275243e-06
255	0x35c4c18e	1.465947e-06

exp_avg f4 [64]
0	0xb9b4592b	-0.0003439871
1	0x3a1ff895	0.000610241
2	0x3a52c87e	0.000804074
3	0xb9d3e32b	-0.0004041431
4	0xbadf13b2	-0.001701942
5	0x39e9a0f8	0.00044561154
6	0xb9414adf	-0.00018433806
7	0x3957df53	0.00020587193
8	0xba8e4197	-0.0010853288
9	0x3a4daa33	0.0007845491
10	0x3a5b622e	0.0008368817
11	0x39960086	0.0002861062
12	0xba26b0ce	-0.00063587434
13	0xb95d0d4d	-0.00021081157
14	0xba5bcd9b	-0.00083848246
15	0x39e6b760	0.00044005644
16	0xb8dab0a0	-0.00010427949
17	0xb9742e52	-0.00023286909
18	0x3a52ea91	0.00080458174
19	0x3a19e567	0.00058706704
20	0xbab64341	-0.0013905541
21	0x3997836a	0.00028898875
22	0xb9a3df88	-0.00031256326
23	0xba90d27d	-0.0011049059
24	0xba43f909	-0.0007475769
25	0xb98b0272	-0.00026513968
26	0x3a8a7ac2	0.0010565149
27	0xba06dbb6	-0.0005144434
28	0x39a2ee3e	0.00031076552
29	0xba907f22	-0.0011024217
30	0xba16028c	-0.00057224254
31	0x39a3ba42	0.00031228556
32	0xba1e988a	-0.0006049952
33	0xb938dd5b	-0.00017630069
34	0xba8088de	-0.0009806415
35	0xba86fbfa	-0.0010298484
36	0x3a8184cb	0.0009881494
37	0xb9e6a4d6	-0.0004399183
38	0x3a9d5cf7	0.0012005855
39	0x3ad2be65	0.001607847
40	0x39e9525e	0.00044502591
41	0x39c6f92d	0.00037951153
42	0xba64c425	-0.00087267376
43	0xba6b6d20	-0.00089807995
44	0xba765784	-0.0009397196
45	0xba2461dc	-0.00062706857
46	0xb91b95cc	-0.00014837756
47	0x39358148	0.00017309666
48	0x3a3e250d	0.0007253446
49	0xb9e6802a	-0.00043964508
50	0x394c7dce	0.00019501822
51	0x3a0f7fba	0.000547405
52	0xb8d2797a	-0.00010036207
53	0x393c3b03	0.0001795106
54	0x3a34b115	0.00068928424
55	0x3b03ed10	0.0020130314
56	0x38b689fa	8.7041364e-05
57	0x3a4661d8	0.00075676804
58	0x3947aa76	0.0001904162
59	0x395dedad	0.00021164744
60	0x3a5082d0	0.0007954063
61	0xb9bdf735	-0.00036233073
62	0x3a80d52c	0.0009829155
63	0xbab9a882	-0.0014164599

exp_avg_sq f4 [64]
0	0x36f22cdf	7.2173857e-06
1	0x37ae368c	2.0767817e-05
2	0x373adbba	1.1137623e-05
3	0x3793dc65	1.7626395e-05
4	0x37a2ce71	1.9408037e-05
5	0x377d7740	1.510774e-05
6	0x37d28e23	2.5100138e-05
7	0x373c3238	1.1217366e-05
8	0x372adfc3	1.0184888e-05
9	0x37816f8a	1.5429938e-05
10	0x3785e964	1.5963516e-05
11	0x378fc26d	1.7137465e-05
12	0x3795e9bc	1.7871025e-05
13	0x3799362b	1.8264245e-05
14	0x374868bd	1.1945315e-05
15	0x37866f57	1.6025891e-05
16	0x3740823b	1.1474413e-05
17	0x3762aa17	1.3510252e-05
18	0x379883a4	1.8181112e-05
19	0x37c4afbb	2.3446852e-05
20	0x37eb914b	2.808184e-05
21	0x375206b3	1.2518535e-05
22	0x37525d72	1.2538732e-05
23	0x372e3180	1.0382733e-05
24	0x376248c4	1.3487592e-05
25	0x378a6f70	1.6502774e-05
26	0x37e43161	2.7202712e-05
27	0x37d270f3	2.5086547e-05
28	0x37a0849c	1.9135237e-05
29	0x378fba66	1.7133727e-05
30	0x3778c5bb	1.482799e-05
31	0x378aacac	1.6531289e-05
32	0x3788f1bf	1.6325035e-05
33	0x374f50f2	1.2357008e-05
34	0x378d9e03	1.688209e-05
35	0x37804aa1	1.529354e-05
36	0x37c9fe1d	2.4079398e-05
37	0x379fb61f	1.9039084e-05
38	0x37b25fa1	2.1263784e-05
39	0x37928431	1.7466113e-05
40	0x378dadc5	1.6889428e-05
41	0x379cfcd6	1.8714385e-05
42	0x37b411fc	2.1466047e-05
43	0x37d4d433	2.5371182e-05
44	0x376e2f41	1.4196908e-05
45	0x3793e39a	1.762975e-05
46	0x371caea9	9.338991e-06
47	0x372237ba	9.668927e-06
48	0x378ee676	1.7035036e-05
49	0x3735028e	1.07890355e-05
50	0x37a4d57a	1.9649731e-05
51	0x374f9b1e	1.23742775e-05
52	0x379c5911	1.8638124e-05
53	0x3748874e	1.1952432e-05
54	0x37640419	1.3590813e-05
55	0x37a81e21	2.004119e-05
56	0x37360cb8	1.0851007e-05
57	0x373ee9be	1.1379305e-05
58	0x37921d86	1.7418304e-05
59	0x37bd180f	2.2541759e-05
60	0x3774158c	1.454855e-05
61	0x3787e1d3	1.6198412e-05
62	0x37aa3f71	2.0295121e-05
63	0x373f938f	1.1418843e-05

exp_avg f4 [64, 64]
0	0xbad6f8de	-0.0016401072
1	0x3aade65a	0.0013267503
2	0xba115344	-0.00055437186
3	0xb70eeae8	-8.518553e-06
4	0xbacfb8e0	-0.0015847944
5	0xba92fe7f	-0.0011214762
6	0xbab9e6b4	-0.0014183135
7	0x3b03ce39	0.0020111932
8	0xbb481bb5	-0.0030534093
9	0x3ac1af90	0.0014777053
10	0x3a963bce	0.0011461915
11	0xbb229262	-0.002480649
12	0xb9994992	-0.00029237248
13	0xb7cb613f	-2.424477e-05
14	0x3b2866fb	0.0025696147
15	0x3afbf7a3	0.0019223582
16	0xbb7672e2	-0.0037605097
17	0x3b0b2704	0.0021232972
18	0x3930de10	0.00016867393
19	0x3a9c5f76	0.0011930305
20	0xbb4de49b	-0.0031416777
21	0xba99ef72	-0.0011744334
22	0xb9e13458	-0.00042954343
23	0x3a99924c	0.0011716573
24	0xb9da9137	-0.00041688394
25	0x3b271470	0.002549436
26	0xba403b43	-0.00073330494
27	0xba507e67	-0.0007953406
28	0xb9c8b03a	-0.00038278272
29	0xb964e4f2	-0.00021829063
30	0xba08a8bb	-0.0005213131
31	0x39d85dac	0.0004126852
32	0x3a7247a7	0.00092422444
33	0x3ae4c0ac	0.001745244
34	0xb9e7b654	-0.00044195598
35	0xbaa64588	-0.0012685517
36	0xbb1ba63f	-0.0023750213
37	0x3ac3f3cf	0.001494998
38	0x3b4c56e5	0.0031179723
39	0x3b12184f	0.002229232
40	0x3b1110ba	0.0022135214
41	0x38d3cb79	0.00010099164
42	0x3a1f5a85	0.0006078857
43	0xba08631a	-0.00052027556
44	0xbb42b169	-0.0029707795
45	0xbab14ee3	-0.0013527538
46	0x3b9627e4	0.004582392
47	0xb99149ff	-0.00027711687
48	0xba3ae50f	-0.00071294693
49	0x3b9637fc	0.0045843106
50	0x39a2ccbb	0.00031051584
51	0xba88dc41	-0.0010441617
52	0xbae694d7	-0.0017591965
53	0x3aa75d67	0.0012768925
54	0xbb47b2aa	-0.0030471482
55	0xbadd7230	-0.0016894992
56	0xbb85e2de	-0.0040858826
57	0x3b319ddc	0.0027102148
58	0x394fb038	0.00019806705
59	0xbb1d9a2f	-0.00240482
60	0x3b150f73	0.0022744804
61	0x39f655d6	0.0004698473
62	0x3aab2277	0.0013056536
63	0xbaf110c7	-0.0018391841
64	0xbb160309	-0.0022889993
65	0xbb02a586	-0.0019935085
66	0xbac4bd05	-0.0015009945
67	0xb970b0c7	-0.00022954038
68	0xbae70e27	-0.0017628119
69	0xbaefc406	-0.0018292672
70	0xbab3b3dc	-0.0013710218
71	0xbb7a0ffb	-0.0038156498
72	0xbb3899d4	-0.002816786
73	0xbaf16f92	-0.0018420091
74	0xbac7cd66	-0.0015243709
75	0xbb864854	-0.0040979777
76	0xba3dd519	-0.0007241532
77	0x39ca8a89	0.0003863166
78	0x3a970ca6	0.0011524155
79	0xba686552	-0.00088651956
80	0xbbc20521	-0.0059210216
81	0x3a437b19	0.00074570026
82	0xba47bf10	-0.0007619718
83	0xbaae9157	-0.0013318461
84	0xbae63256	-0.0017562609
85	0x39f736de	0.0004715239
86	0xb94f2dd0	-0.00019758125
87	0xbaf60fd1	-0.0018773024
88	0x3a0b0702	0.00053034734
89	0x3b04c073	0.002025631
90	0xb99b86cb	-0.00029664332
91	0xbb578fa3	-0.003289201
92	0xbb3a7f24	-0.002845713
93	0xbac2fe74	-0.0014876858
94	0xbb1d4640	-0.002399817
95	0xba90ec4e	-0.0011056752
96	0xba115fd4	-0.00055455905
97	0x3b0bc543	0.0021327294
98	0x3af98f5c	0.0019039917
99	0xbb2b3ca6	-0.0026128679
100	0xbae59d5c	-0.001751821
101	0xb924777e	-0.00015684773
102	0x3a5c39c2	0.00084009406
103	0xb9c1c50b	-0.00036958637
104	0x3a067a56	0.0005129924
105	0xb8be52ec	-9.0753514e-05
106	0x3a385d40	0.00070329383
107	0x397e00d0	0.0002422363
108	0xbb2840d8	-0.0025673416
109	0xba904247	-0.001100608
110	0x3b01cba8	0.0019805226
111	0xba18fe95	-0.00058362755
112	0xba9457f2	-0.0011317714
113	0x3ade815c	0.0016975808
114	0xbac3def5	-0.0014943766
115	0xbaca9cbe	-0.001545809
116	0xbb112fe5	-0.0022153792
117	0x39b6c774	0.0003486235
118	0xbb3acf14	-0.0028504776
119	0xbaba3fe6	-0.0014209717
120	0xbadf9b98	-0.001705992
121	0x3b1bcf7b	0.002377479
122	0x39af9845	0.0003349205
123	0xbabdfdb4	-0.0014495165
124	0x3994091c	0.00028235547
125	0xbad90ead	-0.001656016
126	0xbaadc3ec	-0.0013257242
127	0xba6b28de	-0.0008970628
128	0x3ac612ad	0.0015111767
129	0x3a6baf8f	0.0008990699
130	0x3a256980	0.0006309971
131	0x3ac02477	0.0014659305
132	0x3a7531fa	0.00093534554
133	0x3a7addcb	0.0009569793
134	0x3a064cfc	0.0005123166
135	0x39271db9	0.00015937434
136	0x3b3135a3	0.0027040027
137	0xb8dd2cd7	-0.00010546453
138	0xbaf0d80f	-0.0018374937
139	0x3ad65b43	0.0016354102
140	0xb4ea2f00	-4.3620093e-07
141	0x39c46836	0.00037461676
142	0xbad243d6	-0.0016041945
143	0xbafe46a9	-0.001939972
144	0x3b972fb7	0.0046138423
145	0x39bd406f	0.00036096896
146	0xba48a8a9	-0.0007654527
147	0x39403531	0.00018330362
148	0xbaa0f172	-0.0012278988
149	0xba824d53	-0.0009941257
150	0xbb129906	-0.002236904
151	0x391f183c	0.0001517245
152	0x3b34730a	0.002753439
153	0xbab97994	-0.0014150613
154	0x3a50bea5	0.00079629786
155	0x3b0fca8e	0.00219408
156	0x3b26e517	0.0025466138
157	0xb921063a	-0.00015356476
158	0x3ad1efbb	0.001601688
159	0x3a50b572	0.0007961608
160	0xb9e2c877	-0.00043255437
161	0xbaaa6589	-0.001300023
162	0x384394c0	4.6630157e-05
163	0x3a80c6f9	0.0009824923
164	0x3ad5b2ae	0.0016303861
165	0xbb064e09	-0.002049329
166	0x39c57351	0.00037660685
167	0x3a94bc9a	0.0011347712
168	0x3b0da47f	0.002161294
169	0x3a9ffd05	0.0012206143
170	0xb9edcde6	-0.0004535757
171	0x3aa28726	0.0012399897
172	0x39b27cf4	0.00034043903
173	0x3b7af055	0.0038290222
174	0xbb3787a4	-0.0028004432
175	0x397aeb98	0.00023929623
176	0x3ad1968a	0.0015990299
177	0xbaadb307	-0.0013252207
178	0xb9d16e06	-0.0003994556
179	0xb8d13ef9	-9.977626e-05
180	0x3aec827e	0.0018044261
181	0xba5b7265	-0.0008371233
182	0x3b12a97d	0.0022378855
183	0xbaae8a16	-0.0013316299
184	0x3b6157d1	0.0034384618
185	0xbab353da	-0.0013681606
186	0x3a36fb20	0.00069801696
187	0xb87639ed	-5.8704918e-05
188	0x3977aca5	0.0002362007
189	0xba9a8d69	-0.0011791411
190	0x39f37816	0.00046438043
191	0x3a4eb94c	0.0007885888
192	0x3ab28a2c	0.0013621501
193	0xba6f0dba	-0.0009119172
194	0xb97327fa	-0.00023189178
195	0xb8a110bc	-7.680195e-05
196	0x3a7e0bc6	0.00096910854
197	0xba832540	-0.0010005608
198	0x3a13d8e3	0.00056399236
199	0xba379760	-0.00070034526
200	0x39ab0b9c	0.0003262431
201	0x3a7d31b0	0.0009658588
202	0xb91b7611	-0.00014825935
203	0x3ad39e06	0.0016145117
204	0xbaccd94a	-0.0015628722
205	0x396a8d53	0.00022368626
206	0xb87eab00	-6.0717575e-05
207	0x39ca5d5a	0.00038597995
208	0x3a6ec742	0.0009108671
209	0x3acc91e0	0.0015607439
210	0x3b2acbd0	0.0026061423
211	0x3a049dfa	0.0005058941
212	0x3ac0fc10	0.0014723558
213	0x3b0b5e10	0.0021265782
214	0x3a5c06b2	0.00083933317
215	0x3afdf46f	0.0019375215
216	0x3a055e3b	0.0005087589
217	0x3b00bf37	0.0019645223
218	0xb9eae865	-0.00044805105
219	0x3a05ff22	0.0005111565
220	0x3a1050be	0.00055051956
221	0xbac7d870	-0.0015246999
222	0x3a24b761	0.0006283429
223	0xba87db57	-0.0010365051
224	0xb9e3a546	-0.00043419952
225	0x3992bcb9	0.000279879
226	0x3afa4c51	0.001909623
227	0x39f071b0	0.0004586107
228	0xba6580bf	-0.00087548414
229	0x3a85ce5a	0.0010208592
230	0x3a777467	0.00094396475
231	0x39d211ec	0.00040067674
232	0x3a4d40b0	0.00078297686
233	0x39b8dbda	0.00035259017
234	0x391795f2	0.00014456341
235	0x3a8605db	0.0010225134
236	0x3941da96	0.00018487344
237	0x39e0838a	0.00042822614
238	0x3a6c4382	0.0009012745
239	0xb93d5dda	-0.00018059407
240	0x3a5a08d8	0.0008317358
241	0x37b79010	2.1882384e-05
242	0x3a514edb	0.00079844677
243	0x3991ed02	0.0002783314
244	0xba9bfa94	-0.001190024
245	0x3a586fce	0.0008256406
246	0xb944d5e1	-0.00018771693
247	0x3a75f0e3	0.0009381903
248	0x3a531053	0.0008051444
249	0x3a9c916d	0.0011945196
250	0x3a51de1b	0.00080058136
251	0x3a5cf9f6	0.0008429581
252	0xba9ce635	-0.0011970463
253	0xba24888a	-0.00062764494
254	0xb9bd861d	-0.0003614881
255	0x39a234c6	0.00030938367
