lightning_logs/version_3/checkpoints/epoch=2-step=645.ckpt (torch, 668780 bytes, 18 tensors)

model.1.weight f4 [64, 784]
-0.016104965 -0.032367542 -0.0027654069 0.0031679184 -0.041339073 0.014574413 0.018091204 -0.008172765
-0.0005802986 0.020102775 -0.028451886 -0.0018882581 0.0022631204 -0.017354628 0.008563719 0.022962946
-0.007931012 0.013193771 -0.020407686 -0.03268144 0.011378478 0.02528106 0.011601812 0.0015240898
-0.0061569503 0.018046299 -0.028649993 -0.005412878 0.009300237 -0.011857836 -0.037491173 -0.04098167
-0.03718327 -0.007187213 -0.015975356 -0.04161893 0.019698204 -0.011783164 0.027523687 -0.024963403
0.0007070704 0.017204542 0.008598058 -0.027870966 -0.028923241 -0.028046967 -0.013123088 0.0066957395
-0.03855753 -0.041272424 -0.0010433827 0.018773768 0.016097857 0.016614076 -0.021953007 -0.017118426
-0.021988561 0.004160417 -0.0010599853 0.0063881096 -0.035769727 -0.018787393 -0.04184476 -0.014240988
0.022055788 -0.011009638 -0.015461102 -0.0040158993 -0.009778579 0.025157772 0.003804858 0.047832087
0.03207997 -0.004483221 0.011654883 -0.029707506 -0.02917595 -0.011686154 -0.0075884834 0.01588759
0.025994016 0.008805816 0.015197624 0.019246338 0.0057905796 -0.00864277 -0.034516882 -0.027843302
-0.008160006 0.01027275 0.024910305 -0.002746206 0.0076867933 -0.026149856 0.020537935 -0.008559956
0.023476075 0.04770795 0.03229792 0.042288706 0.042063262 0.0012943267 -0.014765129 0.032912564
-0.03080367 -0.023390854 -0.008002508 -0.031136965 2.962072e-05 0.013184505 -0.031494312 -0.031847
0.0074243685 0.004419558 0.004380044 0.026464991 -0.0053316206 0.010878711 0.017347375 -0.042424385
0.0017947062 -0.037725516 0.0074296133 0.027813084 0.0070574884 -0.015801242 0.009966441 0.015387234
-0.016008839 0.02811134 0.0010842525 0.017408043 -0.024079897 0.010220985 -0.056566797 -0.03350993
-0.020131133 -0.002751096 -0.011106912 -0.018214017 -0.008032578 -0.02252289 -0.034362037 -0.02132703
-0.04628929 -0.0027419522 -0.043607403 -0.0057455013 -0.038678013 -0.001700982 -0.018127995 0.018374853
0.02053089 0.029643085 0.038724165 -0.0074718217 0.011548767 0.012198172 0.007030545 -0.049650557
0.0068629365 -0.03633379 -0.060560383 -0.055102866 -0.031786993 -0.04365319 0.0050551537 0.0027912077
-0.032196496 -0.029881174 -0.025190273 -0.013563081 0.009972005 0.002714905 -0.048547212 -0.019261792
0.00964991 -0.010298384 -0.0116416495 -0.035240334 -0.024931623 0.046672534 0.027003413 0.043910515
0.022280972 -0.014090072 -0.047764767 -0.03202691 0.0053650066 -0.028761324 -0.037923824 -0.053948633
-0.0074876873 -0.05586324 -0.018805392 -0.019274866 -0.036705483 0.009781439 -0.038798135 0.013177361
-0.008301074 -0.030575294 -0.04267365 -0.024388112 -0.001115749 -0.0069150315 -0.030633584 0.00082463864
0.05326373 0.053053 0.006949686 0.053345073 0.016912015 -0.014613765 0.038949557 -0.027754003
-0.05972737 -0.014766702 -0.0352597 -0.048900343 -0.050874308 -0.058184322 -0.028221572 0.024574324
-0.03794888 0.0051364363 -0.025847873 -0.035845987 -0.016088577 -0.031213414 0.004029233 0.0181016
0.0246481 0.03607248 0.02837679 0.005113672 0.045534264 0.036535006 0.028148314 0.064621165
0.026633767 0.030971622 0.011752845 -0.020150166 -0.028568827 -0.01915123 -0.02666261 -0.031574294
-0.037305206 -0.06256845 -0.005248348 0.019337226 -0.036209524 0.022841897 -0.036886115 0.017069766
00000000: 8fee 83bc d493 04bd d43b 35bb da9c 4f3b
00000010: 2953 29bd 85c9 6e3c 0134 943c 10e7 05bc
00000020: 2e1f 18ba 93ae a43c ee13 e9bc 6e7f f7ba
00000030: dc50 143b 4b2b 8ebc d74e 0c3c ca1c bc3c
00000040: 13f1 01bc b02a 583c 052e a7bc f9dc 05bd
00000050: cc6c 3a3c 3a1a cf3c 8715 3e3c f8c3 c73a
00000060: 3ec0 c9bb d5d5 933c 64b3 eabc 835e b1bb
00000070: 0560 183c 5e47 42bc 5890 19bd 65dc 27bd
00000080: 7c4d 18bd b682 ebbb c0de 82bc 9c78 2abd
00000090: 215e a13c 2c0e 41bc 5b79 e13c 0d80 ccbc
000000a0: b15a 393a 8af0 8c3c dede 0c3c a751 e4bc
000000b0: 6ff0 ecbc c1c2 e5bc 3802 57bc ef67 db3b
000000c0: 80ee 1dbd 460d 29bd 1dc2 88ba 72cb 993c
000000d0: a7df 833c 3e1a 883c cbd6 b3bc f13b 8cbc
000000e0: 5b21 b4bc 1b54 883b 34ef 8aba 5953 d13b
000000f0: 4783 12bd 05e8 99bc 6965 2bbd 0853 69bc
00000100: 57ae b43c c561 34bc 9050 7dbc ce97 83bb
00000110: 5536 20bc ac17 ce3c ed5a 793b 94eb 433d
00000120: 4966 033d fce7 92bb 1ff4 3e3c 285d f3bc
00000130: 6702 efbc 4877 3fbc d0a8 f8bb b126 823c
00000140: 67f1 d43c 4546 103c 75ff 783c 7faa 9d3c
00000150: e7be bd3b 689a 0dbc 9361 0dbd a317 e4bc
00000160: 8cb1 05bc 094f 283c b210 cc3c b1f9 33bb
00000170: 7fe1 fb3b 3938 d6bc 2c3f a83c 0f3f 0cbc
00000180: e650 c03c 6969 433d d34a 043d ec36 2d3d
00000190: 874a 2c3d 66a6 a93a 71e9 71bc 53cf 063d
000001a0: fa57 fcbc 2d9e bfbc f41c 03bc f312 ffbc
000001b0: 037a f837 d203 583c 2e00 01bd 0072 02bd
000001c0: 1e48 f33b f1d1 903b 7986 8f3b 1ccd d83c
000001d0: e0b4 aebb 9f3c 323c 151c 8e3c 31c5 2dbd
000001e0: 593c eb3a 1286 1abd 1d74 f33b 44d8 e33c
000001f0: 8142 e73b 9b71 81bc 494a 233c bd1a 7c3c
00000200: f824 83bc c149 e63c 7a1d 8e3a 509b 8e3c
00000210: 3443 c5bc eb75 273c 96b2 67bd b541 09bd
00000220: 0cea a4bc bb4b 34bb c4f9 35bc 9035 95bc
00000230: 139b 03bc ec81 b8bc 35bf 0cbd 06b6 aebc
00000240: d799 3dbd 53b2 33bb ad9d 32bd c244 bcbb
00000250: d66c 1ebd 7cf3 deba 2981 94bc dc86 963c
00000260: 6630 a83c 0ed6 f23c 3b9d 1e3d 2fd6 f4bb
00000270: 0a37 3d3c d7da 473c 7c60 e63b 625e 4bbd
00000280: 7ce2 e03b bdd2 14bd 2a0e 78bd 8bb3 61bd
00000290: 1433 02bd b0cd 32bd b4a5 a53b b2ec 363b
000002a0: 79e0 03bd 5dc9 f4bc d55b cebc af37 5ebc
000002b0: 9f61 233c 8cec 313b 71d9 46bd e8ca 9dbc
000002c0: a81a 1e3c 8eba 28bc 9ebc 3ebc 2b58 10bd
000002d0: 673d ccbc b32b 3f3d 4336 dd3c 83db 333d
000002e0: 9686 b63c 0cda 66bc fda4 43bd a62e 03bd
000002f0: f0cc af3b de9c ebbc 0356 1bbd 3ef9 5cbd
00000300: 465b f5bb dad0 64bd c40d 9abc 53e6 9dbc
00000310: 7d58 16bd 5442 203c cbea 1ebd dce5 573c
00000320: 3a01 08bc 0a79 fabc 91ca 2ebd 94c9 c7bc
00000330: 533e 92ba 7d97 e2bb 48f3 fabc 902c 583a
00000340: 122b 5a3d 1a4e 593d 31ba e33b 5d80 5a3d
00000350: 118b 8a3c 936e 6fbc 9289 1f3d 5d5c e3bc
00000360: b0a4 74bd 0af0 71bc 7a6c 10bd ba4b 48bd
00000370: 9461 50bd af52 6ebd ed30 e7bc 1850 c93c
00000380: 4970 1bbd 8d4f a83b ebbe d3bc 3ed3 12bd
00000390: 31cc 83bc 46b3 ffbc a807 843b cf49 943c
000003a0: d0ea c93c bdc0 133d 7176 e83c 9790 a73b
000003b0: 2382 3a3d bba5 153d 4b97 e63c 1a58 843d
000003c0: 0f2f da3c 33b8 fd3c 018f 403c f611 a5bc
000003d0: 2c09 eabc 0ae3 9cbc 8c6b dabc 0c54 01bd
000003e0: 58cd 18bd e323 80bd 56fa abbb 1a69 9e3c
000003f0: 7050 14bd ee1e bb3c e515 17bd e5d5 8b3c

model.1.bias f4 [64]
0.011935761 0.041889597 0.0033214404 0.02159195 -0.013475731 0.04097772 -0.0020204268 0.03991443
0.0020360341 -0.025498396 0.0016983792 0.02426057 0.011473599 0.028144443 -0.014728366 0.03304971
-0.026837666 -0.040815074 0.022885105 -0.0058188546 0.022019768 0.0011034406 0.01979614 0.022892863
-0.011949921 -0.010266696 0.023108762 0.013439065 -0.019802546 0.021797542 0.01080821 0.025471332
-0.0001682448 -0.013849234 -0.010770633 0.01631515 0.024865363 0.03283262 -0.0070315166 0.020220967
0.03255473 -0.018402245 -0.017951602 0.026505059 -0.0071519944 0.028719643 0.018019155 -0.00049025397
0.040883172 0.0465997 0.015318121 -0.017839093 0.010085422 0.0142943 0.03026107 0.0021478382
-0.024900155 0.036629003 0.012567767 -0.023044674 0.028822305 0.037041165 -0.022428483 0.035640195
00000000: 368e 433c 6d94 2b3d 86ac 593b 9ae1 b03c
00000010: 50c9 5cbc 41d8 273d 2369 04bb 507d 233d
00000020: fc6e 053b 03e2 d0bc 269c de3a 1abe c63c
00000030: c3fb 3b3c 2d8f e63c 3f4f 71bc 225f 073d
00000040: aada dbbc b52d 27bd 8b79 bb3c 17ac bebb
00000050: cd62 b43c 53a1 903a 842b a23c d089 bb3c
00000060: 9ac9 43bc a535 28bc 964e bd3c 862f 5c3c
00000070: f338 a2bc c290 b23c eb14 313c 41a9 d03c
00000080: df6a 30b9 e6e7 62bc 4f77 30bc 59a7 853c
00000090: 72b2 cb3c 7f7b 063d a368 e6bb 71a6 a53c
000000a0: 1c58 053d 4ec0 96bc 3d0f 93bc 2321 d93c
000000b0: 475b eabb 7545 eb3c e89c 933c 6384 00ba
000000c0: 1d75 273d 54df 3e3d dbf8 7a3c 4a23 92bc
000000d0: 533d 253c a432 6a3c 10e6 f73c bfc2 0c3b
000000e0: 69fb cbbc 4b08 163d 09e9 4d3c 2fc8 bcbc
000000f0: c11c ec3c 7ab8 173d f0bb b7bc 74fb 113d

model.4.weight f4 [64, 64]
0.050977845 0.1428575 0.013142915 -0.014446436 0.123553574 0.10105199 -0.057665206 -0.079672165
-0.06300944 -0.121647336 -0.038732484 0.13267516 0.06395784 0.04570129 -0.015935149 -0.11649404
0.119044475 0.09428001 -0.028921992 0.13789 0.062941894 0.056671407 0.019108038 -0.06468174
-0.1335748 -0.09794821 0.14038168 0.12242715 0.11970722 -0.0006447299 -0.098232396 0.012592614
-0.08687888 -0.01841889 -0.048258413 0.13853015 0.053435083 0.0097701335 0.055837937 0.030382609
0.08069944 0.024734376 0.13897496 0.051628787 -0.036601927 -0.11828687 0.084845826 0.13985696
-0.06106488 0.038802117 0.19431897 -0.0069983494 0.049778193 0.14705504 -0.092223175 -0.09690044
-0.0322291 0.05843767 0.07169114 0.011076593 0.018241914 0.10247033 -0.07216289 -0.024735939
-0.11944297 0.124959625 -0.07053741 0.14575689 -0.027659059 -0.014721094 0.112051345 0.10246327
-0.08669025 0.004349608 0.16024126 0.019849235 0.12000662 -0.13256061 0.12658624 -0.034718595
0.01647607 0.055794038 -0.03818042 0.14761116 0.05405528 -0.08089665 0.105502285 0.022233725
0.06676148 0.074540466 0.088343255 0.053319443 0.07804151 -0.14330842 -0.055361174 0.15241982
0.030415278 -0.07259653 -0.11311546 0.10043687 0.11218089 -0.02555628 0.08384788 0.03528136
0.13427548 0.15427177 -0.078210406 0.030031798 -0.086524725 0.011924656 0.07563887 0.026794394
-0.03337936 0.007207212 -0.11540855 -0.0076460876 -0.012832433 -0.019564565 -0.1588786 0.13845395
0.12470988 0.10164491 0.12079559 0.14924969 -0.16911156 -0.12354234 0.14273033 -0.08096932
0.0060224393 0.04749248 0.09449576 -0.054825198 -0.032475464 0.09534936 -0.101512335 0.016666394
0.12309147 0.065266125 -0.08862778 0.14724733 -0.013323709 0.06493503 -0.076236464 0.06370589
-0.07292822 -0.035797816 0.014566659 0.1298188 -0.08659014 0.014706098 -0.024173118 -0.075924695
-0.11836557 0.019931225 -0.0022170835 0.035207894 -0.06782569 0.09042564 -0.027100988 0.038000464
0.08880077 0.02444478 0.022649836 -0.07460187 -0.16214389 -0.02167769 0.034261487 0.020989882
-0.029707404 0.044656664 0.05642992 0.0019914194 -0.08818132 0.054775268 -0.03977617 0.043242153
0.07710366 0.029990712 0.05338915 -0.06975934 0.1455503 0.08854165 -0.06918333 -0.061848
0.10643344 -0.07467207 -0.011832879 0.10625683 -0.11269703 0.009494501 0.05116509 -0.15317376
-0.053888302 -0.090827025 -0.02169972 -0.0724661 0.040208697 -0.101546876 0.0023969396 -0.12400054
-0.038403135 0.033414714 0.0042393967 0.040987153 -0.11020581 0.015591053 -0.0047687427 0.027016506
-0.10927003 0.047363386 -0.099816754 0.05746154 0.05754283 -0.06292741 0.079818875 0.08667064
0.06130248 -0.09793634 -0.07770545 -0.022915913 -0.070385695 0.02991399 -0.031043755 -0.013724304
0.022840224 -0.00539488 -0.11007089 0.06393719 0.03902706 0.09880652 0.07657366 -0.09847544
-0.10529372 0.07402289 -0.00863833 -0.035597026 0.0721045 -0.0841791 -0.096989065 0.10746394
-0.13064548 -0.027671339 -0.118846595 -0.09443658 0.08456197 -0.10434285 -0.014165453 -0.06675286
-0.032538366 0.053330015 -0.01421705 0.07895397 -0.11725819 -0.07313286 -0.039479263 -0.04263695
00000000: 25ce 503d 3d49 123e 6255 573c bfb0 6cbc
00000010: a809 fd3d 59f4 ce3d 5a32 6cbd 292b a3bd
00000020: 180b 81bd 3d22 f9bd f4a5 1ebd ffdb 073e
00000030: 54fc 823d 4731 3b3d 6e8a 82bc 6d94 eebd
00000040: 97cd f33d e115 c13d d0ed ecbc 0933 0d3e
00000050: aee7 803d 4720 683d 7688 9c3c dc77 84bd
00000060: d5c7 08be 1299 c8bd 37c0 0f3e 16bb fa3d
00000070: 0f29 f53d 1703 29ba 112e c9bd 4051 4e3c
00000080: 8eed b1bd 36e3 96bc 9daa 45bd d9da 0d3e
00000090: bfde 5a3d e912 203c 52b6 643d f3e4 f83c
000000a0: bf45 a53d bf9f ca3c 744f 0e3e b578 533d
000000b0: e7eb 15bd 6340 f2bd a6c3 ad3d aa36 0f3e
000000c0: 2b1f 7abd f8ee 1e3d 8dfb 463e 6952 e5bb
000000d0: 38e4 4b3d 9995 163e 81df bcbd bd73 c6bd
000000e0: a902 04bd 575c 6f3d ced2 923d 997a 353c
000000f0: 1170 953c f7db d13d 23ca 93bd 06a3 cabc
00000100: 849e f4bd d5ea ff3d eb75 90bd 4b41 153e
00000110: 4095 e2bc be30 71bc 2d7b e53d 43d8 d13d
00000120: a88a b1bd 2887 8e3b 4916 243e dd9a a23c
00000130: 08c6 f53d f8bd 07be d39f 013e 1635 0ebd
00000140: d3f8 863c 4a88 643d 1263 1cbd 6127 173e
00000150: 1269 5d3d 25ad a5bd 9511 d83d 8023 b63c
00000160: 3eba 883d aca8 983d 4fed b43d 7d65 5a3d
00000170: 3ad4 9f3d 71bf 12be 66c2 62bd f113 1c3e
00000180: 7629 f93c 7dad 94bd 14a9 e7bd d8b1 cd3d
00000190: 18bf e53d 675b d1bc 70b8 ab3d 3083 103d
000001a0: 837f 093e 6bf9 1d3e c72c a0bd 3f05 f63c
000001b0: e033 b1bd a25f 433c 8de8 9a3d eb7f db3c
000001c0: ccb8 08bd 7a2a ec3b 515b ecbd 088c fabb
000001d0: 203f 52bc de45 a0bc 12b1 22be dfc6 0d3e
000001e0: e567 ff3d 352b d03d ae63 f73d e9d4 183e
000001f0: 952b 2dbe c403 fdbd e627 123e 3ed3 a5bd
00000200: e257 c53b 7a87 423d fe86 c13d 6390 60bd
00000210: fe04 05bd 8646 c33d b3e5 cfbd f687 883c
00000220: 6117 fc3d 3faa 853d 7b82 b5bd 01c8 163e
00000230: b04b 5abc a8fc 843d dd21 9cbd 3c78 823d
00000240: 645b 95bd bba0 12bd ffa8 6e3c 38ef 043e
00000250: 2c56 b1bd d8f1 703c b406 c6bc 687e 9bbd
00000260: a669 f2bd cf46 a33c 7d4c 11bb 2736 103d
00000270: 32e8 8abd 1431 b93d e402 debc 60a6 1b3d
00000280: 2edd b53d 6b40 c83c 268c b93c ddc8 98bd
00000290: 0c09 26be 6995 b1bc c655 0c3d f9f2 ab3c
000002a0: f15c f3bc e8e9 363d 0f23 673d 7982 023b
000002b0: 6898 b4bd 085c 603d 56ec 22bd af1e 313d
000002c0: 86e8 9d3d 15af f53c 95ae 5a3d fcdd 8ebd
000002d0: 230b 153e 5355 b53d fdaf 8dbd 5454 7dbd
000002e0: c7f9 d93d aced 98bd b1de 41bc 2e9d d93d
000002f0: b3cd e6bd d38e 1b3c 7c92 513d 95d9 1cbe
00000300: fbb9 5cbd 8503 babd 9cc3 b1bc 1b69 94bd
00000310: e0b1 243d cff7 cfbd f915 1d3b fff3 fdbd
00000320: 9b4c 1dbd dedd 083d a3ea 8a3b 25e2 273d
00000330: 95b3 e1bd 9e71 7f3c 1d43 9cbb b851 dd3c
00000340: f7c8 dfbd 1c00 423d ba6c ccbd cb5c 6b3d
00000350: 08b2 6b3d 16e0 80bd 1478 a33d 6080 b13d
00000360: 4f18 7b3d d992 c8bd 0924 9fbd 27ba bbbc
00000370: 6026 90bd 2f0e f53c 794f febc e7db 60bc
00000380: 6c1b bb3c 89c7 b0bb d96c e1bd 80f1 823d
00000390: d7da 1f3d 135b ca3d a7d2 9c3d 7ead c9bd
000003a0: 3ca4 d7bd 5099 973d c887 0dbc 30ce 11bd
000003b0: 86ab 933d 1866 acbd 34a2 c6bd 0e16 dc3d
000003c0: eec7 05be 01af e2bc d865 f3bd f767 c1bd
000003d0: d32e ad3d b4b1 d5bd 3716 68bc b9b5 88bd
000003e0: f346 05bd 9370 5a3d a1ee 68bc 9eb2 a13d
000003f0: 1025 f0bd aec6 95bd 02b5 21bd 15a4 2ebd

model.4.bias f4 [64]
-0.09283605 -0.097478405 0.06029492 0.055997904 -0.029440591 0.10689383 -0.022449454 -0.017033681
0.03765883 -0.01581929 -0.0062686666 -0.06461667 0.055938706 -0.04855849 0.1256004 -0.08135491
0.12436513 0.051882453 0.09069494 0.05975584 -0.06170752 -0.01876906 0.020386267 0.09629991
0.13388094 -0.029440857 0.12993278 -0.035072215 -0.0044219038 0.028096085 -0.017856818 0.052645624
0.14691067 -0.02614965 0.013363119 -0.05800868 -0.05504169 -0.10900567 -0.056859896 0.055951513
0.13740952 0.12300437 -0.08028121 0.01795949 0.08163838 0.01244795 0.0923054 0.074075766
0.087521054 -0.09819603 -0.07638095 0.042133074 -0.03244672 0.123595044 -0.0043682 -0.0040681753
-0.06555773 0.03572964 -0.102352165 -0.03997416 0.061778408 0.064818375 0.13687548 0.09532556
00000000: d420 bebd c2a2 c7bd cef7 763d 0f5e 653d
00000010: 652d f1bc 27eb da3d ebe7 b7bc 388a 8bbc
00000020: 2540 1a3d 7597 81bc 6369 cdbb bf55 84bd
00000030: fc1f 653d 44e5 46bd 649d 003e 679d a6bd
00000040: 25b3 fe3d b282 543d 45be b93d 8ac2 743d
00000050: 06c1 7cbd 92c1 99bc 1a01 a73c e338 c53d
00000060: 1618 093e f42d f1bc 190d 053e e2a7 0fbd
00000070: 9ee5 90bb c329 e63c 7648 92bc f0a2 573d
00000080: c06f 163e ca37 d6bc fcf0 5a3c 829a 6dbd
00000090: 6573 61bd 5d3e dfbd ece5 68bd 6a2d 653d
000000a0: 15b5 0c3e b7e9 fb3d 7a6a a4bd c81f 933c
000000b0: 0632 a73d 7df2 4b3c 9d0a bd3d 09b5 973d
000000c0: 3d3e b33d 001b c9bd 9e6d 9cbd bb93 2c3d
000000d0: dae6 04bd 661f fd3d 1e23 8fbb 544e 85bb
000000e0: 2243 86bd 3e59 123d 039e d1bd f2bb 23bd
000000f0: 5b0b 7d3d 7fbf 843d 1629 0c3e 0c3a c33d

model.7.weight f4 [10, 64]
0.063722424 -0.14910668 -0.12189743 0.044031713 -0.18628825 0.08757377 0.01498836 -0.15564239
0.036522932 0.05877634 -0.1431059 -0.11914703 -0.027445717 -0.098103724 0.021090314 0.120143436
-0.13851514 0.051198047 -0.08831375 -0.11458542 -0.10448713 0.1365604 -0.07201386 0.044576097
-0.11453157 -0.12224099 -0.17976204 0.030383265 -0.13564813 0.04433025 0.058511045 0.106133156
0.088795766 -0.0036774466 -0.12253876 0.08428556 0.09066315 0.12277448 0.10044065 0.036543276
-0.15860274 -0.13339154 -0.042353436 0.05642741 -0.011326577 0.15822484 0.1638792 -0.048576366
0.066315524 -0.092453815 -0.0007063269 0.046635956 0.078342654 0.11830781 0.118402325 0.05145117
-0.002311177 0.089965455 -0.053960375 -0.11378828 -0.07978829 0.11327283 -0.16368483 -0.13107803
-0.022538632 -0.16286866 -0.08197715 0.08875846 -0.17322266 -0.11272378 -0.09006247 0.06337097
-0.044360675 0.07891401 0.15784538 0.11713009 0.11982548 0.0076033524 0.11150554 -0.13055727
0.16640952 -0.11968577 -0.0041237734 -0.01681896 -0.03625442 0.15221389 -0.13497795 0.06622871
-0.021296477 0.11309487 0.11690769 -0.07146475 0.037591066 -0.16173498 -0.02335597 0.12543857
-0.19680724 -0.080891445 -0.11564627 -0.09033667 -0.13978547 0.04018164 -0.009798234 -0.070151515
0.02166581 -0.027169945 -0.03612239 -0.18239316 0.115297906 -0.13646963 -0.113383785 0.06967752
0.14312625 -0.12399868 -0.0020856212 -0.048796445 -0.110787705 -0.038244586 0.068637 -0.18046908
0.16151972 0.0353137 -0.12472841 0.10104382 0.04944872 0.019629518 0.019126061 -0.11471048
0.097708076 -0.008264317 0.12219866 -0.06959756 0.07835436 -0.11028004 0.110847816 0.14440712
-0.030376453 0.12325086 -0.11661905 0.023549661 -0.06787987 0.013374236 -0.111630626 0.1384252
0.13530685 -0.012237355 0.061174445 0.05666079 0.008225751 -0.07129796 0.109957814 0.1360835
-0.09780708 -0.06467414 0.04789841 -0.091744274 -0.013390524 -0.11510583 0.10382699 -0.00958342
-0.14102814 0.045703646 0.14371072 0.0105940765 -0.030201621 0.024991732 0.09404352 -0.11358233
-0.17496695 -0.03541638 -0.09403805 0.085812286 -0.009067549 -0.0582818 -0.12467701 -0.077216946
0.11806019 -0.07737633 -0.0017169095 0.047435418 0.12825151 0.039586723 -0.07656608 -0.07614213
-0.037388332 -0.033579223 0.011422544 -0.13035686 -0.09226514 -0.12750246 -0.015625175 -0.11771973
0.0833988 0.080968834 0.113099515 -0.00328584 -0.08315605 -0.12422244 -0.06445004 0.16053486
0.17293508 -0.0071051344 0.08605521 -0.013882372 -0.12125153 0.12053465 0.001490313 0.035870474
0.048070744 0.03322526 -0.08842113 -0.07018977 -0.05182892 0.05149929 -0.031960424 0.031668335
-0.081186056 0.035464056 0.033062417 -0.03175723 -0.091711454 0.124696754 -0.028620949 -0.04391668
0.032500267 0.06417125 0.008599533 0.160873 -0.1792113 -0.027916605 -0.14873512 -0.15206923
0.12010623 0.0046963813 0.06798259 0.027285073 -0.1924501 0.11554788 -0.14320768 0.0048186546
-0.07609215 -0.073261686 -0.1694752 -0.15845285 -0.15846753 0.14558297 -0.12806122 -0.046847794
0.009802658 0.12913287 0.056909747 0.14957495 -0.15763353 0.06194024 0.03927102 -0.0717211
00000000: e780 823d 6caf 18be 5ca5 f9bd 995a 343d
00000010: 59c2 3ebe e059 b33d bd91 753c b860 1fbe
00000020: 1299 153d 76bf 703d 5a8a 12be 5c03 f4bd
00000030: d7d5 e0bc 9bea c8bd 98c5 ac3c c30d f63d
00000040: ead6 0dbe 0bb5 513d d7dd b4bd c3ab eabd
00000050: 59fd d5bd 7dd6 0b3e 017c 93bd 6d95 363d
00000060: 878f eabd 7c59 fabd 8a13 38be 53e6 f83c
00000070: 58e7 0abe a393 353d 47a9 6f3d 575c d93d
00000080: 8eda b53d 5101 71bb 9af5 fabd e89d ac3d
00000090: 9aad b93d 3071 fb3d d4b3 cd3d 67ae 153d
000000a0: c268 22be cb97 08be cc7a 2dbd 6e20 673d
000000b0: 1b93 39bc b105 223e f3cf 273e 03f8 46bd
000000c0: 6fd0 873d 6d58 bdbd cc28 39ba 5805 3f3d
000000d0: 1d72 a03d 5d4b f23d eb7c f23d 76be 523d
000000e0: 1e77 17bb cf3f b83d 8e05 5dbd d409 e9bd
000000f0: 0b68 a3bd 96fb e73d ff9c 27be 5239 06be
00000100: f0a2 b8bc 0bc7 26be a3e3 a7bd ffc6 b53d
00000110: 4861 31be badb e6bd ac72 b8bd a4c8 813d
00000120: 8ab3 35bd ab9d a13d 38a2 213e e7e1 ef3d
00000130: 1067 f53d 8b25 f93b 045d e43d ceb0 05be
00000140: 4267 2a3e d01d f5bd b820 87bb eac7 89bc
00000150: 847f 14bd f5dd 1b3e a937 0abe eba2 873d
00000160: f375 aebc 489e e73d 4d6d ef3d 1c5c 92bd
00000170: 17f9 193d db9d 25be 0555 bfbc f872 003e
00000180: d687 49be 6aaa a5bd f4d7 ecbd 6f02 b9bd
00000190: ec23 0fbe 8195 243d c688 20bc 99ab 8fbd
000001a0: 7f7c b13c 8193 debc 12f5 13bd 46c5 3abe
000001b0: 4f21 ec3d b2be 0bbe c235 e8bd 16b3 8e3d
000001c0: b08f 123e 05f3 fdbd ebae 08bb c8de 47bd
000001d0: aae4 e2bd 5ba6 1cbd 8e91 8c3d e3cc 38be
000001e0: 6d65 253e 19a5 103d 9c71 ffbd 10f0 ce3d
000001f0: be8a 4a3d 15ce a03c 42ae 9c3c 54ed eabd
00000200: 2c1b c83d 0f67 07bc 4b43 fa3d 2a89 8ebd
00000210: 4078 a03d 80da e1bd 2e04 e33d 76df 133e
00000220: 0ad8 f8bc f26a fc3d f8d5 eebd 38eb c03c
00000230: 9a04 8bbd 9d1f 5b3c 999e e4bd 56bf 0d3e
00000240: e18d 0a3e 307f 48bc 0e92 7a3d 2515 683d
00000250: 4dc5 063c aa04 92bd 9031 e13d 7959 0b3e
00000260: 144f c8bd e073 84bd 2031 443d 6ce4 bbbd
00000270: ee63 5bbc 9bbc ebbd 3fa3 d43d c703 1dbc
00000280: ae69 10be bf33 3b3d e728 133e c792 2d3c
00000290: 6469 f7bc 76bb cc3c e499 c03d da9d e8bd
000002a0: 892a 33be c410 11bd 0597 c0bd 5abe af3d
000002b0: 0f90 14bc e6b8 6ebd a956 ffbd eb23 9ebd
000002c0: 8ac9 f13d 7b77 9ebd ec09 e1ba a44b 423d
000002d0: 5d54 033e b025 223d adce 9cbd 68f0 9bbd
000002e0: 8224 19bd 5e8a 09bd 9f25 3b3c 457c 05be
000002f0: 81f5 bcbd 0190 02be 5e00 80bc 0b17 f1bd
00000300: fdcc aa3d fdd2 a53d b8a0 e73d 3f57 57bb
00000310: b84d aabd 5668 febd 62fe 83bd 4063 243e
00000320: e515 313e 30d2 e8bb b73d b03d e372 63bc
00000330: b952 f8bd dfda f63d 9b56 c33a ebec 123d
00000340: d4e5 443d 3617 083d 2316 b5bd a7bf 8fbd
00000350: 904a 54bd ebf0 523d efe8 02bd a8b6 013d
00000360: e044 a6bd c242 113d 756c 073d df13 02bd
00000370: 37d3 bbbd 0361 ff3d 7b76 eabc fae1 33bd
00000380: 001f 053d 376c 833d 0ee5 0c3c e4bb 243e
00000390: 2b83 37be 5db1 e4bc 054e 18be 09b8 1bbe
000003a0: 41fa f53d 1ae4 993b 753a 8b3d f284 df3c
000003b0: a411 45be 5ea4 ec3d 09a5 12be cee5 9d3b
000003c0: 33d6 9bbd 390a 96bd e88a 2dbe 7741 22be
000003d0: 5045 22be b413 153e 7b22 03be 79e3 3fbd
000003e0: 549b 203c 683b 043e 321a 693d 2d2a 193e
000003f0: af6a 21be 0db5 7d3d a6da 203d 83e2 92bd

model.7.bias f4 [10]
-0.1291388 0.062744714 -0.08880174 0.05980838 -0.00023246388 -0.11477362 -0.11556142 0.031281713
0.06390587 -0.032416925
00000000: f63c 04be 4d80 803d b0dd b5bd a2f9 743d
00000010: 8cc1 73b9 6f0e ebbd 77ab ecbd 4121 003d
00000020: 15e1 823d 9cc7 04bd

exp_avg f4 [64, 784]
-4.8383477e-05 -4.8383477e-05 -4.8383477e-05 -4.8383477e-05 -4.8383477e-05 -4.8383477e-05 -4.8383477e-05 -4.8383477e-05
-4.8383477e-05 -4.8383477e-05 -4.8383477e-05 -4.8383477e-05 -4.8386897e-05 -4.8390943e-05 -4.8383477e-05 -4.8383477e-05
-4.8383477e-05 -4.8383477e-05 -4.8383477e-05 -4.8383477e-05 -4.8383477e-05 -4.8383477e-05 -4.8383477e-05 -4.8383477e-05
-4.8383477e-05 -4.8383477e-05 -4.8383477e-05 -4.8383477e-05 -4.8383477e-05 -4.8383477e-05 -4.8383477e-05 -4.8383477e-05
-4.8383026e-05 -4.8382124e-05 -4.8382502e-05 -4.8365797e-05 -4.859889e-05 -4.86931e-05 -4.8987236e-05 -5.164283e-05
-5.8454596e-05 -5.59613e-05 -5.4179956e-05 -5.667341e-05 -5.268499e-05 -4.8439488e-05 -4.8614707e-05 -5.7349233e-05
-5.4729946e-05 -4.8488688e-05 -4.8391e-05 -4.838406e-05 -4.8383477e-05 -4.8383477e-05 -4.8383477e-05 -4.8383477e-05
-4.8383477e-05 -4.8383477e-05 -4.838352e-05 -4.848921e-05 -4.8394668e-05 -4.838269e-05 -4.8511127e-05 -6.076525e-05
-6.6719855e-05 -7.009826e-05 -8.207723e-05 -7.811329e-05 -0.000120526944 -0.00013708342 -0.00013483418 -0.00013884527
-9.816109e-05 -0.00012542782 -0.00014174137 -0.00010783342 -6.2378334e-05 -5.468578e-05 -5.5726607e-05 -4.8644015e-05
-4.8401347e-05 -4.838694e-05 -4.8383477e-05 -4.8383477e-05 -4.8383477e-05 -4.8383477e-05 -4.8383536e-05 -4.931036e-05
-4.9092432e-05 -4.7264828e-05 -4.9494713e-05 -8.5806554e-05 -7.066263e-05 -0.00012287255 -0.00013698943 -3.4243534e-05
2.831012e-05 6.161182e-05 0.00021982986 0.00024138387 0.00035043908 0.00016713853 9.849589e-05 8.4064064e-05
0.00012047524 5.8476857e-05 -1.6271882e-05 -3.7711947e-05 -3.991457e-05 -4.803509e-05 -4.8383477e-05 -4.8383477e-05
-4.8383477e-05 -4.8383477e-05 -4.8389764e-05 -3.8776303e-05 -1.8806739e-05 -2.205669e-05 -3.7618722e-06 6.917005e-05
9.1928756e-05 0.000116338255 0.00035813352 0.00044047448 0.0002749398 0.0005666767 0.00064338575 0.0007330099
0.00026282293 0.000186419 0.00024367854 9.779406e-05 3.3093154e-05 -0.00016336428 -8.570089e-05 4.4747278e-05
0.000102483405 -1.7516988e-05 -4.8320657e-05 -4.8383477e-05 -4.8383477e-05 -4.8383477e-05 -4.9481157e-05 -0.00010765669
-0.00013561427 -0.00012335306 1.4333864e-05 7.371614e-05 0.00011421162 0.00017617218 0.0003304113 0.00018154946
5.618235e-05 0.0006026269 0.0009947263 0.0009965568 0.0011689086 0.0006940017 0.0005493712 -8.283688e-05
8.069114e-05 -0.00019586919 -0.00019457564 4.657023e-05 0.00015649504 1.7185781e-05 -3.0610754e-05 -4.8365127e-05
-4.8383477e-05 -4.8344245e-05 -4.8409947e-05 -0.00010870651 -0.00014790107 -0.00030086897 -5.88843e-05 0.00018819272
0.00041395155 0.00016285726 -2.2315728e-05 -0.00044755833 -0.00052780035 -9.3673065e-05 0.00026343853 0.000302359
0.0005502722 0.00068077614 0.00077678147 0.00035032508 0.00020293662 -0.0003142432 -0.00014988462 -2.4407449e-05
0.00017597342 -7.9044385e-06 -2.972912e-05 -3.825408e-05 -4.8383477e-05 -4.800792e-05 -6.3876294e-05 -0.00020234856
-0.00024761632 -0.00017929415 7.128826e-05 0.00022223985 0.00024241737 -6.574625e-05 -0.00047261533 -0.0005841651
-0.00076999684 -0.00057624135 0.00010503966 9.602399e-05 0.0006057486 0.0007709158 0.0007617638 0.0007819871
0.00047312962 -3.823221e-05 -0.00012217456 -8.711852e-05 0.00010223713 -3.8076836e-05 -2.8955696e-05 -4.515934e-05
-4.8383477e-05 -4.934424e-05 -0.00010311812 -0.00020132474 -0.00037068033 -0.0003492518 -6.315917e-05 -5.3749023e-05
-0.00055418833 -0.0007224818 -0.00044285928 0.00021889263 -0.000120636956 -0.000428798 -7.927888e-05 0.0006750355
0.0009239647 0.0006066252 0.0012658406 0.0014059762 0.0011328087 0.0010591076 -2.2876506e-05 -4.5660167e-05
6.248835e-05 -6.0499606e-05 -0.00012209806 -0.00010705226 -4.838352e-05 -5.009682e-05 -3.4525117e-05 -7.813178e-05
00000000: 5def 4ab8 5def 4ab8 5def 4ab8 5def 4ab8
00000010: 5def 4ab8 5def 4ab8 5def 4ab8 5def 4ab8
00000020: 5def 4ab8 5def 4ab8 5def 4ab8 5def 4ab8
00000030: 09f3 4ab8 61f7 4ab8 5def 4ab8 5def 4ab8
00000040: 5def 4ab8 5def 4ab8 5def 4ab8 5def 4ab8
00000050: 5def 4ab8 5def 4ab8 5def 4ab8 5def 4ab8
00000060: 5def 4ab8 5def 4ab8 5def 4ab8 5def 4ab8
00000070: 5def 4ab8 5def 4ab8 5def 4ab8 5def 4ab8
00000080: e1ee 4ab8 e9ed 4ab8 51ee 4ab8 61dc 4ab8
00000090: a9d6 4bb8 d13b 4cb8 a577 4db8 119b 58b8
000000a0: 252d 75b8 fdb7 6ab8 493f 63b8 9cb4 6db8
000000b0: 14fa 5cb8 812b 4bb8 a5e7 4bb8 458a 70b8
000000c0: d58d 65b8 5560 4bb8 71f7 4ab8 fdef 4ab8
000000d0: 5def 4ab8 5def 4ab8 5def 4ab8 5def 4ab8
000000e0: 5def 4ab8 5def 4ab8 69ef 4ab8 e560 4bb8
000000f0: 61fb 4ab8 85ee 4ab8 6d78 4bb8 31de 7eb8
00000100: f3eb 8bb8 b701 93b8 e120 acb8 c1d0 a3b8
00000110: 69c3 fcb8 0dbe 0fb9 4662 0db9 fe96 11b9
00000120: d5db cdb8 4685 03b9 69a0 14b9 a024 e2b8
00000130: 1dd1 82b8 695e 65b8 fdbb 69b8 1d07 4cb8
00000140: 8d02 4bb8 15f3 4ab8 5def 4ab8 5def 4ab8
00000150: 5def 4ab8 5def 4ab8 6def 4ab8 99d2 4eb8
00000160: 99e8 4db8 393e 46b8 8b98 4fb8 0bf3 b3b8
00000170: b630 94b8 59d7 00b9 d2a4 0fb9 b7a0 0fb8
00000180: 857b ed37 9835 8138 2182 6639 fd1b 7d39
00000190: 23bb b739 e841 2f39 948f ce38 8d4b b038
000001a0: a7a7 fc38 0c45 7538 9a7f 88b7 e52c 1eb8
000001b0: f169 27b8 4979 49b8 5def 4ab8 5def 4ab8
000001c0: 5def 4ab8 5def 4ab8 1df6 4ab8 bda3 22b8
000001d0: 2ac3 9db7 6206 b9b7 7974 7cb6 630f 9138
000001e0: e0c9 c038 a0fa f338 dec3 bb39 7cef e639
000001f0: cc25 9039 088d 143a e3a8 283a 7627 403a
00000200: 7fcb 8939 7879 4339 f683 7f39 c916 cd38
00000210: 81cd 0a38 c44c 2bb9 51ba b3b8 06af 3b38
00000220: 5cec d638 72f1 92b7 e9ab 4ab8 5def 4ab8
00000230: 5def 4ab8 5def 4ab8 fd89 4fb8 bfc5 e1b8
00000240: ae33 0eb9 5658 01b9 7a7b 7037 0d98 9a38
00000250: e684 ef38 dcba 3839 0e3b ad39 505e 3e39
00000260: 57a5 6b38 9bf9 1d3a 7a61 823a e69e 823a
00000270: 1036 993a aaed 353a ad03 103a b6b8 adb8
00000280: ba38 a938 3c62 4db9 0007 4cb9 6754 4338
00000290: d118 2439 2f2a 9037 0c64 00b8 a9db 4ab8
000002a0: 5def 4ab8 3dc5 4ab8 c90b 4bb8 5df9 e3b8
000002b0: e415 1bb9 f3bd 9db9 89fa 76b8 9955 4539
000002c0: a307 d939 aac4 2a39 a932 bbb7 43a6 eab9
000002d0: 155c 0aba 5872 c4b8 1f1e 8a39 f085 9e39
000002e0: 2440 103a 1d76 323a eca0 4b3a d6ab b739
000002f0: 62cb 5439 02c1 a4b9 592a 1db9 99be ccb7
00000300: 8185 3839 4e9d 04b7 cd62 f9b7 0173 20b8
00000310: 5def 4ab8 1d5c 49b8 53f5 85b8 872d 54b9
00000320: 80d2 81b9 e800 3cb9 9880 9538 0e09 6939
00000330: 6b31 7e39 40e1 89b8 5bc9 f7b9 a822 19ba
00000340: 9dd9 49ba e70e 17ba bd48 dc38 7d60 c938
00000350: 1acb 1e3a 4917 4a3a 1ab1 473a 44fe 4c3a
00000360: 620e f839 865b 20b8 fc1b 00b9 66b3 b6b8
00000370: 2468 d638 b1b4 1fb8 e2e5 f2b7 7969 3db8
00000380: 5def 4ab8 f9f6 4eb8 1e41 d8b8 b31a 53b9
00000390: df57 c2b9 c81b b7b9 5274 84b8 9370 61b8
000003a0: f346 11ba ef64 3dba 912f e8b9 8b86 6539
000003b0: 79fe fcb8 4bd0 e0b9 8642 a6b8 def4 303a
000003c0: 3936 723a ee05 1f3a 90ea a53a bc48 b83a
000003d0: c17a 943a c1d1 8a3a ece6 bfb7 3b83 3fb8
000003e0: 2d0c 8338 f5c0 7db8 7307 00b9 3f81 e0b8
000003f0: 69ef 4ab8 0d1f 52b8 10cf 10b8 aeda a3b8

exp_avg_sq f4 [64, 784]
4.0766668e-07 4.0766668e-07 4.0766668e-07 4.0766668e-07 4.0766668e-07 4.0766668e-07 4.0766668e-07 4.0766668e-07
4.0766668e-07 4.0766668e-07 4.0766668e-07 4.0766668e-07 4.0894588e-07 4.1076447e-07 4.076645e-07 4.0766557e-07
4.0766668e-07 4.0766668e-07 4.0766668e-07 4.0766668e-07 4.0766668e-07 4.0766668e-07 4.0766668e-07 4.0766668e-07
4.0766668e-07 4.0766668e-07 4.0766668e-07 4.0766668e-07 4.0766668e-07 4.0766668e-07 4.0766668e-07 4.0766668e-07
4.076652e-07 4.076603e-07 4.0835263e-07 4.1165686e-07 4.1370663e-07 4.091914e-07 4.1144642e-07 4.0948436e-07
4.1147607e-07 4.094972e-07 4.1159066e-07 4.114575e-07 4.117507e-07 4.0605366e-07 4.048463e-07 4.0635774e-07
4.0679686e-07 4.095254e-07 4.108628e-07 4.0768091e-07 4.0766668e-07 4.0766668e-07 4.0766668e-07 4.0766668e-07
4.0766668e-07 4.0766668e-07 4.076706e-07 4.0785113e-07 4.0830415e-07 4.0759036e-07 4.097698e-07 4.1275806e-07
4.1619955e-07 4.0920253e-07 4.1207005e-07 4.0169442e-07 3.9851292e-07 3.7859792e-07 3.8424741e-07 3.9876275e-07
4.1769155e-07 3.9341737e-07 3.7953592e-07 4.0017454e-07 4.0376733e-07 4.0093778e-07 4.0555747e-07 4.0752454e-07
4.111843e-07 4.0990207e-07 4.0766668e-07 4.0766668e-07 4.0766668e-07 4.0766668e-07 4.0766793e-07 4.0817397e-07
4.0550148e-07 4.1192624e-07 4.1584954e-07 4.2319334e-07 4.3107357e-07 4.3365688e-07 4.9116574e-07 5.215269e-07
5.578336e-07 6.498791e-07 7.944338e-07 8.7830813e-07 8.5992866e-07 7.644247e-07 6.769146e-07 5.666485e-07
4.917907e-07 4.2890156e-07 4.2163586e-07 4.3671747e-07 4.2450563e-07 4.088434e-07 4.0933367e-07 4.0766668e-07
4.0766668e-07 4.0765852e-07 4.0772468e-07 4.0636e-07 4.0666555e-07 4.0481314e-07 4.2027085e-07 4.7805065e-07
5.065891e-07 6.306747e-07 8.528313e-07 9.830735e-07 1.1737359e-06 1.5369635e-06 2.0246835e-06 2.3493542e-06
2.275442e-06 1.7515241e-06 1.4762029e-06 1.0191077e-06 7.7269306e-07 6.6052684e-07 5.9654434e-07 5.9329136e-07
4.9840133e-07 4.1678493e-07 4.0755793e-07 4.073888e-07 4.0766668e-07 4.0766668e-07 4.07646e-07 4.0876282e-07
4.1946114e-07 4.642807e-07 5.5109433e-07 7.284973e-07 9.2328344e-07 1.4525367e-06 2.013043e-06 2.4575766e-06
2.7492345e-06 3.1931745e-06 3.8062074e-06 4.0391915e-06 3.8332314e-06 3.2424496e-06 2.6189168e-06 2.2362942e-06
1.8492757e-06 1.714e-06 1.2711421e-06 9.586852e-07 6.339846e-07 4.512643e-07 4.144241e-07 4.0783584e-07
4.0766668e-07 4.076172e-07 4.1483102e-07 4.309238e-07 4.7422333e-07 6.1727565e-07 8.4608104e-07 1.1135044e-06
1.7803633e-06 2.888679e-06 3.3993324e-06 4.018145e-06 4.6583655e-06 5.3998274e-06 6.2640256e-06 6.4764454e-06
5.810025e-06 5.167325e-06 4.549866e-06 4.021267e-06 3.222728e-06 2.677625e-06 2.2011927e-06 1.5605142e-06
8.4046445e-07 4.9179977e-07 4.1884044e-07 4.0807737e-07 4.0766668e-07 4.0653373e-07 4.1146106e-07 4.372707e-07
5.04897e-07 6.304778e-07 9.947805e-07 1.4771812e-06 2.3885207e-06 3.3668766e-06 4.248298e-06 5.7912384e-06
7.355624e-06 8.698284e-06 1.03075245e-05 1.005102e-05 8.241346e-06 6.7322217e-06 5.8189175e-06 4.4104854e-06
3.2421206e-06 2.49547e-06 2.2298568e-06 1.7552788e-06 9.796648e-07 5.7337394e-07 4.2638294e-07 4.087591e-07
4.0792483e-07 4.0686393e-07 4.101294e-07 4.2236275e-07 5.028316e-07 7.0710166e-07 1.2029705e-06 1.7271915e-06
2.7181095e-06 3.7320394e-06 5.7318857e-06 7.975412e-06 9.468964e-06 1.1037388e-05 1.2156793e-05 1.0767166e-05
8.89425e-06 7.003527e-06 6.1727346e-06 4.9351197e-06 3.4802501e-06 2.4985525e-06 1.9990032e-06 1.4405738e-06
9.965402e-07 6.0160744e-07 4.2965647e-07 4.087964e-07 4.0721162e-07 4.0603055e-07 4.0322513e-07 4.2483273e-07
00000000: 48dd da34 48dd da34 48dd da34 48dd da34
00000010: 48dd da34 48dd da34 48dd da34 48dd da34
00000020: 48dd da34 48dd da34 48dd da34 48dd da34
00000030: 188d db34 0a87 dc34 fbdc da34 21dd da34
00000040: 48dd da34 48dd da34 48dd da34 48dd da34
00000050: 48dd da34 48dd da34 48dd da34 48dd da34
00000060: 48dd da34 48dd da34 48dd da34 48dd da34
00000070: 48dd da34 48dd da34 48dd da34 48dd da34
00000080: 14dd da34 68dc da34 8f3b db34 b001 dd34
00000090: 681b de34 d6ae db34 c4e4 dc34 1ad7 db34
000000a0: d7e8 dc34 ded8 db34 97f8 dc34 4ae6 dc34
000000b0: 960e dd34 97ff d934 a759 d934 6229 da34
000000c0: bc65 da34 bedc db34 8e94 dc34 3ddf da34
000000d0: 48dd da34 48dd da34 48dd da34 48dd da34
000000e0: 48dd da34 48dd da34 d2dd da34 a2f6 da34
000000f0: e534 db34 cbd2 da34 55fe db34 0999 dd34
00000100: 0872 df34 5eb0 db34 7a3a dd34 76a8 d734
00000110: 33f3 d534 1a42 cb34 904a ce34 8915 d634
00000120: 173f e034 df36 d334 05c3 cb34 92d7 d634
00000130: 5cc5 d834 7840 d734 65bb d934 bfc9 da34
00000140: bdc0 dc34 8310 dc34 48dd da34 48dd da34
00000150: 48dd da34 48dd da34 74dd da34 0123 db34
00000160: b3b3 d934 b626 dd34 ed41 df34 4033 e334
00000170: 4d6e e734 59d1 e834 a7d8 0335 0eff 0b35
00000180: 08be 1535 5a73 2e35 1341 5535 e0c4 6b35
00000190: d9d5 6635 de32 4d35 38b5 3535 ca1b 1835
000001a0: 9903 0435 c843 e634 315d e234 fe75 ea34
000001b0: 9ce7 e334 027f db34 64c2 db34 48dd da34
000001c0: 48dd da34 29dc da34 41e5 da34 b129 da34
000001d0: b053 da34 1855 d934 96a1 e134 6453 0035
000001e0: 8afc 0735 a34b 2935 1fee 6435 26f2 8335
000001f0: 4289 9d35 aa49 ce35 ccdf 0736 99a9 1d36
00000200: ccb3 1836 e915 eb35 f221 c635 46c8 8835
00000210: 106b 4f35 0f4f 3135 3722 2035 ac42 1f35
00000220: e1c9 0535 7cc2 df34 56ce da34 17b7 da34
00000230: 48dd da34 48dd da34 71da da34 ef73 db34
00000240: 4d32 e134 4142 f934 eaee 1335 f48d 4335
00000250: 8ed7 7735 c8f4 c235 d117 0736 d8ec 2436
00000260: 7d7f 3836 524a 5636 256e 7f36 6488 8736
00000270: 359f 8036 dc98 5936 a6c0 2f36 3e13 1636
00000280: a134 f835 970c e635 1c9c aa35 2cac 8035
00000290: 172f 2a35 4b45 f234 047e de34 88f4 da34
000002a0: 48dd da34 7bd6 da34 f1b5 de34 b759 e734
000002b0: c298 fe34 dcb2 2535 3f1e 6335 b873 9535
000002c0: d1f4 ee35 21db 4136 1620 6436 9ad3 8636
000002d0: 0e4f 9c36 2a30 b536 922f d236 3e50 d936
000002e0: bcf3 c236 fc62 ad36 0dab 9836 6cee 8636
000002f0: 0c46 5836 3fb1 3336 34b8 1336 dc72 d135
00000300: 479c 6135 3904 0435 fedc e034 ba15 db34
00000310: 48dd da34 9241 da34 c7e6 dc34 07c2 ea34
00000320: 4288 0735 1b3e 2935 6684 8535 8f43 c635
00000330: 794a 2036 80f2 6136 9a8c 8e36 5c52 c236
00000340: 54d0 f636 d8ee 1137 7bee 2c37 cda0 2837
00000350: 5044 0a37 58e5 e136 1f40 c336 c8fd 9336
00000360: 3593 5936 d977 2736 a6a4 1536 ec96 eb35
00000370: 077d 8335 f5e9 1935 a0e9 e434 6c73 db34
00000380: c300 db34 f46e da34 c12f dc34 18c1 e234
00000390: 53fa 0635 a8cf 3d35 c075 a135 d9d1 e735
000003a0: c468 3636 f373 7a36 8654 c036 22ce 0537
000003b0: e4dc 1e37 382d 3937 07f5 4b37 a0a4 3437
000003c0: 8338 1537 d7ff ea36 631f cf36 5b98 a536
000003d0: 3e8e 6936 ceac 2736 9d26 0636 bd59 c135
000003e0: dcc0 8535 267e 2135 89ab e634 8d78 db34
000003f0: bd9e da34 6afc d934 d77a d834 9114 e434

exp_avg f4 [64]
0.00011405481 0.00022322727 -0.00051558705 0.00012161264 0.00018266722 -0.0002890506 0.0007157791 0.0011382821
-7.768574e-05 -7.053261e-05 0.0006308373 0.00015773656 -0.00013514905 0.00011478774 0.0001235621 0.00040226913
0.00024083721 -0.00050075306 -0.0003900026 -0.00017520675 -8.120308e-08 -5.465501e-05 -0.00018572509 0.000181382
0.00018968535 0.00015821098 -0.0004932195 0.00033736503 0.0007129686 -1.4705022e-05 0.00026915112 -0.00045941415
0.0003360674 0.0001228351 -0.00015821197 -0.00021534476 -0.00019465383 -0.00018161851 0.00020780567 -0.0008583929
0.00016229188 0.0009160522 -0.0002729799 -0.00045397007 8.7825014e-05 -4.8219365e-05 0.0006169202 -0.00037908796
-0.00022393993 0.00022117952 -0.0008142469 0.00014655778 -0.001263535 0.0007044065 9.6936084e-05 -0.00017634935
-0.0006457565 -0.0002339616 0.00088654604 0.00077314273 5.4306573e-05 -0.000102941085 -0.00044770795 0.00019258246
00000000: b630 ef38 1d12 6a39 7628 07ba 4a0a ff38
00000010: 5c8a 3f39 b78b 97b9 1fa3 3b3a 6932 953a
00000020: 37eb a2b8 e8ea 93b8 c65e 253a 1666 2539
00000030: ccb6 0db9 33ba f038 7390 0139 a6e7 d239
00000040: 3f89 7c39 f844 03ba 4379 ccb9 b4b7 37b9
00000050: de61 aeb3 5f3d 65b8 33bf 42b9 5c31 3e39
00000060: 46e6 4639 70e5 2539 664b 01ba 5ee0 b039
00000070: 83e6 3a3a 97b5 76b7 da1c 8d39 86dd f0b9
00000080: 3432 b039 4ccd 0039 b4e5 25b9 2bce 61b9
00000090: fd1b 4cb9 d970 3eb9 69e6 5939 c605 61ba
000000a0: e52c 2a39 3923 703a be1e 8fb9 d502 eeb9
000000b0: b22e b838 263f 4ab8 d0b8 213a 53c0 c6b9
000000c0: 6bd1 6ab9 6dec 6739 2f73 55ba 4ead 1939
000000d0: 339d a5ba eca7 383a 2a4a cb38 6bea 38b9
000000e0: fc47 29ba 9753 75b9 1967 683a bbac 4a3a
000000f0: 3dc7 6338 13e2 d7b8 58ba eab9 f6ef 4939

exp_avg_sq f4 [64]
2.2653614e-06 1.4062099e-06 2.2213535e-06 3.2630398e-06 3.633276e-06 2.17945e-06 2.6036873e-06 2.195892e-06
2.0503862e-06 3.277077e-06 2.2099273e-06 2.0665886e-06 1.4711646e-06 2.3392163e-06 2.3498071e-06 1.7221271e-06
2.0494178e-06 1.955896e-06 2.3340494e-06 2.1013316e-06 1.6436333e-09 1.7333316e-06 3.0369388e-06 2.7566841e-06
1.1453335e-06 2.1996746e-06 2.1867882e-06 3.0967697e-06 2.278671e-06 1.1703725e-06 2.1188716e-06 2.9884263e-06
2.063683e-06 2.4736048e-06 2.3763214e-06 3.0185088e-06 2.8422576e-06 1.8695214e-06 1.6202708e-06 3.5747494e-06
1.7899132e-06 2.3346304e-06 1.4776505e-06 2.338062e-06 2.4578617e-06 2.2456484e-06 2.7403053e-06 2.3422067e-06
2.383533e-06 2.5078918e-06 1.6222931e-06 3.5412222e-06 3.451264e-06 2.1135627e-06 2.2719294e-06 2.3523953e-06
2.7608448e-06 2.051759e-06 2.6633459e-06 3.2177406e-06 3.9994884e-06 2.4010183e-06 3.5372825e-06 1.8425303e-06
00000000: 9d06 1836 01bd bc35 9012 1536 99fa 5a36
00000010: 35d3 7336 aa42 1236 02bb 2e36 235d 1336
00000020: 5e99 0936 c1eb 5b36 434e 1436 b9af 0a36
00000030: d574 c535 6efb 1c36 61b1 1d36 d623 e735
00000040: bb88 0936 0a42 0336 aaa2 1c36 9a04 0d36
00000050: 35e6 e130 d2a4 e835 36ce 4b36 79ff 3836
00000060: 5cb9 9935 1f9e 1336 bcc0 1236 19d2 4f36
00000070: 45eb 1836 b115 9d35 f031 0e36 c68c 4836
00000080: ce7d 0a36 3500 2636 e478 1f36 9691 4a36
00000090: 9dbd 3e36 44ec fa35 1578 d935 bae5 6f36
000000a0: f33c f035 a5ac 1c36 af53 c635 99e7 1c36
000000b0: bef1 2436 f2b3 1636 16e6 3736 ce2e 1d36
000000c0: c9f4 1f36 414d 2836 91bd d935 bca5 6d36
000000d0: 449c 6736 bbd6 0d36 7377 1836 d8dd 1d36
000000e0: f446 3936 f4b0 0936 efbb 3236 5df0 5736
000000f0: 5833 8636 2e21 2136 0d62 6d36 dc4c f735

exp_avg f4 [64, 64]
-0.0022801743 -0.0005470838 -0.0020743385 -0.002961528 -0.0017454129 -0.003935361 -0.00041948282 -0.0017667579
-0.003044388 -0.0015444696 -0.0018518927 -0.0036771384 0.00012694193 -0.0029643187 -0.00086986535 -0.0010675575
-0.0007208012 -0.001134389 -0.0023317432 -0.0020124735 5.938485e-10 -0.00027020066 -0.00063755375 -0.0011333255
-0.00010521662 0.00024777773 -0.002456773 -0.0006268479 -0.0017559626 -0.0019504123 -0.0016870521 -0.0029049704
-0.00027868614 -0.0053950567 -0.0008954087 -0.00068272033 -0.0009999736 -0.0010079803 -0.0017301409 -0.0023426113
-0.0002033538 -0.00080009334 -0.002574607 -0.0014916012 -0.00048816018 -0.0032417038 -0.0006453588 -0.0013550719
-0.0012022117 -0.001180504 -0.00061210844 0.0007451377 -0.0016646299 -0.0016015691 -0.000287279 -0.0020973445
-0.0014093464 -0.0023982117 0.0004988525 0.00023910723 0.0008623687 -0.00051683007 -0.0005350442 -0.0006951274
0.00069308036 -0.0014251304 0.00060262525 0.0022229848 0.0020177292 0.0026312126 0.00025750976 4.9235732e-05
0.0020171304 0.0009995528 9.6954514e-05 0.0023503536 -0.00024041228 0.0028095236 -8.3319785e-05 -0.00024376444
0.0016195485 0.0002883594 0.0008391441 0.00061168516 -1.0987491e-08 0.00025848384 -0.0012028551 0.00012734476
0.0006259203 -0.0015099664 0.00146431 0.00100717 0.0009415669 0.00027578074 0.0013347616 1.4301613e-05
-0.0009684751 0.00043177707 0.0018543421 0.00042149314 0.0006132754 -0.0005641875 -0.00023657932 -0.00018616393
-0.0009001317 -0.00038645646 0.0011600003 0.0013251601 -7.168696e-05 0.0014404577 0.0011285316 0.00055239483
0.0014096113 0.0009369844 0.0027610806 5.1822542e-05 0.001929033 0.0012272763 0.00067806896 0.0003528467
-0.00024763207 0.0016742835 -0.0014782479 1.6581442e-05 -7.942729e-06 5.0671875e-05 -0.0009606832 0.001147717
-0.0009195092 9.8502554e-05 -0.0013639203 -0.0010880859 -0.00029821368 -0.0021142391 0.0016442861 0.00011775886
-0.0015596063 -7.995446e-05 -0.0009273675 -0.0022697235 0.00015772566 -0.001976123 0.00084121217 0.0010792749
0.00069442147 -0.0007030922 -0.0027837544 -0.00092612515 -5.880356e-10 -0.0012330324 -0.00014177013 -0.0010002053
0.00039146226 0.0012945822 -0.0015730653 6.72178e-05 -0.0011037166 -0.00043642204 0.00040855337 -0.0013831361
0.0007478185 -0.0035418293 0.000635636 0.0009915908 0.0009483017 -0.0009916141 -0.0011677615 -0.001991792
-0.0002812182 -0.0001306944 -0.0022087202 0.0001548084 0.0008645138 -0.0014602846 -0.00015756348 -0.0003700372
-0.00045637452 -0.0009331462 -0.0011358465 0.0015099145 -0.0011435322 -0.0011035724 -0.0011776322 -0.00026828184
-6.2297724e-05 -0.0011815522 0.0009632391 0.0016618178 0.0013148523 0.00046225745 -0.00016311242 1.0814668e-05
5.9842178e-06 1.5007659e-07 -9.417028e-07 1.2179286e-05 -1.4201622e-06 1.1209547e-05 1.6855907e-05 3.5874677e-05
1.7446162e-05 3.4837725e-05 3.532482e-05 2.1107959e-05 5.8496207e-06 -2.1370709e-06 2.4114843e-05 5.102232e-05
5.985549e-06 4.8448794e-05 1.158995e-06 6.2592753e-06 -6.2872334e-09 3.1419866e-05 1.7320013e-05 -7.165162e-07
9.541391e-06 5.3435433e-05 1.5263087e-05 -9.764073e-07 1.8702902e-06 3.96207e-05 9.910094e-06 3.6769314e-05
4.123818e-05 5.1738687e-05 -9.093708e-07 3.7465707e-06 1.8742478e-05 -1.5786522e-06 4.573242e-05 5.680556e-06
2.2635236e-06 2.8861796e-05 4.503237e-06 2.9434483e-05 2.9090354e-05 1.431356e-06 -1.949326e-07 2.2575956e-05
-9.612136e-07 1.2160679e-05 -1.4815136e-07 -4.276096e-07 3.6045596e-05 -1.2060852e-06 6.252832e-07 4.4811837e-05
5.672883e-06 5.1984e-06 3.438563e-05 6.367784e-06 -2.7940888e-07 8.939299e-09 2.0022566e-05 1.5865413e-06
00000000: fa6e 15bb 2c6a 0fba a0f1 07bb 3216 42bb
00000010: 57c6 e4ba 33f4 80bb 08ee dbb9 8f92 e7ba
00000020: 5b84 47bb cd6f caba 35bb f2ba 25fc 70bb
00000030: b71b 0539 0445 42bb ad07 64ba 49ed 8bba
00000040: 26f4 3cba c7af 94ba 29d0 18bb b4e3 03bb
00000050: 603c 2330 b8a9 8db9 8221 27ba 188c 94ba
00000060: bea7 dcb8 2ae8 8139 d001 21bb 0d53 24ba
00000070: 5428 e6ba faa4 ffba 1320 ddba 5161 3ebb
00000080: 9f1c 92b9 04c9 b0bb dcb9 6aba 96f8 32ba
00000090: 8c11 83ba 351e 84ba e5c5 e2ba 7f86 19bb
000000a0: 5f3b 55b9 5bbd 51ba bdba 28bb d581 c3ba
000000b0: c0ef ffb9 c472 54bb 4c2d 29ba ab9c b1ba
000000c0: 8893 9dba 24bb 9aba e775 20ba 5855 433a
000000d0: b62f daba beeb d1ba ef9d 96b9 9a73 09bb
000000e0: d1b9 b8ba 512b 1dbb 6dc5 023a dcb8 7a39
000000f0: 9510 623a e17b 07ba 3542 0cba 3639 36ba
00000100: d6af 353a 71cb baba 7ff9 1d3a 7faf 113b
00000110: e13b 043b 6c70 2c3b 6002 8739 7782 4e38
00000120: d531 043b 6d03 833a 0f54 cb38 6408 1a3b
00000130: 2e17 7cb9 fc1f 383b f8bb aeb8 059b 7fb9
00000140: 0847 d43a f22e 9739 02fa 5b3a 7f59 203a
00000150: 7fc3 3cb2 1d85 8739 1fa9 9dba d987 0539
00000160: cd14 243a 11ea c5ba 17ee bf3a 0403 843a
00000170: 7cd3 763a aa96 9039 2bf3 ae3a f6f0 6f37
00000180: 44e1 7dba 2360 e239 650d f33a dafb dc39
00000190: 37c4 203a fbe5 13ba 4712 78b9 0035 43b9
000001a0: d1f6 6bba 4f9d cab9 270b 983a ffb0 ad3a
000001b0: a556 96b8 bdcd bc3a 3deb 933a 97ce 103a
000001c0: b5c2 b83a f59f 753a 3ff3 343b 085c 5938
000001d0: 9bd7 fc3a 8fdc a03a 70c0 313a 48fe b839
000001e0: 9dd4 81b9 a273 db3a c5c1 c1ba 6018 8b37
000001f0: c341 05b7 8388 5438 5cd6 7bba fe6e 963a
00000200: 380b 71ba 2893 ce38 92c5 b2ba 1b9e 8eba
00000210: 9059 9cb9 0c8f 0abb 1685 d73a 4ef5 f638
00000220: b46b ccba 39ad a7b8 941a 73ba a4bf 14bb
00000230: 2963 2539 d881 01bb cb84 5c3a 7576 8d3a
00000240: d609 363a b84f 38ba a66f 36bb 35c7 72ba
00000250: 54a3 21b0 b49d a1ba 21a8 14b9 5219 83ba
00000260: 2d3d cd39 f8ae a93a 502f ceba 48f7 8c38
00000270: 95aa 90ba 93cf e4b9 1b33 d639 594a b5ba
00000280: 4009 443a 091e 68bb cfa0 263a 44f8 813a
00000290: 7397 783a 0cf9 81ba 930f 99ba ba88 02bb
000002a0: 7870 93b9 030b 09b9 2dc0 10bb 1054 2239
000002b0: 8aa0 623a 0567 bfba a037 25b9 8d01 c2b9
000002c0: 8d45 efb9 629e 74ba afe0 94ba 53e8 c53a
000002d0: 93e2 95ba bfa5 90ba c85a 9aba 2ea8 8cb9
000002e0: d6a5 82b8 50de 9aba e281 7c3a 5ad1 d93a
000002f0: 1f57 ac3a 255b f239 2809 2bb9 a570 3537
00000300: 0acc c836 bd24 2134 53c9 7cb5 a355 4c37
00000310: 679c beb5 a310 3c37 c965 8d37 2478 1638
00000320: 5959 9237 b91e 1238 bd29 1438 ff10 b137
00000330: dc47 c436 996a 0fb6 3b4a ca37 cd00 5638
00000340: 79d7 c836 7f35 4b38 c48e 9b35 c406 d236
00000350: 1707 d8b1 d3c8 0338 724a 9137 9e56 40b5
00000360: f613 2037 dc1f 6038 3b09 8037 190d 83b5
00000370: af06 fb35 672e 2638 8843 2637 c038 1a38
00000380: 29f7 2c38 fe01 5938 7c1b 74b5 986d 7b36
00000390: 2a39 9d37 14e2 d3b5 d0d0 3f38 9b9b be36
000003a0: 0ae7 1736 3c1c f237 831a 9736 12ea f637
000003b0: 0f07 f437 051d c035 aa4e 51b4 7f61 bd37
000003c0: 0c03 81b5 b805 4c37 8913 1fb4 3792 e5b4
000003d0: aa2f 1738 c6e0 a1b5 22d9 2735 58f4 3b38
000003e0: b259 be36 ea6d ae36 4a39 1038 d9aa d536
000003f0: aa01 96b4 7493 1932 22f6 a737 25f1 d435
