lightning_logs/version_2/checkpoints/epoch=2-step=2580.ckpt (torch, 668524 bytes, 18 tensors)

model.1.weight f4 [64, 784]
0	0x3c0bbe83	0.008529308
1	0xbcc870db	-0.024467876
2	0xbc92d6ff	-0.017924784
3	0x3c362b97	0.011118791
4	0xbd16382b	-0.03667466
5	0xbd08a1db	-0.033357482
6	0x3cedd777	0.029033406
7	0xbb604667	-0.003422165
8	0xbc9b3465	-0.018945882
9	0xbcd5b609	-0.026087778
10	0xbd274d59	-0.04084525
11	0x3c126251	0.008934573
12	0xbc37e70c	-0.011224519
13	0x3c73ff05	0.014892344
14	0xbd23966a	-0.039938368
15	0x3caa861a	0.020815898
16	0xbd0706a0	-0.032965302
17	0x3c0b0e9f	0.008487373
18	0xbc82a64d	-0.015948439
19	0xbb99d341	-0.004694373
20	0xbc9cb315	-0.019128362
21	0x3c671c61	0.014105887
22	0x3cd863af	0.02641472
23	0xbd2b2351	-0.041781727
24	0x3c213ee3	0.0098416535
25	0xbc35ac73	-0.011088478
26	0x3a610814	0.00085842726
27	0xbc505409	-0.012715348
28	0xbbc4993e	-0.005999713
29	0xbbb6e996	-0.005582045
30	0x3c8438b2	0.016140316
31	0xbcf131b7	-0.029442651
32	0xbc553721	-0.013013632
33	0xbc57db61	-0.013174863
34	0xb9efe4e3	-0.00045756166
35	0x3c16e1b7	0.009209088
36	0xbccb5873	-0.02482245
37	0x3c95ca8d	0.01828506
38	0xbcb9a310	-0.022660762
39	0xbc69f470	-0.01427947
40	0x3cdbfc49	0.026853697
41	0x3cb9d5e3	0.022684997
42	0xbcbdc82e	-0.023166742
43	0xbca0524f	-0.019570498
44	0x3b4597ec	0.0030150367
45	0xbca2dd43	-0.019880896
46	0x3b8bacc5	0.004262539
47	0x3c8b23f0	0.01698491
48	0xbc1847d2	-0.009294467
49	0xbb7cbf11	-0.0038566033
50	0xbc070db6	-0.008243015
51	0x3b435e7a	0.002981095
52	0xbb7078bd	-0.003669306
53	0xbcd8bb5f	-0.026456533
54	0xb9fd76d0	-0.00048344443
55	0xbbd1b4d2	-0.0063997293
56	0xbca1c031	-0.019744964
57	0xba9e98eb	-0.0012100016
58	0xbca7fc7e	-0.02050614
59	0xbce5cd41	-0.028051974
60	0xbb508aff	-0.003182113
61	0x3c8a4dcb	0.016882798
62	0xbc5f537a	-0.013630742
63	0x3c42c0e5	0.01188681
64	0xbcabf5d0	-0.020991236
65	0xbd39b10e	-0.045334868
66	0xbd1044d1	-0.03522188
67	0xbcf0d6ec	-0.029399358
68	0xbc88edc5	-0.01671494
69	0xbcb67173	-0.022270894
70	0xbc802ebd	-0.015647287
71	0x3c60c27d	0.013718245
72	0x3add9ec7	0.0016908281
73	0xbc91097a	-0.017704714
74	0xbd10cead	-0.03535335
75	0xbd08fc09	-0.033443484
76	0xbc82a6fc	-0.015948765
77	0xbd3912b6	-0.04518386
78	0xb6854c81	-3.972615e-06
79	0xbd20829c	-0.03918706
80	0x3cdd8cd5	0.027044693
81	0xbc54daeb	-0.012991647
82	0xbc4a694f	-0.012354209
83	0x3c9677c1	0.01836765
84	0xbc7097d1	-0.014684633
85	0xbca3cd73	-0.019995427
86	0xbce16d41	-0.027517917
87	0x3cc840f7	0.02444504
88	0x3ce3629c	0.027756982
89	0xbd2d6a24	-0.04233755
90	0x3c482570	0.012215957
91	0x3c4026b3	0.011727977
92	0xbb26d329	-0.002545545
93	0xbc69971a	-0.014257217
94	0xbba0dd00	-0.0049091578
95	0x3d13397a	0.035943486
96	0x3d2a5768	0.041587263
97	0xba9e7ba0	-0.0012091286
98	0x3c63d28a	0.013905177
99	0xbd09a0fb	-0.03360079
100	0xbadb5011	-0.0016732236
101	0x3c9b595e	0.018963512
102	0xbce8bf24	-0.028411455
103	0xbcaac949	-0.020847933
104	0xbd3a605f	-0.045502063
105	0x3ba92088	0.0051613487
106	0xbd473ea9	-0.04864374
107	0xbc196fd5	-0.009365042
108	0xb91d92e4	-0.00015027408
109	0x3ae2bf7c	0.0017299498
110	0x3c97d6bd	0.018535012
111	0x3c69d2cd	0.01427145
112	0xbd05d2e2	-0.032671817
113	0xbcdf372f	-0.027247993
114	0x3cba5ccf	0.022749333
115	0xbbc0fa2c	-0.005889198
116	0xbc0f3b27	-0.00874213
117	0x3c80e8f6	0.015736084
118	0x3be5efdc	0.007017119
119	0x3b397612	0.0028299135
120	0x3cd6fbed	0.026243174
121	0xbcb0fe69	-0.021605687
122	0x3d3632b0	0.044481933
123	0x3d215357	0.03938612
124	0xbb71274f	-0.0036797111
125	0x3d31c967	0.043404963
126	0x3cd7a5f7	0.026324255
127	0x3d149ca2	0.03628219
128	0x3c87e209	0.016587274
129	0x3cd50683	0.026004082
130	0x3c54b141	0.012981714
131	0xbcfc1812	-0.030773196
132	0x3bc60754	0.006043354
133	0x3bdd019e	0.0067445775
134	0xbc7606d6	-0.015016278
135	0xbcfafbd2	-0.030637655
136	0xbc9285e8	-0.017886117
137	0xbb9d0621	-0.0047919904
138	0xbc98cc32	-0.018652055
139	0xbc0f1889	-0.008733877
140	0xbc5b0605	-0.013368134
141	0xbd05faa2	-0.032709725
142	0xbb89d5ec	-0.0042064097
143	0xbc5e2e9d	-0.013560918
144	0xbbb62e05	-0.005559685
145	0xbd2ea310	-0.042635977
146	0xbb5032a6	-0.003176847
147	0x3cc9b52f	0.024622528
148	0xba347208	-0.0006883447
149	0x3bc78523	0.006088869
150	0xbbe6843c	-0.0070348065
151	0x3b13f9a7	0.0022579224
152	0x3d0ecb5b	0.034861904
153	0x3d8e8b22	0.06960131
154	0x3d4a93f6	0.049457513
155	0x3cf5c6b3	0.030001974
156	0x3cefe5aa	0.029284317
157	0x3d87d42d	0.06632266
158	0x3cbef601	0.023310663
159	0x3cee8684	0.029116876
160	0xbd073f4d	-0.033019353
161	0xbc0b9c73	-0.008521187
162	0xb9ae4c18	-0.0003324456
163	0xbd54b7d7	-0.051933136
164	0xbd792a2f	-0.060831245
165	0x3cac3806	0.021022808
166	0xbca17f70	-0.019714087
167	0xbb81e5c9	-0.00396416
168	0xbcad2081	-0.021133663
169	0xbcc8fd73	-0.024534917
170	0x3c83a6cb	0.016070744
171	0x3ca7f2b2	0.020501468
172	0xbc58cec4	-0.0132328905
173	0xbce15026	-0.027504038
174	0xbd4a2726	-0.04935374
175	0x3b672d22	0.0035274704
176	0xbc701a33	-0.014654684
177	0xbd00d83e	-0.031456225
178	0xbcbbbfdc	-0.022918634
179	0x3cc7ac75	0.024374226
180	0x3cfd3f33	0.030913925
181	0x3b54ce67	0.0032471658
182	0x3cfd298a	0.030903596
183	0xbbfa33d4	-0.007635573
184	0x3ca20a33	0.019780254
185	0x3d21a2fb	0.03946207
186	0x3ce65cb9	0.028120385
187	0x3b66b02d	0.0035200224
188	0x3c84bdb1	0.016203733
189	0xbc359c9f	-0.011084705
190	0x3bdec81f	0.0067987586
191	0xbd145b4b	-0.036219876
192	0xbc5ab152	-0.0133479405
193	0xbccee787	-0.025256885
194	0x3c96654f	0.018358855
195	0x3c97b748	0.018520012
196	0xbd1be0a2	-0.038056023
197	0xbccf42d8	-0.025300428
198	0xbbb6b051	-0.005575218
199	0x3bfe359d	0.007757856
200	0xbd48ee42	-0.049055345
201	0x3ad39e4f	0.0016145202
202	0xbca80da0	-0.02051431
203	0xbd2e367b	-0.042532425
204	0xbcb272fe	-0.021783348
205	0xbc201efa	-0.00977301
206	0xbcf08c10	-0.029363662
207	0xbc8b554e	-0.01700845
208	0xbc94c356	-0.01815955
209	0xbca8ac63	-0.020590013
210	0xbc76ff14	-0.015075464
211	0x3c8f5acd	0.017499352
212	0x3d1f013f	0.038819548
213	0x3cdef03e	0.027214166
214	0x3d9eb2c5	0.07748941
215	0x3b1b6a7f	0.00237146
216	0x3d00f0fa	0.031479813
217	0x3d4d831e	0.05017387
218	0x3c97ba3f	0.018521426
219	0x3cfc6856	0.03081147
220	0xbd51102f	-0.051040825
221	0xbce0372a	-0.027370054
222	0x3c1887d3	0.009309727
223	0x3cadc440	0.021211743
224	0x3c6a9a34	0.014318991
225	0xb9aecbdf	-0.00033339762
226	0x3cadb0e2	0.021202508
227	0x3cd2bd05	0.025724897
228	0x3b6493a5	0.0034878042
229	0xbc20b79d	-0.009809402
230	0xbbc8cb15	-0.006127725
231	0xbcdd49f1	-0.027012797
232	0xbc74e689	-0.014947542
233	0x3cb85093	0.022499358
234	0xbbc1c416	-0.005913268
235	0xbd020609	-0.031744037
236	0xbccd8284	-0.025086649
237	0xbcf01ab4	-0.029309608
238	0x3c7c2b7e	0.015391229
239	0xbc5f3d3f	-0.013625442
240	0x3d72ca55	0.05927499
241	0x3d5ff58e	0.05467754
242	0x3d33fb34	0.043940738
243	0x3daec0dc	0.08532879
244	0x3c18098f	0.009279623
245	0x3d30c8eb	0.04316036
246	0x3c9d6c1c	0.01921659
247	0x3cb613e2	0.022226278
248	0x3c0fef9e	0.0087851565
249	0xbd2e113d	-0.04249691
250	0xbd3a655d	-0.045506824
251	0xbc608c4d	-0.013705325
252	0xbca4df03	-0.020125872
253	0x3ad63060	0.0016341321
254	0xbd0fa3a0	-0.035068154
255	0x3c58ab60	0.013224453

model.1.bias f4 [64]
0	0x3d227b03	0.039668094
1	0xbbd948e8	-0.0066310056
2	0x3cf377a8	0.029720142
3	0x3cbfb469	0.023401456
4	0x3d3e1db5	0.04641505
5	0x3caa2199	0.020767974
6	0xbc4a449d	-0.01234546
7	0x3d1d4f79	0.03840587
8	0xbb1e6f91	-0.0024175385
9	0x3cd986fe	0.026553627
10	0xbb5478e1	-0.0032420682
11	0x3d2383ea	0.039920725
12	0xbcd527fa	-0.026020039
13	0x3d06736a	0.03282491
14	0xbcf165a2	-0.029467408
15	0xbb08ed04	-0.0020893225
16	0xbcd28a0a	-0.025700588
17	0x3d35f4ab	0.044422787
18	0xbcef73f4	-0.029230095
19	0xbc9be032	-0.019027803
20	0x3ccefdc8	0.025267497
21	0x3d291af6	0.041285478
22	0xbc385ebf	-0.011253058
23	0x3c1818f2	0.009283291
24	0x3d168a3d	0.036752928
25	0x3c2dde72	0.010612117
26	0xbbcf15c2	-0.0063197324
27	0x3c305baf	0.010764047
28	0x3be12887	0.0068712863
29	0xbaf7b93e	-0.0018899811
30	0x3bf5abc6	0.0074972836
31	0x3d09d1e0	0.033647418
32	0xbc41864d	-0.011811805
33	0x3d2aa265	0.041658778
34	0x3d2a4654	0.041570976
35	0x3a1cb6d8	0.00059781736
36	0xbc47169f	-0.012151389
37	0xbc82c532	-0.01596317
38	0x3b6fa651	0.0036567638
39	0x3d17bb9c	0.037044153
40	0xbb36391f	-0.0027805043
41	0x3c8092f4	0.015695073
42	0xbcb8fdf5	-0.022582034
43	0xbbda2316	-0.0066570146
44	0x3c9d2e9d	0.019187266
45	0xbc9f5578	-0.019449934
46	0x3cbc6453	0.022997057
47	0xbc2f7922	-0.010710033
48	0x3c4dbbdf	0.012556999
49	0x3c081c9a	0.0083076
50	0x3ca5a185	0.02021862
51	0xbca7e21a	-0.020493556
52	0x3c845f4f	0.016158728
53	0x3cadbd33	0.021208381
54	0x3c23bd5e	0.009993879
55	0x3d153a18	0.036432356
56	0xbc88c1f5	-0.016694048
57	0x3c82865e	0.015933212
58	0x3ccb7654	0.024836697
59	0x3c044500	0.0080730915
60	0x3c8ebafb	0.017423144
61	0xbcafa945	-0.021443019
62	0xbd109de5	-0.03530683
63	0x3b1c5041	0.0023851546

model.4.weight f4 [64, 64]
0	0xbcfb22cd	-0.030656243
1	0x3c49dcd6	0.012320718
2	0x3ca1f74d	0.019771243
3	0xbcc1c99a	-0.023655701
4	0xbde98fde	-0.114043936
5	0x3d8b9d19	0.068170734
6	0xbdd2e20e	-0.10297023
7	0xbe0b1a44	-0.13584238
8	0x3d8094e2	0.06278397
9	0xbc577ddb	-0.013152565
10	0x3dc639c9	0.096789904
11	0x3de9b923	0.11412265
12	0x3dcc9ca9	0.09990818
13	0x3e039f47	0.12853728
14	0x3cf84e81	0.030310871
15	0xbdb126fd	-0.086500145
16	0xbce1ff91	-0.027587684
17	0x3d5f013f	0.054444548
18	0x3c95a66a	0.018267829
19	0xbde3e6e2	-0.11128022
20	0x3d2d1a9c	0.042261705
21	0xbd8b20e1	-0.067933805
22	0x3d8cbe76	0.06872265
23	0x3c814967	0.015782071
24	0x3d7f62f6	0.062350236
25	0xbd8f34d7	-0.069925
26	0x3d6362ad	0.055514026
27	0x3dc2295b	0.09480544
28	0xbda35ca9	-0.07976658
29	0x3de50522	0.1118262
30	0x3e51d369	0.20490803
31	0x3dbe6bde	0.09297918
32	0xbd905a3c	-0.07048461
33	0x3ca2ea78	0.019887194
34	0xbe057b7e	-0.1303539
35	0x3dbe5750	0.09293997
36	0xbdcb2ac6	-0.09920268
37	0xbcbbaaa7	-0.022908522
38	0x3bb21590	0.0054346994
39	0x3d8b5123	0.06802585
40	0x3de40eae	0.111356124
41	0x3e017eb9	0.12645997
42	0xbe032d42	-0.12810233
43	0xbe214ba9	-0.15751518
44	0x3dcec04e	0.10095273
45	0xbc6f2b50	-0.014597729
46	0xbdf8d1fd	-0.12149427
47	0x3bfe6f89	0.007764761
48	0x3e24908c	0.16070765
49	0xbdf14e0c	-0.117824644
50	0xbe394ab1	-0.18094899
51	0x3e031929	0.12802567
52	0xbb2988b5	-0.0025868837
53	0x3cd749ba	0.026280273
54	0x3cd3b2b8	0.025842056
55	0xbca86fb7	-0.020561082
56	0x3e01e6c5	0.12685688
57	0xbe078b3b	-0.13236706
58	0xbdc1f9a7	-0.094714455
59	0xbcda3eba	-0.026641238
60	0xbd91499d	-0.07094119
61	0xbb648b82	-0.0034873192
62	0xbdf2bb38	-0.118521154
63	0x3da926c7	0.08259349
64	0x3d3672a0	0.04454291
65	0xbce95771	-0.028484078
66	0x3e640a25	0.22269495
67	0x3e2303e5	0.15919454
68	0x3dbc0bec	0.091819614
69	0x3d994639	0.07484097
70	0x3d9e11d1	0.07718242
71	0xb898bc4d	-7.2829986e-05
72	0xbde365ea	-0.11103423
73	0xbb29caed	-0.0025908307
74	0x3d7bafcb	0.061446946
75	0xbd77dc1e	-0.060512654
76	0x3d7dd152	0.0619672
77	0x3dbed1a3	0.09317329
78	0x3e255aa6	0.16147861
79	0xbdc0419a	-0.093875125
80	0x3d986620	0.07441354
81	0xbdadfba0	-0.08495259
82	0xbada4e52	-0.0016655421
83	0x3e11520a	0.14191452
84	0x3ce6650e	0.028124359
85	0xbc2be264	-0.010490987
86	0x3e2d0c80	0.168993
87	0xbd6b864a	-0.057501115
88	0xbe05583b	-0.13021939
89	0x3ca1f433	0.019769764
90	0x3def900f	0.11697399
91	0x3d9622c1	0.073308475
92	0x3df5291b	0.11970731
93	0x3de49e02	0.1116295
94	0x3e1d131a	0.15339318
95	0x3c85ed41	0.016348483
96	0xbd13ceb5	-0.036085803
97	0xbda3c5a7	-0.079966836
98	0x3e2374b0	0.15962481
99	0x3d92c11b	0.07165738
100	0x3c807432	0.015680406
101	0x3e2a50e0	0.16632414
102	0x3e65bba7	0.22434865
103	0x3d9dcb85	0.07704834
104	0xbcdce3a3	-0.026964014
105	0xbdcf8f7a	-0.10134788
106	0xbdeee68f	-0.11665069
107	0x3e1c6696	0.15273508
108	0xbda02bf8	-0.078208864
109	0xbca78700	-0.020450115
110	0xbe09dace	-0.13462374
111	0xbd1054f9	-0.035237286
112	0x3d8519b2	0.064990416
113	0x3d7d74b8	0.06187889
114	0x3dba23ab	0.090888344
115	0xbd4ac418	-0.049503416
116	0xbdb93315	-0.09042946
117	0x3e0bd6db	0.1365618
118	0x3cb8cdb9	0.022559034
119	0x3e061d98	0.13097227
120	0xbd9db4c6	-0.077004954
121	0x3d23f13a	0.040024973
122	0xbdc6f079	-0.09713835
123	0x3dd41abd	0.103566624
124	0x3be7ea59	0.007077497
125	0x3da80ec9	0.08205945
126	0xbc9f4257	-0.019440813
127	0x3e05eb7d	0.13078113
128	0x3dccec8d	0.10006056
129	0x3d53cc87	0.051708724
130	0xbd7df686	-0.06200268
131	0xb794f480	-1.7756829e-05
132	0xbd9ae3f1	-0.075630076
133	0x3d0b4f3a	0.034011103
134	0xbcda831e	-0.02667385
135	0x3d908c48	0.070580065
136	0x3d871b49	0.06597001
137	0x3cb7cc94	0.022436418
138	0x3da5de6e	0.08099066
139	0x3b0fce04	0.0021942863
140	0xbca588ed	-0.020206893
141	0x3dfff970	0.12498748
142	0xbd00e790	-0.031470835
143	0x3d59902b	0.053116005
144	0xbc3373c0	-0.01095289
145	0xbd464dcd	-0.04841404
146	0x3e24bb75	0.16087134
147	0x3e1c1c08	0.15245068
148	0x3d98c222	0.07458903
149	0xbdd13a59	-0.10216207
150	0xbde0ed48	-0.10982758
151	0x3dc2a91d	0.09504912
152	0x3dcc9f09	0.09991271
153	0x3ddc60dd	0.10760663
154	0xbcd390ad	-0.025825823
155	0x3e210a58	0.15726602
156	0xbd80dcfe	-0.06292151
157	0xbd190965	-0.037362475
158	0x3bc8e0ae	0.0061302995
159	0x3ded22f7	0.11578935
160	0xbc2ade3a	-0.0104289595
161	0xbd7985db	-0.06091867
162	0x3e384b5f	0.17997502
163	0x3bc9b90d	0.006156093
164	0x3d27bd66	0.04095211
165	0x3d53b78e	0.051688723
166	0xbde115bc	-0.10990474
167	0x3cd6dfc7	0.026229752
168	0xbddb56eb	-0.10709938
169	0x3d9f1bd9	0.077689834
170	0x3dea6877	0.11445706
171	0xbb7d42c1	-0.0038644525
172	0x3e0963b6	0.13416943
173	0xbda9321f	-0.08261513
174	0xbd6e0f7c	-0.058120236
175	0xbe0a6c4a	-0.13517871
176	0x3dd477ac	0.10374388
177	0x3e0dbcd0	0.13841558
178	0xbd768ef8	-0.06019494
179	0x3de8d9d2	0.11369671
180	0xbe2b098e	-0.16702864
181	0x3c829a8c	0.015942834
182	0x3db25ae4	0.08708742
183	0xbe0c84a5	-0.13722475
184	0x3e2532f3	0.16132717
185	0xbd503139	-0.050828192
186	0xbe1809e9	-0.1484753
187	0x3dce4c61	0.10073162
188	0x3dea6a81	0.11446095
189	0x3db609e8	0.08888608
190	0x3c80a789	0.015704887
191	0xbcb2801e	-0.021789607
192	0x3debb5cf	0.115092866
193	0x3e186871	0.14883591
194	0x3e626c1e	0.22111556
195	0x3debce01	0.115139015
196	0x3e035f0f	0.1282923
197	0xbd6bd9b3	-0.05758066
198	0x3d923c63	0.07140424
199	0xbcf329ed	-0.029683078
200	0xbc66765a	-0.014066303
201	0xbd876bff	-0.066123955
202	0xbdca8d0e	-0.09890185
203	0xbc3a6745	-0.01137716
204	0xbd468f0f	-0.048476275
205	0xbb71c18a	-0.003688904
206	0x3c340085	0.010986452
207	0xbcab9afa	-0.020947922
208	0x3df44b89	0.1192847
209	0x3dbcb70c	0.09214601
210	0x3daa9d9a	0.08330841
211	0x3dce7fcf	0.10082971
212	0x3d446928	0.047951847
213	0xba11475f	-0.0005541946
214	0xbcbc359f	-0.022974787
215	0x3d9f6c72	0.07784356
216	0xbd65af76	-0.056075536
217	0xbdcd9c27	-0.10039549
218	0xbe2ad973	-0.16684513
219	0xbe3aa5ed	-0.18227358
220	0x3d12f3ea	0.035877146
221	0xbc916331	-0.017747493
222	0x3c991897	0.018688483
223	0xbcd9d231	-0.026589485
224	0xbb8bf4b3	-0.004271114
225	0x3dccdae6	0.10002689
226	0xbe29416d	-0.16528864
227	0x3df269d1	0.11836589
228	0xbde724d0	-0.11286318
229	0xbe05f43f	-0.13081454
230	0x3e0e0222	0.13868001
231	0x3dd6d1d3	0.104892395
232	0xbd81d652	-0.063397065
233	0xbd94557c	-0.07242867
234	0x3a918dcb	0.001110488
235	0xbd830479	-0.063973375
236	0xbd155029	-0.0364534
237	0x3de853a4	0.11344078
238	0xbc44c16b	-0.012009005
239	0x3e2add96	0.16686091
240	0xbd87f137	-0.06637805
241	0x3ced7557	0.028986616
242	0x3cb6e71d	0.022327
243	0xbd13e988	-0.036111385
244	0x3d793682	0.060843
245	0x3cd5297d	0.02602076
246	0x3dc6b6f0	0.09702861
247	0x3e06f029	0.13177551
248	0xbd9ef2e3	-0.07761171
249	0x3d7a591a	0.06112013
250	0x3d4d5fc5	0.05014016
251	0x3dc8d358	0.098059356
252	0x3d736a70	0.05942768
253	0xbe13ffb3	-0.1445301
254	0x3c80ed07	0.015738023
255	0x3d71139e	0.0588566

model.4.bias f4 [64]
0	0xbdcbfb73	-0.099600695
1	0xbc696e81	-0.014247538
2	0xbdb9761e	-0.09055732
3	0x3dc81b2a	0.09770806
4	0xbddbd317	-0.107336216
5	0x3d12fbac	0.035884544
6	0x3e0935b2	0.1339939
7	0x3dfdbc8f	0.1238948
8	0xbccc291e	-0.02492195
9	0x3c09b3b8	0.008404665
10	0xbd908b41	-0.070578106
11	0x3e01beec	0.12670487
12	0x3cd6c8c0	0.026218772
13	0xbdc276cf	-0.09495317
14	0xbd4c42eb	-0.049868505
15	0xbca998c8	-0.020702735
16	0xbcfeb1ad	-0.031090582
17	0xbae0de8b	-0.0017156167
18	0x3c970ee9	0.018439727
19	0x3de0fdae	0.109858856
20	0xbd3a8f76	-0.04554697
21	0x3dcbc158	0.09948987
22	0xbd943043	-0.07235768
23	0x3db9eb09	0.090780325
24	0x3db82ddc	0.08993122
25	0xbd3bef22	-0.04588235
26	0xbd12165a	-0.035665847
27	0x3ca70da8	0.020392254
28	0x3df98ab4	0.12184659
29	0xbd684327	-0.056704666
30	0x3d49d29d	0.049273122
31	0xbdc68648	-0.09693581
32	0x3e17c089	0.1481954
33	0xbde4c375	-0.11170093
34	0xbd9857f8	-0.07438654
35	0x3dad4145	0.08459715
36	0x3e08b536	0.13350376
37	0xbd859134	-0.06521836
38	0xbcfbd2b8	-0.030740127
39	0xbdbe392f	-0.09288251
40	0xbcd61a16	-0.026135486
41	0xbd8f0b43	-0.0698457
42	0x3dbae30f	0.09125339
43	0xbd3da58e	-0.046300463
44	0x3df25da0	0.11834264
45	0x3e0ad05c	0.13556045
46	0x3dcb24e1	0.099191435
47	0x3dd8d43f	0.10587358
48	0xbc63518f	-0.013874426
49	0xbd9c4c31	-0.0763172
50	0xbd41cded	-0.047315527
51	0xbdacb57f	-0.08433055
52	0x3d07d2e9	0.033160124
53	0x3d4f33a0	0.050586343
54	0x3dc90587	0.098155074
55	0xbd88936a	-0.06668742
56	0x3d9a26f8	0.07526964
57	0x3c29c077	0.010360829
58	0xbd5cc5b3	-0.05389948
59	0xbdce1a47	-0.10063606
60	0x3e09b461	0.13447715
61	0xbda2b2a1	-0.07944227
62	0xbd9acaee	-0.07558237
63	0x3c5d22dc	0.013497081

model.7.weight f4 [10, 64]
0	0xbe0bb110	-0.13641763
1	0x3cc51588	0.024058118
2	0x3e19777d	0.14986987
3	0xbdb6fb1d	-0.08934615
4	0xbe5d788a	-0.21628013
5	0x3c644ed8	0.013934813
6	0xbe63a715	-0.22231705
7	0x3c4fef7f	0.012691378
8	0x3d0f84a0	0.03503859
9	0x3cbd6616	0.023119967
10	0xbe37dc59	-0.1795515
11	0xbdf2ba61	-0.11851955
12	0x3e0a0136	0.13477024
13	0x3e668c00	0.22514343
14	0xbdd09f41	-0.10186625
15	0x3e02ada7	0.12761556
16	0xbde0165a	-0.10941763
17	0x3d3fb543	0.046803724
18	0x3d204522	0.03912843
19	0x3d94188e	0.07231246
20	0x3cafbfac	0.021453701
21	0xbdced2a1	-0.10098768
22	0x3ca62a77	0.02028392
23	0xbcd19a60	-0.025586307
24	0xbddf786f	-0.10911643
25	0xbd97c2b5	-0.07410184
26	0xbd41af20	-0.047286153
27	0x3d905813	0.07048049
28	0xbdc58f15	-0.09646431
29	0xbe4c75ad	-0.19966765
30	0x3d89a3d6	0.06720702
31	0xbd879fd5	-0.066222824
32	0xbdffcb79	-0.12489981
33	0x3d7cb29b	0.06169377
34	0xbe62f927	-0.22165357
35	0xbd862d14	-0.06551567
36	0x3d8a82d7	0.06763237
37	0x3dcffa44	0.10155156
38	0xbe0c29e4	-0.13687855
39	0xbdcca9d4	-0.0999333
40	0xbd585f2a	-0.05282513
41	0xbdf0989b	-0.11747857
42	0x3d74406a	0.059631743
43	0x3e18b79c	0.14913791
44	0x3db7f53c	0.089823216
45	0xbe34b035	-0.17645343
46	0x3e17a4b3	0.14808922
47	0x3d57409c	0.05255185
48	0xbe362cd4	-0.17790538
49	0xbdae47fa	-0.08509822
50	0x3df72354	0.12067285
51	0x3d2f8218	0.042848676
52	0x3e133603	0.14376073
53	0xbdca45fd	-0.098766305
54	0xbe1db102	-0.15399554
55	0xbe765e8d	-0.24059506
56	0xbdde847b	-0.108651124
57	0x3e2fdeae	0.1717479
58	0x3e2767ef	0.16348241
59	0xbe3424f5	-0.17592223
60	0xbdf83760	-0.12119937
61	0xbd349fcb	-0.044097703
62	0xbd394a77	-0.04523703
63	0xbc32707d	-0.010891077
64	0xbe597c75	-0.21238883
65	0x3e005099	0.12530746
66	0xbe47140e	-0.19441244
67	0xbcf37be2	-0.029722158
68	0x3e2539e6	0.16135368
69	0xbe5022cb	-0.20325772
70	0x3db033ec	0.08603653
71	0x3e080acf	0.13285373
72	0xbb9d4c29	-0.0048003388
73	0xbe28843c	-0.16456693
74	0x3d11bbce	0.035579495
75	0xbdc4fce8	-0.096185505
76	0xbca29aa3	-0.019849127
77	0xbdf6b881	-0.1204691
78	0xbe51987b	-0.20468323
79	0xbdee3bfc	-0.11632535
80	0x3d09a61d	0.033605684
81	0xbdfbe719	-0.12299938
82	0x3d94838f	0.07251655
83	0xbdcd61bf	-0.10028409
84	0xbd3c1c54	-0.045925453
85	0x3d8b0870	0.06788719
86	0x3d7bbc2e	0.06145876
87	0x3d6f4272	0.058412977
88	0x3e133382	0.14375117
89	0xbe408064	-0.18798977
90	0x3de27a00	0.11058426
91	0xbdf53359	-0.119726844
92	0xbc802ded	-0.0156469
93	0xbbe9081c	-0.0071115624
94	0x3d3a81a4	0.04553379
95	0x3dce2beb	0.100669704
96	0xbcce9319	-0.025216626
97	0xbdadd1df	-0.08487295
98	0x3e17b839	0.14816369
99	0xbda16be5	-0.078819074
100	0xbe5d21f8	-0.2159499
101	0x3d1fa089	0.038971458
102	0xbcbbcecc	-0.022925757
103	0xbdf589e7	-0.119891934
104	0x3d8bdf31	0.0682968
105	0x3d505eaf	0.050871547
106	0xbdf8e845	-0.12153677
107	0xbe320f36	-0.17388615
108	0x3e01981b	0.1265568
109	0x3df1fe17	0.11816042
110	0x3ce42388	0.027848974
111	0xbe4366fb	-0.19082253
112	0x3e185e3c	0.14879698
113	0x3e1ab493	0.15107946
114	0xbd7b6ad1	-0.061381165
115	0x3dcdeb43	0.10054638
116	0xbdbc3412	-0.09189619
117	0x3d73faf3	0.059565496
118	0xbe425165	-0.18976362
119	0xbe289d1b	-0.16466181
120	0xbdc56576	-0.09638493
121	0xbbecd3d1	-0.007227399
122	0xbd86c2c2	-0.06580116
123	0xbe3b8a6f	-0.18314527
124	0xbe1563ac	-0.14588803
125	0xbe39b0e8	-0.1813389
126	0x3cc81e5e	0.024428543
127	0x3c9df76c	0.019283019
128	0xbd6c20a0	-0.0576483
129	0x3e083d02	0.13304523
130	0xbdb535d0	-0.088481545
131	0x3d02276f	0.031775888
132	0x3e1c8d3e	0.15288255
133	0x3d889e17	0.06670778
134	0xbdf6efdf	-0.120574705
135	0x3e054e32	0.1301811
136	0xbdfc8b5c	-0.12331268
137	0x3caa6ec1	0.020804765
138	0xbd411e85	-0.047148246
139	0x3c592d09	0.013255366
140	0xbd5fb435	-0.05461522
141	0xbe0508f7	-0.12991701
142	0xbdaf087a	-0.08546539
143	0x3c7f1eaa	0.015571276
144	0x3d3d8d01	0.04627705
145	0xbd980834	-0.074234396
146	0x3cb5245a	0.02211206
147	0xbd0b709a	-0.034042932
148	0x3d5229aa	0.051309265
149	0xbd7d11ea	-0.061784662
150	0x3da076ae	0.07835136
151	0xbd87749e	-0.0661404
152	0x3ce294a3	0.027658766
153	0x3dde99db	0.10869189
154	0xbd91dab8	-0.071217954
155	0x3d881a46	0.06645636
156	0xbe28ac10	-0.16471887
157	0xbd78bb64	-0.060725585
158	0x3e0bc742	0.1365023
159	0x3e12d214	0.14337951
160	0xbdafa9d0	-0.08577311
161	0xbe0352cd	-0.12824555
162	0xbd94c757	-0.072645836
163	0x3c98c8ba	0.018650401
164	0x3c969592	0.018381868
165	0xbe5d9f67	-0.21642838
166	0xbc9f324f	-0.019433169
167	0x3e329b43	0.1744204
168	0xbdb2d1e2	-0.08731438
169	0xbdd52207	-0.10406881
170	0xbde39aa4	-0.1111348
171	0x3df86c95	0.121300854
172	0xbe3fbfef	-0.1872556
173	0x3d10647f	0.03525209
174	0x3d6132a7	0.054979946
175	0x3da7a4c5	0.08185724
176	0xbdb7103e	-0.08938645
177	0xbd7d7c6d	-0.06188624
178	0x3d1eec06	0.03879931
179	0xbd45f5e7	-0.048330214
180	0x3d0b5ccd	0.03402405
181	0xbdbd0389	-0.0922919
182	0xbddc3426	-0.10752134
183	0x3c384b59	0.011248433
184	0xbd5aa9ad	-0.05338447
185	0x3c957e98	0.018248841
186	0xbe38ffb6	-0.18066296
187	0xbda06a82	-0.07832815
188	0xbd505585	-0.050862808
189	0xba099316	-0.0005248053
190	0x3db58adb	0.08864375
191	0x3e0d074e	0.13772318
192	0x3d45ffda	0.048339702
193	0x3d94c882	0.07264806
194	0xbd6c2f26	-0.05766215
195	0x3d7777b6	0.0604169
196	0x3df51b24	0.11968067
197	0xbdc06e20	-0.09396005
198	0x3df95218	0.12173861
199	0xbcd2643c	-0.025682561
200	0x3e041251	0.12897612
201	0xbdd3006b	-0.10302814
202	0xbe26bd76	-0.16283211
203	0xbe0535ba	-0.13008776
204	0xbdabaad7	-0.083821945
205	0xbd392f50	-0.045211136
206	0xbdfb492b	-0.12269815
207	0xbdd6b72d	-0.10484157
208	0x3be85780	0.007090509
209	0xbdacfd99	-0.084468074
210	0x3d35ef7b	0.04441784
211	0x3e1060ee	0.14099476
212	0xbd8510e7	-0.064973645
213	0xbe6bb810	-0.23019433
214	0xbe2c1027	-0.16803037
215	0x3d8e90c8	0.069612086
216	0x3e009f42	0.12560752
217	0xbbe3f7cd	-0.0069570304
218	0xbe2d321d	-0.16913648
219	0x3de3e74f	0.11128103
220	0xbbcd1823	-0.006258981
221	0x3cd6ed7a	0.026236285
222	0xbd8cd7e9	-0.06877119
223	0x3ddaec96	0.106896564
224	0x3dbe1170	0.0928067
225	0x3d775860	0.060387015
226	0xbe0411b4	-0.12897378
227	0xbd7bd640	-0.06148362
228	0xbde9286c	-0.11384663
229	0x3d25171f	0.040305253
230	0xbd723d4d	-0.059140492
231	0x3d8a91e7	0.0676611
232	0x3d509894	0.05092676
233	0x3d951828	0.07279998
234	0x3d926e64	0.071499616
235	0x3d81a6f4	0.06330672
236	0x3d8bdf14	0.06829658
237	0xbdf2cdc4	-0.11855653
238	0x3e007cbe	0.12547585
239	0x3c8d0893	0.017216003
240	0x3d2fa723	0.042884003
241	0xbe41b9bd	-0.1891851
242	0xbdd66fa9	-0.10470516
243	0x3d955edf	0.07293486
244	0x3e0ab70a	0.13546386
245	0x3d80aa20	0.06282449
246	0x3d81a925	0.0633109
247	0xbda88a76	-0.08229534
248	0x3dcb2117	0.09918421
249	0xbcb4e71c	-0.022082858
250	0x3da6913f	0.08133172
251	0xbe2b4c44	-0.16728312
252	0x3e092feb	0.13397186
253	0xbe223cc6	-0.15843496
254	0x3cbef2ba	0.0233091
255	0x3dbb86fd	0.09156606

model.7.bias f4 [10]
0	0xbd056b83	-0.032573234
1	0x3dcb0b43	0.099142574
2	0x3c648b4d	0.0139492275
3	0xbbabdc3f	-0.0052447612
4	0xbd45d934	-0.048302844
5	0x3ca40fcf	0.02002707
6	0x3d5fea71	0.05466694
7	0xbddeb947	-0.108751826
8	0xbcdd4b6e	-0.027013507
9	0xbde87bd3	-0.113517426

exp_avg f4 [64, 784]
0	0xb80d17af	-3.3639077e-05
1	0xb80d17af	-3.3639077e-05
2	0xb80d17af	-3.3639077e-05
3	0xb80d17af	-3.3639077e-05
4	0xb80d17af	-3.3639077e-05
5	0xb80d17af	-3.3639077e-05
6	0xb80d17af	-3.3639077e-05
7	0xb80d17af	-3.3639077e-05
8	0xb80d17af	-3.3639077e-05
9	0xb80d17af	-3.3639077e-05
10	0xb80d17af	-3.3639077e-05
11	0xb80d17af	-3.3639077e-05
12	0xb80d17af	-3.3639077e-05
13	0xb80d17af	-3.3639077e-05
14	0xb80d17af	-3.3639077e-05
15	0xb80d17af	-3.3639077e-05
16	0xb80d17af	-3.3639077e-05
17	0xb80d17af	-3.3639077e-05
18	0xb80d17af	-3.3639077e-05
19	0xb80d17af	-3.3639077e-05
20	0xb80d17af	-3.3639077e-05
21	0xb80d17af	-3.3639077e-05
22	0xb80d17af	-3.3639077e-05
23	0xb80d17af	-3.3639077e-05
24	0xb80d17af	-3.3639077e-05
25	0xb80d17af	-3.3639077e-05
26	0xb80d17af	-3.3639077e-05
27	0xb80d17af	-3.3639077e-05
28	0xb80d17af	-3.3639077e-05
29	0xb80d17af	-3.3639077e-05
30	0xb80d17af	-3.3639077e-05
31	0xb80d17af	-3.3639077e-05
32	0xb80d17af	-3.3639077e-05
33	0xb80d17af	-3.3639077e-05
34	0xb80d17af	-3.3639077e-05
35	0xb80d17af	-3.3639077e-05
36	0xb80d17af	-3.3639077e-05
37	0xb80d17af	-3.3639077e-05
38	0xb80d17af	-3.3639077e-05
39	0xb80d17af	-3.3639077e-05
40	0xb80d17af	-3.3639077e-05
41	0xb8041eec	-3.150005e-05
42	0xb7a07659	-1.9128596e-05
43	0xb7eb56db	-2.8054628e-05
44	0xb8070d16	-3.2198695e-05
45	0xb807be05	-3.2363478e-05
46	0xb80c0946	-3.3387238e-05
47	0xb80d17af	-3.3639077e-05
48	0xb80d17af	-3.3639077e-05
49	0xb80d17af	-3.3639077e-05
50	0xb80d17af	-3.3639077e-05
51	0xb80d17af	-3.3639077e-05
52	0xb80d17af	-3.3639077e-05
53	0xb80d17af	-3.3639077e-05
54	0xb80d17af	-3.3639077e-05
55	0xb80d17af	-3.3639077e-05
56	0xb80d17af	-3.3639077e-05
57	0xb80d17af	-3.3639077e-05
58	0xb80d17af	-3.3639077e-05
59	0xb80d17af	-3.3639077e-05
60	0xb80d17af	-3.3639077e-05
61	0xb80d17af	-3.3639077e-05
62	0xb80f8d90	-3.4225697e-05
63	0xb815a752	-3.5680197e-05
64	0xb81744ad	-3.6065165e-05
65	0xb80fb244	-3.425988e-05
66	0xb7c77617	-2.3777638e-05
67	0x36b436c4	5.3707936e-06
68	0x38ba0c98	8.871517e-05
69	0x3753a574	1.2615103e-05
70	0x33c46cc0	9.146743e-08
71	0xb827971f	-3.9956645e-05
72	0xb8d0b366	-9.9516285e-05
73	0xb803cb5e	-3.1422234e-05
74	0xb7867291	-1.6027394e-05
75	0xb7fbefe3	-3.0033238e-05
76	0xb80d0af6	-3.3627228e-05
77	0xb80d183e	-3.3639597e-05
78	0xb80d17c0	-3.363914e-05
79	0xb80d17af	-3.3639077e-05
80	0xb80d17af	-3.3639077e-05
81	0xb80d17af	-3.3639077e-05
82	0xb80d17af	-3.3639077e-05
83	0xb80d17af	-3.3639077e-05
84	0xb80d17af	-3.3639077e-05
85	0xb80d17af	-3.3639077e-05
86	0xb80d17af	-3.3639077e-05
87	0xb80d17af	-3.3639077e-05
88	0xb80db0da	-3.3781726e-05
89	0xb80eae4e	-3.4017772e-05
90	0xb80fce9a	-3.428627e-05
91	0xb814bb8b	-3.5460613e-05
92	0xb828e956	-4.0271632e-05
93	0xb74d1342	-1.2223436e-05
94	0x3728f6e0	1.007106e-05
95	0x3913d975	0.00014100022
96	0x39270781	0.00015929157
97	0x382aa6ff	4.0686686e-05
98	0x386c137b	5.6284927e-05
99	0xb80474a8	-3.1579897e-05
100	0xb9130d83	-0.00014024046
101	0xb9904616	-0.00027518038
102	0xb9bee24f	-0.00036408237
103	0xb9207e9f	-0.00015305959
104	0xb7a04804	-1.9107021e-05
105	0x37da224f	2.6003601e-05
106	0x384829d2	4.7722664e-05
107	0x37770c36	1.472519e-05
108	0xb60caed6	-2.0963394e-06
109	0xb7f53a73	-2.9233493e-05
110	0xb80d17af	-3.3639077e-05
111	0xb80d17af	-3.3639077e-05
112	0xb80d17af	-3.3639077e-05
113	0xb80d17af	-3.3639077e-05
114	0xb80d17f4	-3.3639328e-05
115	0xb80d17ea	-3.363929e-05
116	0xb80d6040	-3.370666e-05
117	0xb80e8653	-3.3980537e-05
118	0xb74634d6	-1.18140215e-05
119	0x378cba61	1.677609e-05
120	0x3635cb70	2.7089518e-06
121	0x381cbbbe	3.7368147e-05
122	0x39c90d1d	0.00038347478
123	0x3a4265aa	0.0007415662
124	0x39028382	0.00012446757
125	0xba19b230	-0.0005863039
126	0x38df2bac	0.00010641603
127	0x37e79c4f	2.7610133e-05
128	0xb9f11084	-0.00045979407
129	0xba32d76a	-0.00068222603
130	0xb9428f61	-0.00018554695
131	0xb8a762b3	-7.981565e-05
132	0xb838f652	-4.4098422e-05
133	0xb88a24d8	-6.5872155e-05
134	0xb93025a7	-0.00016798695
135	0xb9dad964	-0.0004174217
136	0xb9f99600	-0.0004760474
137	0xb961c719	-0.00021531842
138	0xb80d1ae2	-3.3642056e-05
139	0xb80d17af	-3.3639077e-05
140	0xb80d17af	-3.3639077e-05
141	0xb80d17af	-3.3639077e-05
142	0xb80d17af	-3.3639077e-05
143	0xb80d17af	-3.3639077e-05
144	0xb7dfda4b	-2.6685322e-05
145	0x38a7e060	8.004974e-05
146	0x39a50d3f	0.00031481122
147	0x39d695b8	0.0004092881
148	0x39ca2b8e	0.00038560893
149	0x3a817e38	0.0009879535
150	0x3ad2640b	0.0016051544
151	0x3a12cca2	0.00055999507
152	0xb907255a	-0.00012888518
153	0xb997f5a2	-0.00028983975
154	0xb8ac039d	-8.202272e-05
155	0xb9b86cc0	-0.0003517624
156	0xba455c8b	-0.00075287436
157	0xba401d54	-0.0007328589
158	0x396e18fb	0.00022706755
159	0x391938c4	0.00014612364
160	0xb93525d4	-0.00017275597
161	0xb89c533a	-7.454162e-05
162	0xb98d2b30	-0.00026925793
163	0xb9bb05fa	-0.00035671872
164	0xb98abb13	-0.00026460792
165	0xb921a541	-0.00015415718
166	0xb80d1e04	-3.3644974e-05
167	0xb80d1775	-3.3638866e-05
168	0xb80d17af	-3.3639077e-05
169	0xb80d17af	-3.3639077e-05
170	0xb80d17f4	-3.3639328e-05
171	0xb80d30d8	-3.366251e-05
172	0xb6dd950b	-6.603664e-06
173	0x3988fc2d	0.00026127827
174	0x39e2938a	0.00043216004
175	0x3a196c84	0.0005852657
176	0x3a0d5bf3	0.00053924246
177	0x3aa1e4f9	0.0012351564
178	0x3a8c5118	0.001070532
179	0xb997aeb5	-0.0002893113
180	0xb8a5ac29	-7.8998804e-05
181	0xb9d01d73	-0.00039694793
182	0xba3f91d5	-0.00073078024
183	0xba4fcd65	-0.00079270295
184	0xba5af384	-0.00083523267
185	0xb9e14910	-0.0004296978
186	0x3a6bce3b	0.00089952693
187	0x3a5bdf38	0.0008387449
188	0x38859bf8	6.370986e-05
189	0x38c05015	9.17019e-05
190	0x3897b778	7.234415e-05
191	0x394975f4	0.00019212795
192	0x3912d115	0.00014001534
193	0x3808eab7	3.2643522e-05
194	0xb81de0ae	-3.7640966e-05
195	0xb824d374	-3.9297578e-05
196	0xb80d17af	-3.3639077e-05
197	0xb80d281c	-3.3654374e-05
198	0xb80d3fb6	-3.3676355e-05
199	0xb8813c1c	-6.1623956e-05
200	0xb64afeb4	-3.0248602e-06
201	0x398d9181	0.00027002025
202	0x39e41d45	0.00043509356
203	0x39967c9d	0.00028703074
204	0xb8daad36	-0.00010427313
205	0x39b4ac77	0.00034460772
206	0x3a5609e2	0.0008164925
207	0xb949d634	-0.0001924865
208	0xb926f07e	-0.00015920584
209	0xb94d44d2	-0.00019575961
210	0xb981dcf1	-0.00024769412
211	0xb9bad525	-0.0003563549
212	0x3913a8a4	0.00014081836
213	0x3a1e53b1	0.00060396927
214	0x3a2c27e9	0.00065672264
215	0x3a804856	0.0009787183
216	0x3a76824d	0.00094035716
217	0x39e4f5c7	0.00043670667
218	0x3786eaaa	1.6083319e-05
219	0x3995dac5	0.0002858249
220	0x38883df8	6.496528e-05
221	0xb96f1aa2	-0.00022802738
222	0xb925d916	-0.00015816497
223	0xb8161968	-3.578645e-05
224	0xb80d17c6	-3.363916e-05
225	0xb80d29c8	-3.365593e-05
226	0xb80e45cc	-3.392044e-05
227	0xb85a7d44	-5.2091913e-05
228	0xb7d2ab96	-2.5113852e-05
229	0x39719c91	0.00023041877
230	0x3a1e03a9	0.0006027767
231	0x3985f39c	0.0002554924
232	0xb9b4ff9c	-0.0003452272
233	0x37e27188	2.6994167e-05
234	0x3a9c0466	0.0011903166
235	0x3a69e79b	0.00089227565
236	0xb9c8eea2	-0.00038324768
237	0xba8b534c	-0.0010629683
238	0xbaaeac3e	-0.0013326479
239	0xba837754	-0.0010030069
240	0xb9732522	-0.00023188119
241	0x3a826d6d	0.0009950824
242	0x3a527da4	0.0008029586
243	0x39afafc8	0.00033509568
244	0x3a6ccd64	0.0009033291
245	0x3a6a838f	0.00089459954
246	0x393ca2df	0.00017989751
247	0xb8093817	-3.2715583e-05
248	0xb8fa70ad	-0.000119419165
249	0xb99bf96f	-0.00029749746
250	0xb98b8d88	-0.00026617595
251	0xb80d17af	-3.3639077e-05
252	0xb80d17af	-3.3639077e-05
253	0xb80d1832	-3.3639553e-05
254	0xb810bedf	-3.4510038e-05
255	0xb82d0332	-4.124939e-05

exp_avg_sq f4 [64, 784]
0	0x35db0eab	1.632104e-06
1	0x35db0eab	1.632104e-06
2	0x35db0eab	1.632104e-06
3	0x35db0eab	1.632104e-06
4	0x35db0eab	1.632104e-06
5	0x35db0eab	1.632104e-06
6	0x35db0eab	1.632104e-06
7	0x35db0eab	1.632104e-06
8	0x35db0eab	1.632104e-06
9	0x35db0eab	1.632104e-06
10	0x35db0eab	1.632104e-06
11	0x35db0eab	1.632104e-06
12	0x35db0e97	1.6321018e-06
13	0x35db0cd1	1.6320502e-06
14	0x35db0cd1	1.6320502e-06
15	0x35db0e98	1.6321019e-06
16	0x35db0eab	1.632104e-06
17	0x35db0eab	1.632104e-06
18	0x35db0eab	1.632104e-06
19	0x35db0eab	1.632104e-06
20	0x35db0eab	1.632104e-06
21	0x35db0eab	1.632104e-06
22	0x35db0eab	1.632104e-06
23	0x35db0eab	1.632104e-06
24	0x35db0eab	1.632104e-06
25	0x35db0eab	1.632104e-06
26	0x35db0eab	1.632104e-06
27	0x35db0eab	1.632104e-06
28	0x35db0eab	1.632104e-06
29	0x35db0eab	1.632104e-06
30	0x35db0eab	1.632104e-06
31	0x35db0eab	1.632104e-06
32	0x35db0eb0	1.6321046e-06
33	0x35db0eb0	1.6321046e-06
34	0x35db113a	1.6321785e-06
35	0x35db1c9c	1.6325098e-06
36	0x35db2fc9	1.6330679e-06
37	0x35db301c	1.6330773e-06
38	0x35db7ae5	1.6352539e-06
39	0x35db67e2	1.6347005e-06
40	0x35db312c	1.6331082e-06
41	0x35db43eb	1.6336538e-06
42	0x35dccf43	1.6451598e-06
43	0x35db86f6	1.635605e-06
44	0x35ddb7d0	1.651928e-06
45	0x35dbb25f	1.6368684e-06
46	0x35db1a63	1.6324451e-06
47	0x35db1306	1.6322308e-06
48	0x35db251f	1.6327575e-06
49	0x35db1933	1.6324105e-06
50	0x35db0f1a	1.6321167e-06
51	0x35db0eab	1.632104e-06
52	0x35db0eab	1.632104e-06
53	0x35db0eab	1.632104e-06
54	0x35db0eab	1.632104e-06
55	0x35db0eab	1.632104e-06
56	0x35db0eab	1.632104e-06
57	0x35db0eab	1.632104e-06
58	0x35db0ecf	1.6321081e-06
59	0x35db0dd8	1.6320801e-06
60	0x35db0f0b	1.632115e-06
61	0x35db1410	1.632261e-06
62	0x35ddc2d0	1.6522481e-06
63	0x35df5812	1.6640427e-06
64	0x35dd6ddd	1.6497758e-06
65	0x35dff124	1.6684976e-06
66	0x35dd6ec9	1.6498026e-06
67	0x35dfd971	1.6678079e-06
68	0x35e6df8a	1.7201394e-06
69	0x35f36733	1.8134946e-06
70	0x35f21864	1.8037504e-06
71	0x36002e4b	1.9100432e-06
72	0x35f4b37b	1.8231652e-06
73	0x35eb7b42	1.7544737e-06
74	0x35e647be	1.7157215e-06
75	0x35ea0aca	1.7437499e-06
76	0x35e1aa15	1.6813307e-06
77	0x35dd6db4	1.6497711e-06
78	0x35db7344	1.6350318e-06
79	0x35db221f	1.6326702e-06
80	0x35db473a	1.6337501e-06
81	0x35db2918	1.6328731e-06
82	0x35db0eab	1.632104e-06
83	0x35db0eab	1.632104e-06
84	0x35db0eab	1.632104e-06
85	0x35db0eab	1.632104e-06
86	0x35db0dd2	1.6320794e-06
87	0x35db08d7	1.6319344e-06
88	0x35db3336	1.6331676e-06
89	0x35e4238c	1.6997669e-06
90	0x35e7eb87	1.7279389e-06
91	0x35ea28ba	1.7446212e-06
92	0x35e6bc2e	1.7191103e-06
93	0x35fdbecb	1.8905497e-06
94	0x3613058b	2.1907933e-06
95	0x362fa16e	2.6170997e-06
96	0x364b7260	3.0315932e-06
97	0x36612816	3.3550946e-06
98	0x3679d36b	3.7226953e-06
99	0x368bc7e5	4.1657936e-06
100	0x368fd66d	4.2866945e-06
101	0x36916c1a	4.3339214e-06
102	0x3672f530	3.6203528e-06
103	0x36381775	2.743179e-06
104	0x3612a9d9	2.185456e-06
105	0x36063c21	2.0002556e-06
106	0x35f024fe	1.789216e-06
107	0x35e189f1	1.6803953e-06
108	0x35dcb202	1.6443084e-06
109	0x35db3da6	1.6334714e-06
110	0x35db0eab	1.632104e-06
111	0x35db0eab	1.632104e-06
112	0x35db0eab	1.632104e-06
113	0x35db0eab	1.632104e-06
114	0x35db0bd5	1.6320215e-06
115	0x35db14c6	1.6322817e-06
116	0x35dc9272	1.6433899e-06
117	0x35eaaf81	1.7485437e-06
118	0x35ed0c8d	1.7661529e-06
119	0x3602f360	1.9513172e-06
120	0x361bf00b	2.3236523e-06
121	0x364e8fb1	3.0780031e-06
122	0x3689ba03	4.104573e-06
123	0x36bacd6e	5.567147e-06
124	0x36e5efe1	6.8526574e-06
125	0x3718b6fa	9.102509e-06
126	0x3736afa8	1.08889435e-05
127	0x37537029	1.2602694e-05
128	0x37602733	1.3360567e-05
129	0x374d38ea	1.22322035e-05
130	0x371e3eb6	9.432135e-06
131	0x36f7ac2a	7.381216e-06
132	0x36b400ba	5.3645026e-06
133	0x36804583	3.8227895e-06
134	0x36450fb2	2.9364423e-06
135	0x360ec250	2.1272754e-06
136	0x35f861ae	1.8505868e-06
137	0x35e30a2e	1.6915781e-06
138	0x35dbcee3	1.6376983e-06
139	0x35db3891	1.6333234e-06
140	0x35db0eab	1.632104e-06
141	0x35db0eab	1.632104e-06
142	0x35db011c	1.6317094e-06
143	0x35db47ca	1.6337665e-06
144	0x35e22d58	1.6851509e-06
145	0x35eb541d	1.7533345e-06
146	0x3607f06e	2.0256516e-06
147	0x36283705	2.5065976e-06
148	0x367ca5ff	3.7647549e-06
149	0x36b4507c	5.3737876e-06
150	0x3707d964	8.097242e-06
151	0x373e75d3	1.1352316e-05
152	0x377d539a	1.509944e-05
153	0x37a3b6d7	1.9516256e-05
154	0x37c9960e	2.4030942e-05
155	0x37e93135	2.7798678e-05
156	0x37ea5614	2.7935057e-05
157	0x37da1848	2.5998932e-05
158	0x37b2db2c	2.1321313e-05
159	0x3782c5e4	1.5589358e-05
160	0x373f4a8c	1.1401844e-05
161	0x3701e5cb	7.742502e-06
162	0x36a2341b	4.834042e-06
163	0x364022f6	2.863058e-06
164	0x36051f37	1.9836714e-06
165	0x35de7e35	1.657702e-06
166	0x35dd9b55	1.6510991e-06
167	0x35dbf307	1.6387502e-06
168	0x35db0eab	1.632104e-06
169	0x35db0eab	1.632104e-06
170	0x35dae059	1.630756e-06
171	0x35db8615	1.6355795e-06
172	0x35e2f707	1.6910207e-06
173	0x35ee66ef	1.776234e-06
174	0x36236461	2.434732e-06
175	0x367c1a09	3.756608e-06
176	0x36be2981	5.667273e-06
177	0x37129c4b	8.738668e-06
178	0x3762c57f	1.3516633e-05
179	0x3797ecc4	1.8110855e-05
180	0x37befb17	2.2766688e-05
181	0x37fd831b	3.0221001e-05
182	0x380e1459	3.387439e-05
183	0x3818e0e8	3.6449084e-05
184	0x381dc70a	3.7617086e-05
185	0x3816b7b7	3.5933885e-05
186	0x380377a4	3.1344258e-05
187	0x37d63d7b	2.5539417e-05
188	0x379a07b5	1.836182e-05
189	0x3743dbea	1.16741085e-05
190	0x36f5ed20	7.329174e-06
191	0x3684c72b	3.9570928e-06
192	0x36109e27	2.154973e-06
193	0x35e63198	1.7150769e-06
194	0x35de6165	1.6568634e-06
195	0x35dce3ea	1.6457609e-06
196	0x35db0e88	1.6321001e-06
197	0x35db07c4	1.6319032e-06
198	0x35dafd95	1.6316068e-06
199	0x35dd37e5	1.6482051e-06
200	0x35ed67af	1.7688052e-06
201	0x3609890f	2.049437e-06
202	0x3646c6ce	2.9620019e-06
203	0x36a632a3	4.9530804e-06
204	0x37060d73	7.990154e-06
205	0x3751b0e6	1.2498558e-05
206	0x37937654	1.7578866e-05
207	0x37b64ac7	2.1730912e-05
208	0x37e907d5	2.7779412e-05
209	0x380576dd	3.182037e-05
210	0x380af9bd	3.313435e-05
211	0x380fa45a	3.424692e-05
212	0x38155997	3.5607805e-05
213	0x381c3a52	3.7247613e-05
214	0x3815ff91	3.5762383e-05
215	0x37f9d8ea	2.9784122e-05
216	0x37c5833d	2.3545343e-05
217	0x3787a012	1.6167793e-05
218	0x372e7817	1.0399169e-05
219	0x36b3a705	5.3540593e-06
220	0x362bfe74	2.5629097e-06
221	0x36011671	1.923556e-06
222	0x35e55c9e	1.7088785e-06
223	0x35dc6207	1.6419807e-06
224	0x35db1400	1.6322592e-06
225	0x35dadec5	1.63071e-06
226	0x35de9c67	1.6585808e-06
227	0x35e00375	1.6690307e-06
228	0x35f11b6e	1.7963882e-06
229	0x3617e512	2.263409e-06
230	0x365a8c30	3.2566131e-06
231	0x36d2f35d	6.286819e-06
232	0x371f5dbd	9.498964e-06
233	0x377e54c2	1.5159314e-05
234	0x37a747f7	1.9941463e-05
235	0x37c4e781	2.3472823e-05
236	0x37e48d92	2.7245642e-05
237	0x37eab107	2.7977409e-05
238	0x37ebfe89	2.813271e-05
239	0x37f06333	2.8656423e-05
240	0x3804a277	3.162256e-05
241	0x381074d7	3.444109e-05
242	0x3810cc14	3.4522338e-05
243	0x37f99b63	2.975547e-05
244	0x37ce2e06	2.4578545e-05
245	0x37977820	1.805654e-05
246	0x373af178	1.1142685e-05
247	0x36d4a991	6.3378325e-06
248	0x363750b2	2.7316096e-06
249	0x35fa7fcd	1.8663646e-06
250	0x35e056fa	1.6714614e-06
251	0x35dafa07	1.6315033e-06
252	0x35db2825	1.6328455e-06
253	0x35db2b83	1.6329435e-06
254	0x35da7777	1.6277035e-06
255	0x35e02919	1.6701262e-06

exp_avg f4 [64]
0	0x38a64c9c	7.9297664e-05
1	0xba37c0ec	-0.00070096436
2	0x3a9634d5	0.0011459837
3	0xba853a3c	-0.001016445
4	0x3a3bece4	0.00071687833
5	0xba86ca2a	-0.0010283638
6	0xb98426e6	-0.00025205984
7	0xbabfafd1	-0.0014624541
8	0x3a7da753	0.00096761173
9	0x00000004	6e-45
10	0xba4cdb9d	-0.00078147074
11	0x3acbe108	0.0015554735
12	0x3a47eae6	0.000762625
13	0xb9dfacce	-0.00042662624
14	0x3b18fe0d	0.0023344785
15	0xbab2fe78	-0.001365616
16	0xbb0abb5c	-0.0021168804
17	0x398c3285	0.0002674052
18	0xba988a8c	-0.001163797
19	0x3b1fc266	0.0024377345
20	0x3ab555f7	0.0013834824
21	0x3a1afef3	0.0005912624
22	0x3b623b0e	0.0034520063
23	0x39c5f36b	0.0003775613
24	0x3a418c86	0.00073833053
25	0xba90955c	-0.0011030841
26	0xb9b170a6	-0.00033844
27	0x376184f0	1.3441997e-05
28	0xb915c6e2	-0.00014283837
29	0xb92562e0	-0.0001577246
30	0x39c968b0	0.00038415706
31	0x3a9268f4	0.0011170194
32	0xb9522542	-0.0002004104
33	0x3a4c80d7	0.0007801181
34	0x39eb0f54	0.00044834113
35	0x3a93fbf3	0.0011290297
36	0xb9fe9d0c	-0.00048563664
37	0xb9646782	-0.00021782334
38	0x3894a5d5	7.0880786e-05
39	0x3b1fd059	0.002438566
40	0xba74f6b3	-0.00093446224
41	0xb8df343e	-0.000106431995
42	0xbb30551f	-0.0026906205
43	0x3905d940	0.000127648
44	0xb9def15a	-0.0004252296
45	0xbb001d24	-0.001954862
46	0xba7cb2d6	-0.0009639686
47	0xb9261a08	-0.00015840691
48	0x3984298a	0.0002520795
49	0xb9ae9cdb	-0.00033304733
50	0x3afbed44	0.0019220491
51	0xbaca3272	-0.0015426411
52	0xba217428	-0.0006158971
53	0xb8ef8f41	-0.00011423091
54	0x3b00b82e	0.001964103
55	0x3938f39d	0.0001763836
56	0xba93432d	-0.001123523
57	0x3a3e5104	0.0007259997
58	0x3a4ba11b	0.0007767842
59	0xb9679ee0	-0.00022089062
60	0x3b0d9200	0.0021601915
61	0x3a261000	0.00063347816
62	0xb9973d82	-0.0002884679
63	0x385c7fc6	5.2571086e-05

exp_avg_sq f4 [64]
0	0x371828d8	9.069416e-06
1	0x376bc775	1.4053531e-05
2	0x37df0eae	2.6590507e-05
3	0x37b58f87	2.1643717e-05
4	0x378cd885	1.6790125e-05
5	0x3774f3fc	1.460034e-05
6	0x3785e8b9	1.5963205e-05
7	0x37384dbd	1.09853545e-05
8	0x3751e10b	1.2509768e-05
9	0x31977f92	4.4091815e-09
10	0x36ffb7b3	7.6209776e-06
11	0x37886b64	1.6262471e-05
12	0x3755d000	1.2744218e-05
13	0x3721fe90	9.655618e-06
14	0x379310b2	1.753154e-05
15	0x37b97f72	2.2113065e-05
16	0x37655ed0	1.3671539e-05
17	0x3708c78c	8.152692e-06
18	0x3796b04e	1.7963492e-05
19	0x37d16ecf	2.496634e-05
20	0x37d1f167	2.5027153e-05
21	0x373808f9	1.0969344e-05
22	0x37c006b1	2.28913e-05
23	0x379a1dc4	1.8372091e-05
24	0x37727bed	1.4453178e-05
25	0x3785021d	1.585582e-05
26	0x37b28f07	2.1285856e-05
27	0x3783a11e	1.5691443e-05
28	0x37268454	9.925181e-06
29	0x37408636	1.147534e-05
30	0x37ace5af	2.0610953e-05
31	0x3796917c	1.794914e-05
32	0x3704b131	7.909069e-06
33	0x3793dfa4	1.7627906e-05
34	0x3792ef59	1.7516011e-05
35	0x3788b3d8	1.629621e-05
36	0x37861c20	1.5987142e-05
37	0x3746ad8a	1.1842125e-05
38	0x3802b83d	3.1166e-05
39	0x3789ddac	1.6434897e-05
40	0x36bbb2ef	5.593865e-06
41	0x37789a55	1.4817885e-05
42	0x37cc3dfa	2.4347555e-05
43	0x378e62dc	1.6973754e-05
44	0x3720e59c	9.590203e-06
45	0x3777332e	1.47342635e-05
46	0x37b74176	2.1845783e-05
47	0x377cadba	1.5060819e-05
48	0x375a9238	1.3027857e-05
49	0x37b59ea7	2.165076e-05
50	0x378e33b7	1.69518e-05
51	0x378270f3	1.5549804e-05
52	0x3791b236	1.7368333e-05
53	0x3732d1d2	1.0658479e-05
54	0x3790385f	1.7192388e-05
55	0x37858f86	1.5921669e-05
56	0x37a34441	1.9462897e-05
57	0x3794bf8e	1.7732174e-05
58	0x37954432	1.779394e-05
59	0x378aa012	1.652542e-05
60	0x377cec32	1.5075364e-05
61	0x376a59e1	1.3968413e-05
62	0x3731a431	1.0588251e-05
63	0x377a91d7	1.4935117e-05

exp_avg f4 [64, 64]
0	0x396e9d39	0.00022756019
1	0x3b61a638	0.003443135
2	0x3b7c1649	0.0038465431
3	0x3bec7220	0.007215753
4	0x3a846ede	0.0010103842
5	0x3b72f302	0.0037071113
6	0x3a63e1d6	0.0008693015
7	0x3b41ed69	0.002959097
8	0x3b82104c	0.003969228
9	0x80000004	-6e-45
10	0x3ada6820	0.0016663112
11	0x3a479efa	0.0007614937
12	0x3ac5ea69	0.0015099767
13	0x3a7fda3a	0.00097599963
14	0x3ba43f99	0.0050124642
15	0x393f89c0	0.00018266495
16	0x3b930a3c	0.004487304
17	0x3996502e	0.00028669968
18	0xb8967238	-7.173832e-05
19	0x3a59f8f2	0.0008314989
20	0x3b90ca77	0.004418667
21	0x3b987f2c	0.004653832
22	0x3bbf79fd	0.0058433996
23	0x3a61f7c8	0.0008619991
24	0x39e7da36	0.00044222333
25	0xbad991a0	-0.0016599186
26	0x3a5711ab	0.0008204232
27	0x3a358f50	0.0006925957
28	0x3b7323b4	0.0037100138
29	0x3b0b8d31	0.0021293873
30	0x3aa9bc4e	0.0012949796
31	0xb9a87ac6	-0.0003213493
32	0xbaf818a3	-0.0018928241
33	0x3b82514d	0.003976977
34	0xb9ed11e9	-0.00045217507
35	0x3a19e454	0.00058705104
36	0xba19f859	-0.00058734935
37	0x3b8aca9e	0.0042355796
38	0x39ffa324	0.0004875894
39	0x3b5072ae	0.0031806636
40	0x3b5be0a8	0.0033550654
41	0x3b24def6	0.002515731
42	0x3ae661bd	0.0017576736
43	0x396e718a	0.00022739745
44	0x3b6269cb	0.003454792
45	0x3a87e2ba	0.0010367252
46	0xba8f697a	-0.0010941469
47	0x3b2b8a82	0.0026175086
48	0x3998b270	0.00029124646
49	0xb99947f2	-0.00029236038
50	0x3b33dc0c	0.002744439
51	0xbab11bd4	-0.0013512322
52	0x39fc34a7	0.00048104415
53	0x3b9e5008	0.004831318
54	0x3b164867	0.0022931339
55	0x3b87954a	0.0041376697
56	0xbb0607ed	-0.0020451501
57	0x3b0be15a	0.0021344037
58	0x3ae9971f	0.0017821527
59	0x38228890	3.8750994e-05
60	0x3b0e37de	0.002170078
61	0xba924fca	-0.0011162695
62	0x3a96e664	0.0011512754
63	0x3bb4472c	0.0055016484
64	0x3a030b80	0.0004998967
65	0x3b2d9eec	0.002649243
66	0xb866b2ac	-5.5002674e-05
67	0x3956b890	0.00020477385
68	0x3aef4be8	0.0018256875
69	0xbac40a10	-0.0014956612
70	0x3baeb769	0.005331923
71	0x3a2a69ac	0.00065007317
72	0x37ac8a40	2.0568375e-05
73	0x80000004	-6e-45
74	0x3b3d2da5	0.0028866318
75	0x3ba948e8	0.005166162
76	0xbb068e0e	-0.0020531449
77	0x3a2e80b6	0.00066567527
78	0x3a18f65a	0.0005835049
79	0x3a684c45	0.00088614627
80	0xbae2893b	-0.001728333
81	0x3bfcec90	0.00771863
82	0x3b96fe89	0.0046079797
83	0x3b064a18	0.002049094
84	0xba5c7510	-0.00084097777
85	0x3c19c78a	0.009385953
86	0x3a2e8cc6	0.000665855
87	0x3b8ab6de	0.0042332252
88	0x3b974498	0.0046163313
89	0x3a17089c	0.0005761476
90	0xbb11b1c5	-0.0022231203
91	0xbaf0f22e	-0.0018382722
92	0xb7cd8b40	-2.4502748e-05
93	0xb9b2e0ee	-0.0003411839
94	0xbb0bc920	-0.0021329597
95	0xbaf3c24c	-0.0018597334
96	0x3b8e6d53	0.0043465286
97	0x3c53da3f	0.012930452
98	0xba45f535	-0.00075514923
99	0x3b07b227	0.0020705552
100	0x3af10788	0.0018389085
101	0xbad48d44	-0.0016216417
102	0xbb2bb206	-0.002619864
103	0x3b40ddf1	0.0029429162
104	0xb8dc2390	-0.000104970415
105	0xbac49022	-0.0014996568
106	0x38584470	5.156215e-05
107	0x3ab8a092	0.001408594
108	0xbaf7d7c8	-0.0018908912
109	0xbb56efd5	-0.003279676
110	0x3ad57349	0.0016284968
111	0x3abcc964	0.0014403281
112	0x3a944bc4	0.0011314084
113	0x3b15121b	0.0022746387
114	0x3b421547	0.0029614733
115	0x3ab828a2	0.0014050195
116	0xba58ba60	-0.0008267518
117	0x3b7a7ca2	0.003822126
118	0x3a131e93	0.0005612161
119	0x3ba3acdc	0.0049949717
120	0x3afb60fe	0.0019178686
121	0xba836123	-0.0010023456
122	0x3b025d06	0.0019891872
123	0xbb0dd4a8	-0.0021641646
124	0x3b9e17a7	0.004824597
125	0x3aae6d90	0.0013307799
126	0xb9a4665b	-0.00031356778
127	0x3a2a2555	0.0006490548
128	0xbaa187fd	-0.0012323853
129	0xb94dc2dc	-0.00019622914
130	0xbb0d3561	-0.002154671
131	0x3b00c5d6	0.001964917
132	0xba8510fd	-0.0010152158
133	0x395705eb	0.00020506202
134	0xbacd0a18	-0.0015643267
135	0xb9bc6c67	-0.0003593892
136	0xba8c8a30	-0.0010722335
137	0x00000004	6e-45
138	0xb9cf77b8	-0.00039571314
139	0x39a6fdd8	0.00031851116
140	0xba3e8f9a	-0.0007269323
141	0xbb27dbbd	-0.0025613152
142	0xba8d5565	-0.0010782896
143	0x38cf4968	9.884202e-05
144	0x3a5e29ce	0.00084748573
145	0x37bad2b0	2.2271037e-05
146	0xba1d1d98	-0.00059934845
147	0xb8be0e7e	-9.0626054e-05
148	0xb9e66419	-0.00043943597
149	0xbb086f1e	-0.0020818184
150	0xb949b18d	-0.00019234997
151	0xba51c32d	-0.0008001801
152	0xba82f463	-0.0009991046
153	0xb957b00b	-0.00020569579
154	0xba86314c	-0.001023808
155	0xb81db168	-3.759694e-05
156	0xbad982a1	-0.0016594717
157	0x39739b2f	0.00023232096
158	0xb8df59b8	-0.0001065018
159	0xba53550f	-0.0008061686
160	0xba8ca7ac	-0.0010731122
161	0xbadf5fd2	-0.0017042106
162	0xb7f5ac10	-2.9286399e-05
163	0xbb130821	-0.0022435265
164	0x3a2de564	0.0006633608
165	0x3a8e2b49	0.001084664
166	0xba071070	-0.00051522907
167	0xbb095839	-0.0020957126
168	0xbae3ceb4	-0.0017380328
169	0xba10a8e8	-0.0005518333
170	0xba33d0ea	-0.0006859439
171	0x3984c3b6	0.00025322818
172	0x3a403fba	0.0007333715
173	0x39009d0f	0.0001226554
174	0xba20d7d6	-0.00061356777
175	0xbab2cbf4	-0.0013641105
176	0xb94e11cb	-0.0001965232
177	0xb8de72b0	-0.00010607147
178	0xba2a43f4	-0.0006495111
179	0x39244252	0.00015664965
180	0x39471941	0.00018987527
181	0xb8a60a11	-7.917372e-05
182	0xba076c3d	-0.000516597
183	0x3a8c21f0	0.0010691267
184	0xba31077f	-0.0006753131
185	0xba89a515	-0.0010501469
186	0xb9fb18ea	-0.00047893013
187	0xbaaeecdd	-0.0013345737
188	0xbac1cae1	-0.0014785194
189	0xb9b52dec	-0.00034557225
190	0xba918140	-0.0011101142
191	0x39df4683	0.0004258641
192	0x3ab24d75	0.0013603406
193	0xba01e0cd	-0.00049544574
194	0x3ac0bcf1	0.0014704746
195	0xba2c2e70	-0.0006568199
196	0x3a8c5e3c	0.0010709236
197	0x3a57c8f8	0.0008231546
198	0x3b13b832	0.002254021
199	0xba2276ac	-0.0006197493
200	0x39b0aee6	0.00033699645
201	0x80000004	-6e-45
202	0x399b34eb	0.0002960333
203	0x3abefad9	0.0014570608
204	0x3a3df71e	0.0007246601
205	0x3b180769	0.0023197776
206	0x3a92cadc	0.0011199373
207	0xba143de9	-0.0005654977
208	0xba2142a1	-0.0006151591
209	0x3b323e42	0.0027197753
210	0x3ab37a83	0.0013693128
211	0x3a8f5f2c	0.0010938398
212	0x3a979ec3	0.00115677
213	0x3b6529a3	0.0034967444
214	0x3ad6df1a	0.0016393394
215	0x3b1d15e3	0.0023969344
216	0x3a8dceaf	0.0010819043
217	0x3a5e7571	0.0008486128
218	0x3b006566	0.0019591688
219	0x39a8c55d	0.00032190504
220	0x3a3ecc1c	0.00072783395
221	0x39725edb	0.00023114255
222	0x39df1db0	0.00042555993
223	0x3a2c51ad	0.000657345
224	0x3b56e651	0.0032791088
225	0x3b4ad90f	0.003095213
226	0x3aa8400f	0.0012836474
227	0x3b5f6965	0.003408992
228	0x371f97e9	9.512508e-06
229	0x393cd4c7	0.00018008343
230	0xb98db8dd	-0.0002703135
231	0x3b2e1804	0.0026564607
232	0xbaa91e08	-0.0012902627
233	0xb93a2d7f	-0.00017755291
234	0xba0d225f	-0.0005383845
235	0x3a25ea25	0.0006329141
236	0xbaa2ae56	-0.0012411575
237	0xbab4cc0e	-0.0013793723
238	0x3a5ca32a	0.00084166473
239	0x39da3047	0.0004161617
240	0x3a9cf3ea	0.0011974548
241	0x3a0540d6	0.00050832087
242	0x3a6397d7	0.00086819887
243	0xb7c33e2a	-2.3274759e-05
244	0xb8eee639	-0.00011391607
245	0x3b2d4778	0.0026440304
246	0x3aaf98b4	0.001339695
247	0xb9864f30	-0.0002561747
248	0x3b039385	0.0020076942
249	0x3ad0f1c1	0.0015941189
250	0x3a88937f	0.0010419934
251	0x3ad11939	0.0015952952
252	0x3b2e3199	0.0026579855
253	0x3abb6884	0.0014298116
254	0xb9a2fc49	-0.00031087015
255	0x3a262236	0.0006337495
