lightning_logs/version_6/checkpoints/epoch=2-step=645.ckpt (torch, 668780 bytes, 18 tensors)

model.1.weight f4 [64, 784]
-0.0057653775 0.0148613565 0.00870619 0.007860432 -0.032797094 -0.019230466 -0.02554203 -0.023213075
0.015952596 -0.01228806 -0.01641814 0.0004226335 -0.01398356 0.0038592778 0.0350256 0.030710425
-0.022526084 -0.03240854 0.013551079 -0.035632867 -0.016973447 -0.012859546 0.033445355 0.032910895
-0.013999059 0.003796952 0.023086498 0.0105239665 -0.030556867 -0.003860765 0.033824336 0.022265324
0.024339305 -0.005391073 0.010621989 -0.015024353 -0.03497621 0.022923317 -0.008454059 -0.008125667
-0.04281214 -0.009208289 -0.01406993 0.0033201817 0.016737035 0.0017986385 0.01956722 0.022353308
-0.019249111 0.020868149 -0.018264845 0.027953492 -0.022314062 -0.035782587 -0.0062752976 0.0033288738
0.03044796 0.034665104 -0.023091836 -0.020651398 -0.021504715 0.0061105257 -0.028360164 -0.009976084
0.010148656 -0.029616961 -0.036787294 -0.05053782 -0.046023894 -0.032099206 -0.033254433 -0.035595298
-0.015930489 -0.04060336 -0.0043802946 -0.05201973 -0.04314388 0.0020570904 -0.02099807 0.010358303
-0.033688642 0.0041579274 -0.009048941 0.029848365 0.02313229 0.011306527 0.0004907025 -0.0327382
0.03216611 -0.0024992712 0.0111761615 -0.019703329 -0.00019618889 -0.013986768 -0.014790787 -0.014684562
-0.023379996 -0.03033336 -0.054378428 -0.0022768665 -0.027118739 -0.015513691 -0.052766703 0.0011690393
0.00346576 -0.001234874 -0.034535144 0.00034324356 -0.013239506 -0.03379635 0.008074965 0.022689374
-0.0049742693 0.007943043 0.032768015 0.034424156 0.019422965 -0.02915441 0.031779457 0.010367025
0.04176091 0.010467568 -0.0106304465 0.026791688 0.038978133 0.011665418 -0.00591728 -0.008482668
-0.021680482 -0.021958835 -0.011925876 -0.012574201 0.018396763 0.0062885475 -0.018940894 0.008833437
0.030028036 0.018114539 0.01979005 0.011847486 0.0010295507 0.023521239 0.007486319 0.02012309
0.037548337 0.012102479 0.033478986 0.036458757 0.0057544666 0.034305308 0.004436052 0.025554262
0.029533867 0.0059426855 0.00671506 0.032461092 0.005545816 0.033536278 0.03808276 -0.022871858
-0.017424613 -0.008613314 -0.0072834035 -0.03660385 -0.043859214 -0.03334456 0.012643984 0.022814106
0.03045652 -0.033753008 -0.0037118343 -0.008839918 0.029777983 0.008390943 0.05443367 0.0183238
0.010750699 0.040715087 0.016587503 0.036988676 0.014907497 -0.008446413 0.023807751 0.019229947
-0.007963211 -0.023650082 -0.010759879 0.026487347 0.037441004 0.008128021 -0.002816243 -0.0063163876
0.020111801 0.016560175 0.025129305 0.0061004395 -0.024042668 -0.021367596 -0.029384721 -0.03495069
-0.024291238 0.012474897 -0.0144619215 -0.013228855 0.0013909219 0.010399398 0.012305397 -0.023450386
-0.022285545 0.009517337 -0.0015662521 0.006558819 -0.036129184 -0.02816167 0.027329054 -0.0004898388
0.039723724 0.035042696 0.021818554 -0.021764109 -0.016547605 0.010940856 0.024480086 0.009101196
-0.018141503 -0.0074677747 0.0136694955 -0.018099641 -0.029868256 -0.0079292655 -0.016501747 0.028188024
-0.034001756 -0.035822615 -0.016384054 -0.038866013 -0.04420469 0.018901715 -0.027147915 -0.043416217
-0.055022884 0.015854163 -0.012179665 -0.017075323 0.016438432 0.016652528 -0.03396579 -0.009183575
-0.0053299456 -0.058469884 0.011722456 0.008106059 0.035083618 0.0068987506 0.0044171847 -0.02974157
00000000: 7eeb bcbb 0c7d 733c 68a4 0e3c 0bc9 003c
00000010: 3f56 06bd 3689 9dbc 853d d1bc 5929 bebc
00000020: 05af 823c dc53 49bc 567f 86bc e894 dd39
00000030: 4d1b 65bc f0eb 7c3b 0177 0f3d 6e94 fb3c
00000040: 9f88 b8bc d1be 04bd 5805 5e3c c5f3 11bd
00000050: e60b 8bbc d8b0 52bc fffd 083d 93cd 063d
00000060: 4f5c 65bc 49d6 783b e51f bd3c b76c 2c3c
00000070: 6552 fabc e304 7dbb 638b 0a3d c565 b63c
00000080: 3963 c73c 99a7 b0bb da07 2e3c b428 76bc
00000090: 3743 0fbd aec9 bb3c e582 0abc 8521 05bc
000000a0: c85b 2fbd 5dde 16bc 9085 66bc 6897 593b
000000b0: 1b1c 893c 4bc0 eb3a 6f4b a03c 491e b73c
000000c0: 50b0 9dbc aef3 aa3c 28a0 95bc b9fe e43c
000000d0: fbcb b6bc c390 12bd 03a1 cdbb 3c29 5a3b
000000e0: 006e f93c fffc 0d3d 172b bdbc 1f2d a9bc
000000f0: a82a b0bc ce3a c83b 9353 e8bc bb72 23bc
00000100: 8c46 263c 459f f2bc 46ae 16bd bf00 4fbd
00000110: 8d83 3cbd 757a 03bd cd35 08bd 60cc 11bd
00000120: a880 82bc b54f 26bd 9388 8fbb a412 55bd
00000130: a3b7 30bd 40d0 063b 2504 acbc dfb5 293c
00000140: 1afd 09bd 393f 883b 0242 14bc 8f84 f43c
00000150: ee7f bd3c 033f 393c 7da2 003a 7e18 06bd
00000160: 9cc0 033d d0ca 23bb 381c 373c e068 a1bc
00000170: 0eb8 4db9 c228 65bc 0f55 72bc 8497 70bc
00000180: 6887 bfbc ab7d f8bc eabb 5ebd 7b37 15bb
00000190: 1e28 debc 232d 7ebc e621 58bd 733a 993a
000001a0: ce21 633b 7fdb a1ba b974 0dbd 5ff5 b339
000001b0: 83ea 58bc 0b6e 0abd dc4c 043c 11df b93c
000001c0: 32ff a2bb 8923 023c c137 063d 5800 0d3d
000001d0: e91c 9f3c 3bd5 eebc 2d2b 023d 74da 293c
000001e0: 7d0d 2b3d 2a80 2b3c 532b 2ebc 3e7a db3c
000001f0: 89a7 1f3d 4f20 3f3c bee5 c1bb e3fa 0abc
00000200: 449b b1bc 04e3 b3bc c064 43bc 0604 4ebc
00000210: cfb4 963c 2910 ce3b ef29 9bbc 1fba 103c
00000220: 5bfd f53c f164 943c be1e a23c f51b 423c
00000230: fdf1 863a 9daf c03c cc4f f53b 2ed9 a43c
00000240: 49cc 193d 7a49 463c 4321 093d c755 153d
00000250: f78f bc3b b983 0c3d 4d5c 913b 2c57 d13c
00000260: 02f1 f13c dcba c23b 020a dc3b ecf5 043d
00000270: adb9 b53b 565d 093d abfc 1b3d c35d bbbc
00000280: 10be 8ebc db1e 0dbc 9ea9 eebb ebed 15bd
00000290: b8a5 33bd 4e94 08bd b628 4f3c a6e4 ba3c
000002a0: f47f f93c 9840 0abd 3f42 73bb 4ed5 10bc
000002b0: f5f0 f33c 2a7a 093c d7f5 5e3d cb1b 963c
000002c0: b323 303c ddc4 263d 84e2 873c 7081 173d
000002d0: 933e 743c d362 0abc 7908 c33c 1f88 9d3c
000002e0: 2178 02bc d1bd c1bc 344a 30bc fefb d83c
000002f0: bd5b 193d 642b 053c b890 38bb b3f9 cebb
00000300: 81c1 a43c 34a9 873c f9db cd3c 32e6 c73b
00000310: 21f5 c4bc 190b afbc 3ab8 f0bc 7428 0fbd
00000320: 6bfe c6bc 8363 4c3c b2f1 6cbc d7bd 58bc
00000330: 984f b63a 3d62 2a3c 939c 493c 061b c0bc
00000340: 2d90 b6bc 9bee 1b3c b34a cdba 5deb d63b
00000350: 32fc 13bd 4db3 e6bc 2ee1 df3c 8768 00ba
00000360: 58b5 223d ee88 0f3d d3bc b23c a54a b2bc
00000370: d88e 87bc 4741 333c 768a c83c 2f1d 153c
00000380: 7d9d 94bc 3cb4 f4bb 05f6 5f3c b345 94bc
00000390: 46ae f4bc c0e9 01bc ac2e 87bc 92ea e63c
000003a0: 6d45 0bbd bcba 12bd da37 86bc f831 1fbd
000003b0: fa0f 35bd c5d7 9a3c 4e65 debc 34d5 31bd
000003c0: ad5f 61bd 97e0 813c 388d 47bc 8ce1 8bbc
000003d0: e4a9 863c e26a 883c b61f 0bbd b576 16bc
000003e0: d3a6 aebb 1e7e 6fbd 8b0f 403c 47cf 043c
000003f0: d7b3 0f3d ea0e e23b 08be 903b 98a4 f3bc

model.1.bias f4 [64]
0.016252792 -0.015349694 0.04108852 0.016065795 0.03543771 -0.005712779 -0.00044537178 -0.023836235
0.030102367 0.008610327 0.015970632 -0.026750071 0.010290125 -0.0020112903 -0.0019710788 0.03901319
-0.00031689016 0.0012201853 0.0058091716 0.028302995 0.013565152 0.029552655 0.030109152 0.0072170785
0.00747204 0.012144984 -0.019572219 -0.0004767365 0.011158368 -0.018691154 0.013296363 0.0004946467
0.030317232 0.033123776 0.02556418 -0.012370527 0.03180493 0.011775938 -0.019289864 -0.02442129
-0.017316848 0.0006266049 0.009536156 -0.014073152 -0.016999615 -0.0059039597 0.025251437 -0.009199052
-0.003701736 -0.012304358 -0.0021828208 0.017102854 -0.0009475609 -0.027885962 0.024450297 0.04724131
0.0015714064 0.024478711 0.015461472 -0.029191393 0.03791026 0.015738452 0.023683151 0.022719275
00000000: 9324 853c 487d 7bbc 704c 283d 6a9c 833c
00000010: 2227 113d 4332 bbbb ca80 e9b9 3544 c3bc
00000020: 3d99 f63c 5412 0d3c d8d4 823c f722 dbbc
00000030: ea97 283c dacf 03bb 372d 01bb 4bcc 1f3d
00000040: 4724 a6b9 a0ee 9f3a dd5a be3b afdb e73c
00000050: 5f40 5e3c 6918 f23c 78a7 f63c 3e7d ec3b
00000060: 04d8 f43b c1fb 463c eb55 a0bc 7df2 f9b9
00000070: 96d1 363c 311e 99bc fdd8 593c 2eab 013a
00000080: d85b f83c ccac 073d f96b d13c c0ad 4abc
00000090: e345 023d ddef 403c c705 9ebc 280f c8bc
000000a0: 10dc 8dbc be42 243a 8a3d 1c3c 1493 66bc
000000b0: c742 8bbc 0176 c1bb 1adc ce3c 9fb7 16bc
000000c0: d398 72bb 3898 49bc a80d 0fbb 491b 8c3c
000000d0: bc65 78ba 1a71 e4bc fd4b c83c 1b80 413d
000000e0: a6f7 cd3a 9487 c83c 1d52 7d3c ca22 efbc
000000f0: ca47 1b3d eded 803c 2b03 c23c c61d ba3c

model.4.weight f4 [64, 64]
-0.049605563 0.09263334 0.05440516 -0.09724477 -0.03219506 0.11060085 -0.09602303 -0.069692336
0.12319863 0.11749961 0.01461602 0.046770412 -0.12871906 -0.121552944 0.04401934 -0.09484456
-0.059782136 -0.07043621 0.09331723 -0.04692855 -0.01660748 -0.055346604 -0.049830988 0.057905644
0.050354425 0.08496746 -0.0976295 -0.00878421 0.07488842 0.05383675 0.006192902 0.100206695
0.12797719 0.14173652 0.14915171 0.009972871 0.08997791 0.10946292 0.033346225 0.093105584
-0.04543444 0.024346493 0.14129946 0.07144149 0.11060143 -0.052362036 0.045310874 0.091999404
-0.0696611 -0.0038988213 -0.03646153 0.07876239 0.12322691 0.10911476 0.16072708 0.006421321
0.04820223 0.07796857 0.012697105 -0.03079604 -0.059986603 -0.12125135 -0.08701726 0.07979337
0.023003208 0.074659035 -0.17405424 -0.12375968 0.13754964 0.05401536 0.109476864 0.03330516
0.114531286 -0.077477366 -0.039179128 0.14832056 0.13171732 -0.09559764 -0.027912345 -0.110694446
-0.1287947 0.054783095 -0.011380569 -0.1323483 -0.012095919 -0.00701986 0.13962938 -0.070759915
-0.042094722 -0.0020776577 0.110128276 0.1178706 0.044927754 0.1079522 -0.014310016 0.024098229
0.071149364 0.15147094 0.17142862 0.0304333 0.13467827 0.09242955 0.09769895 0.14123072
-0.07822965 0.10830758 -0.059587322 -0.111345105 -0.009571633 -0.14026943 0.080035254 0.0488536
0.046284486 -0.06059445 0.04283814 -0.006881772 0.079816654 0.08040338 -0.017173033 0.089522906
-0.15029651 -0.04884414 0.0016330846 0.15399078 -0.051595654 -0.042249087 -0.018245453 0.040124785
0.12288377 -0.07815371 0.0010873777 0.09217903 -0.015993016 0.00045318605 -0.11256756 0.06245254
0.040944587 0.100821726 -0.093378395 0.08402796 -0.06898237 0.086023554 0.04399356 -0.024878351
-0.012255762 0.04263271 0.05386982 -0.09622041 -0.06584933 -0.02714189 -0.06555627 -0.02303338
0.08765193 -0.13111012 -0.06567654 -0.012218943 0.07819143 -0.04817912 -0.094699726 -0.119274125
0.07050977 -0.016098522 -0.04365127 0.00069017947 0.12086914 -0.0034234435 -0.13211328 -0.07582546
-0.10858394 -0.040602606 0.045588702 -0.026280975 0.116518475 0.05204947 -0.08084154 0.13311821
0.15535627 0.06584243 -0.08875921 -0.055276036 -0.098029345 0.16275777 0.03489778 0.10316726
-0.06164765 -0.07823032 -0.08031528 -0.13396037 0.103129186 0.06338239 0.036065802 0.15496962
0.11378458 0.038218144 -0.018686209 -0.13178347 -0.02797326 0.048261702 -0.028081564 -0.09801371
0.106689714 -0.033838876 0.11161154 0.041649584 0.014610666 -0.030057566 -0.04913065 -0.030212646
0.040572118 0.011165878 0.09725087 -0.021222012 -0.020080868 -0.11814081 -0.032527406 -0.09224413
-0.07121738 0.14712752 0.06737623 0.13051121 -0.103294194 0.16615461 0.02289224 0.11484553
-0.061725397 -0.06621224 -0.10964851 -0.015765319 0.054510742 0.09913457 0.04608607 0.069625184
0.16932485 -0.08993653 -0.020842815 0.09182649 -0.052138086 -0.04946774 0.09577431 -0.14859305
0.14189568 0.06976509 0.014761495 0.10164456 -0.014089569 0.17215154 -0.024171313 -0.068738855
-0.10988429 -0.060102608 -0.111054376 0.072539695 -0.13349801 0.002489507 0.15610512 -0.1115807
00000000: 342f 4bbd 8cb6 bd3d f2d7 5e3d 4428 c7bd
00000010: f8de 03bd b382 e23d b9a7 c4bd dbba 8ebd
00000020: 904f fc3d a3a3 f03d 0878 6f3c 5592 3f3d
00000030: eece 03be c0f0 f8bd a04d 343d dd3d c2bd
00000040: 1dde 74bd dc40 90bd 1b1d bf3d 2738 40bd
00000050: 690c 88bc 1fb3 62bd 941b 4cbd 782e 6d3d
00000060: 7140 4e3d 6b03 ae3d faf1 c7bd a6eb 0fbc
00000070: 1a5f 993d ed83 5c3d d4ed ca3b 2b39 cd3d
00000080: 740c 033e 6123 113e 3abb 183e 4165 233c
00000090: 5746 b83d 182e e03d 0d96 083d 24ae be3d
000000a0: 7719 3abd 4c72 c73c ceb0 103e ea4f 923d
000000b0: 0183 e23d 9379 56bd e597 393d 2f6a bc3d
000000c0: 7baa 8ebd 5e83 7fbb af58 15bd 2d4e a13d
000000d0: 645e fc3d 8f77 df3d a495 243e f269 d23b
000000e0: b46f 453d fcad 9f3d 8507 503c fa47 fcbc
000000f0: 83b4 75bd a152 f8bd 1b36 b2bd b56a a33d
00000100: 3971 bc3c d6e6 983d 463b 32be b775 fdbd
00000110: d0d9 0c3e 363f 5d3d 6835 e03d fe6a 083d
00000120: 618f ea3d 74ac 9ebd 4b7a 20bd 58e1 173e
00000130: e8e0 063e b2c8 c3bd 6ea8 e4bc c5b3 e2bd
00000140: c2e2 03be 3d64 603d 9175 3abc 5086 07be
00000150: f62d 46bc db06 e6bb 01fb 0e3e 93ea 90bd
00000160: 846b 2cbd 5029 08bb ef8a e13d 2466 f13d
00000170: 2a06 383d 0b16 dd3d 8f74 6abc a669 c53c
00000180: c2b6 913d 331b 1b3e fc8a 2f3e 424f f93c
00000190: 1ae9 093e b44b bd3d 6316 c83d c99e 103e
000001a0: de36 a0bd 5dd0 dd3d d611 74bd e708 e4bd
000001b0: 57d2 1cbc caa2 0fbe 86e9 a33d b61a 483d
000001c0: cd94 3d3d e331 78bd 0c77 2f3d 7d80 e1bb
000001d0: ea76 a33d 87aa a43d 76ae 8cbc c957 b73d
000001e0: 54e7 19be cb10 48bd 3a0d d63a c2af 1d3e
000001f0: f755 53bd 610d 2dbd 7d77 95bc e359 243d
00000200: 7caa fb3d 0d0f a0bd 5786 8e3a 5cc8 bc3d
00000210: c903 83bc 9a99 ed39 d289 e6bd 3cce 7f3d
00000220: 83b5 273d 9f7b ce3d 2c3d bfbd da16 ac3d
00000230: a146 8dbd 1e2d b03d 9732 343d afcd cbbc
00000240: 64cc 48bc a39f 2e3d 9aa6 5c3d 350f c5bd
00000250: 03dc 86bd ab58 debc 5e42 86bd 80b0 bcbc
00000260: db82 b33d bb41 06be 6c81 86bd f631 48bc
00000270: d422 a03d 7857 45bd eef1 c1bd fe45 f4bd
00000280: 6d67 903d 0ce1 83bc adcb 32bd 29ed 343a
00000290: 3d8a f73d da5b 60bb b448 07be 614a 9bbd
000002a0: 4261 debd eb4e 26bd 38bb 3a3d 334b d7bc
000002b0: 3da1 ee3d d331 553d 4090 a5bd 2450 083e
000002c0: b715 1f3e 65d8 863d 64c7 b5bd 2069 62bd
000002d0: 9cc3 c8bd f9a9 263e f9f0 0e3d 5b49 d33d
000002e0: 3f82 7cbd 3837 a0bd 567c a4bd e82c 09be
000002f0: 6535 d33d a0ce 813d bcb9 133d 5bb0 1e3e
00000300: e407 e93d a18a 1c3d d213 99bc 3ff2 06be
00000310: 2e28 e5bc 10ae 453d 4f0b e6bc 69bb c8bd
00000320: 2380 da3d a29a 0abd 9794 e43d c198 2a3d
00000330: 9361 6f3c 493b f6bc 383d 49bd 8380 f7bc
00000340: f32e 263d 16f1 363c 772b c73d c9d9 adbc
00000350: a280 a4bc cff3 f1bd 753b 05bd 7eea bcbd
00000360: 6bda 91bd 99a8 163e 8dfc 893d bba4 053e
00000370: e88b d3bd 6f24 2a3e 8288 bb3c 2234 eb3d
00000380: c5d3 7cbd 489a 87bd 668f e0bd 4526 81bc
00000390: a846 5f3d 1107 cb3d bfc4 3c3d a697 8e3d
000003a0: 7e63 2d3e a530 b8bd 8dbe aabc 870f bc3d
000003b0: bf8e 55bd af9e 4abd 5225 c43d c728 18be
000003c0: 1a4d 113e 00e1 8e3d 33da 713c 062b d03d
000003d0: f0d7 66bc 7e48 303e eb02 c6bc f5c6 8cbd
000003e0: 040b e1bd 272e 76bd 7a70 e3bd b18f 943d
000003f0: b4b3 08be ff26 233b 05da 1f3e 6c84 e4bd

model.4.bias f4 [64]
-0.005956894 -0.0031825944 -0.0821287 0.09707464 -0.0823812 0.03954682 0.06319473 0.081241846
-0.061517216 0.07597979 -0.09940296 0.09404013 0.09690439 -0.07773396 0.04643219 0.06777625
-0.03441851 -0.0776847 0.012790829 0.110355124 0.09157302 -0.020121144 -0.08920735 -0.0668548
0.033841807 0.050761506 0.12117445 -0.063620366 0.07063798 0.09175323 -0.031009048 0.08697459
0.13762635 -0.08620949 0.0020075834 -0.029149015 0.102527134 0.14732403 -0.052048247 -0.018372705
-0.021407656 0.024453731 0.08774307 -0.074070014 -0.03790046 0.04519014 -0.014150812 -0.057085514
-0.04977166 -0.04955495 -0.0082475655 0.07588887 -0.07705507 -0.019439949 -0.050027397 -0.034240216
0.10155876 0.14167573 0.046481084 -0.05580624 0.03108534 -0.013675696 0.070643544 0.10879688
00000000: 0c32 c3bb 1393 50bb 1833 a8bd 12cf c63d
00000010: 79b7 a8bd d9fb 213d 3d6c 813d 2062 a63d
00000020: 7af9 7bbd 4b9b 9b3d c793 cbbd 1d98 c03d
00000030: cf75 c63d fb32 9fbd ae2f 3e3d 46ce 8a3d
00000040: 6cfa 0cbd 2819 9fbd a090 513c de01 e23d
00000050: a38a bb3d 19d5 a4bc 58b2 b6bd 2beb 88bd
00000060: b59d 0a3d 4ceb 4f3d 4f2a f83d 654b 82bd
00000070: a5aa 903d 1ee9 bb3d b006 febc bc1f b23d
00000080: eced 0c3e 9a8e b0bd a991 033b eac9 eebc
00000090: bff9 d13d 1cdc 163e 8b30 55bd 5b82 96bc
000000a0: 1c5f afbc 3153 c83c a4b2 b33d 05b2 97bd
000000b0: 833d 1bbd 4c19 393d cfd8 67bc 80d2 69bd
000000c0: 5edd 4bbd 22fa 4abd cc20 07bc a06b 9b3d
000000d0: 0ccf 9dbd 8740 9fbc 87e9 4cbd 783f 0cbd
000000e0: 0afe cf3d 7113 113e f362 3e3d 1595 64bd
000000f0: afa6 fe3c 0710 60bc 90ad 903d e6d0 de3d

model.7.weight f4 [10, 64]
0.041566044 0.031718906 -0.08100146 -0.10752638 0.117645785 0.009409864 0.13132909 -0.114426754
0.09445728 -0.15420339 0.04664774 0.08904817 -0.019327955 -0.07612565 -0.08200512 -0.11110202
-0.03314689 -0.10433634 -0.09594787 0.105545215 -0.17402768 -0.033633992 -0.011582377 -0.121211484
-0.14379585 -0.13123389 -0.046539024 -0.14040181 -0.030303476 0.044146065 0.017734932 0.07814974
0.1554094 0.09145619 -0.013631319 -0.1906858 0.010292175 0.14689092 0.054655574 -0.19122498
0.103092894 -0.15783916 0.08663268 0.14017203 0.05986175 -0.11007989 0.08913859 0.19137591
-0.12880452 -0.052505456 -0.12650594 0.0033436057 -0.032053713 -0.048636995 0.111462474 -0.07407593
0.14576846 -0.017970437 0.12849471 -0.17548609 0.011186817 0.071800224 -0.16048545 -0.06773151
0.097568914 -0.022203024 -0.09266522 -0.089375235 -0.18030669 0.066110864 -0.017512016 0.057961654
-0.09081942 0.03262467 -0.15713687 -0.1450977 -0.16419438 0.04694684 -0.011320439 0.14628099
0.035716794 -0.057953592 0.097606465 -0.10695912 0.14959355 0.076453134 0.12554264 -0.13468416
0.14584696 0.11084496 -0.14629565 -0.099463 0.01845298 -0.17803088 -0.12768881 -0.08811741
0.079463676 -0.10268161 -0.13665447 -0.054918546 -0.0999258 0.06531302 -0.19501263 0.06656645
0.07387658 -0.111350894 -0.09280908 -0.045675665 -0.10700912 0.024463367 -0.06982264 0.002668151
0.15997031 -0.10423534 -0.14241405 0.055737697 -0.1143588 0.12560439 0.006967036 -0.16174705
-0.15199406 0.10083666 -0.17043728 0.14346145 -0.08983224 0.1427326 0.124986865 -0.078801304
0.09029942 0.008907789 0.09346895 -0.0028343613 -0.017560342 -0.10903721 -0.07762371 -0.11301731
-0.014651967 0.11011789 -0.11076491 0.1308094 -0.06470199 0.080709584 0.09167461 0.12779433
0.06928061 0.063983575 -0.061605763 0.14088802 0.16736567 0.09107002 0.11178493 -0.031935904
-0.069002844 -0.01646448 -0.080302075 -0.054193094 0.013176548 -0.020001763 0.112708345 -0.041586883
-0.11279083 -0.1357813 -0.15712294 0.009477449 0.11390116 0.00913689 -0.0673186 -0.13138367
0.085071415 -0.044620577 0.11256072 -0.09442803 -0.09902054 0.09765061 0.1271516 -0.018783346
-0.091158375 0.083939165 0.1057122 -0.011278949 0.14458182 0.10186134 0.04816198 -0.061238553
-0.016461551 0.13615263 -0.019816725 -0.14731468 -0.09806195 0.024531754 -0.15551478 -0.0672263
0.08911112 0.014994532 0.17063518 0.07899486 -0.100311644 -0.07926608 -0.10235846 0.11996226
-0.006481901 0.08411126 0.038905405 0.07654397 -0.15988174 -0.07741763 -0.1335594 -0.09588437
-0.12860358 -0.12304255 -0.039043017 0.12150703 -0.09154315 -0.015289558 0.056438375 -0.005001373
0.06236598 -0.05917201 -0.036300838 -0.14152603 0.07225439 -0.13067776 0.009959242 0.104548976
-0.10166277 0.16003552 -0.075220026 -0.08101266 -0.13956822 0.12730458 -0.08095809 -0.021114875
-0.07531334 -0.006176625 0.09825352 -0.026528427 -0.16496888 -0.084888145 -0.032252464 -0.073524885
0.061171 0.14600801 -0.08905051 -0.16563037 0.15136987 -0.04840723 0.072525874 0.08993383
-0.08190788 0.026702156 -0.035199665 -0.0734731 0.12023409 -0.11698104 0.16813716 0.07475606
00000000: 2841 2a3d afeb 013d 18e4 a5bd ca36 dcbd
00000010: 46f0 f03d d52b 1a3c 227b 063e 9358 eabd
00000020: d272 c13d 7ee7 1dbe b311 3f3d e35e b63d
00000030: a955 9ebc c4e7 9bbd 4df2 a7bd 7589 e3bd
00000040: 09c5 07bd 4bae d5bd 5180 c4bd 1728 d83d
00000050: 5034 32be ccc3 09bd 03c4 3dbc ba3d f8bd
00000060: 383f 13be 2d62 06be b49f 3ebd 7ec5 0fbe
00000070: ff3e f8bc 81d2 343d d948 913c f90c a03d
00000080: a423 1f3e 624d bb3d e555 5fbc 2343 43be
00000090: 83a0 283c 936a 163e 86de 5f3d 7bd0 43be
000000a0: 5e22 d33d 97a0 21be 796c b13d 4289 0f3e
000000b0: 9831 753d 9171 e1bd 4b8e b63d 0cf8 433e
000000c0: 55e5 03be f60f 57bd c68a 01be 6520 5b3b
000000d0: c14a 03bd 9637 47bd 7046 e43d 1fb5 97bd
000000e0: 5444 153e bd36 93bc 1e94 033e a0b2 33be
000000f0: e948 373c ff0b 933d 4c56 24be d1b6 8abd
00000100: 36d2 c73d 1ee3 b5bc 43c7 bdbd 5d0a b7bd
00000110: 51a2 38be 2265 873d 5c75 8fbc 3369 6d3d
00000120: 88ff b9bd 72a1 053d 7de8 20be 7e94 14be
00000130: 9222 28be 544b 403d 5d79 39bc afca 153e
00000140: c64b 123d bf60 6dbd e6e5 c73d 620d dbbd
00000150: 0d2f 193e 7693 9c3d 408e 003e a5ea 09be
00000160: e858 153e af02 e33d 87ce 15be 42b3 cbbd
00000170: b42a 973c ba4d 36be dbc0 02be e776 b4bd
00000180: dabd a23d bc4a d2bd 26ef 0bbe 45f2 60bd
00000190: e6a5 ccbd d5c2 853d 64b1 47be fe53 883d
000001a0: 9b4c 973d f00b e4bd b012 bebd 6816 3bbd
000001b0: 9927 dbbd 6667 c83c 2cff 8ebd 25dc 2e3b
000001c0: 42cf 233e 5779 d5bd fdd4 11be 364d 643d
000001d0: f234 eabd 709e 003e bc4b e43b 05a1 25be
000001e0: 55a4 1bbe 7383 ce3d 1c87 2ebe 8fe7 123e
000001f0: f7f9 b7bd 7f28 123e 1df9 ff3d 9462 a1bd
00000200: e7ee b83d faf1 113c a66c bf3d b1c0 39bb
00000210: b5da 8fbc e74e dfbd 2ef9 9ebd 9f75 e7bd
00000220: ce0e 70bc 7d85 e13d b7d8 e2bd e6f2 053e
00000230: 7a82 84bd 114b a53d e6bf bb3d 84dc 023e
00000240: fee2 8d3d d209 833d 5356 7cbd f344 103e
00000250: e861 2b3e eb82 ba3d 7fef e43d 39cf 02bd
00000260: 5d51 8dbd 84e0 86bc 6a75 a4bd 94f9 5dbd
00000270: 73e2 573c bdda a3bc a2d3 e63d 0257 2abd
00000280: e1fe e6bd 410a 0bbe d6e4 20be 4d47 1b3c
00000290: 0345 e93d e5b2 153c 56de 89bd 7189 06be
000002a0: ec39 ae3d 11c4 36bd 3c86 e63d 7c63 c1bd
000002b0: 48cb cabd 0bfd c73d 0734 023e 88df 99bc
000002c0: 3eb1 babd 4ce8 ab3d a37f d83d 57cb 38bc
000002d0: 420d 143e ae9c d03d 7f45 453d 47d5 7abd
000002e0: 60da 86bc 986b 0b3e af56 a2bc a9d9 16be
000002f0: b4d4 c8bd d1f6 c83c 443f 1fbe f1ad 89bd
00000300: e47f b63d a0ab 753c fdba 2e3e 0fc8 a13d
00000310: 3170 cdbd 4156 a2bd 50a1 d1bd c6ae f53d
00000320: 2066 d4bb 8642 ac3d 465b 1f3d 16c3 9c3d
00000330: 0ab8 23be 228d 9ebd ccc3 08be 065f c4bd
00000340: a8b0 03be bcfd fbbd 92eb 1fbd aed8 f83d
00000350: fa7a bbbd 0e81 7abc ed2b 673d 8fe2 a3bb
00000360: 7873 7f3d 595e 72bd 30b0 14bd 33ec 10be
00000370: 1cfa 933d 64d0 05be 172c 233c c61d d63d
00000380: 9234 d0bd 5ae0 233e f50c 9abd f7e9 a5bd
00000390: f9ea 0ebe 225c 023e 5bcd a5bd 1af9 acbc
000003a0: e13d 9abd 4965 cabb 2439 c93d 2552 d9bc
000003b0: 9aed 28be d6d9 adbd 291b 04bd 3794 96bd
000003c0: 718e 7a3d 2083 153e 1d60 b6bd 029b 29be
000003d0: b400 1b3e a946 46bd 7288 943d 3a2f b83d
000003e0: 52bf a7bd 7bbe da3c 862d 10bd 1179 96bd
000003f0: 4a3d f63d c193 efbd 262c 2c3e b519 993d

model.7.bias f4 [10]
-0.09394664 -0.07563876 -0.022652615 0.0026541145 0.11379357 0.067475885 -0.06857028 -0.06033828
0.10669666 -0.06538175
00000000: 1967 c0bd 7fe8 9abd fa91 b9bc a7f0 2d3b
00000010: 9a0c e93d cc30 8a3d 936e 8cbd 4625 77bd
00000020: c783 da3d dee6 85bd

exp_avg f4 [64, 784]
-0.000107733846 -0.000107733846 -0.000107733846 -0.000107733846 -0.000107733846 -0.000107733846 -0.000107733846 -0.000107733846
-0.000107733846 -0.000107733846 -0.000107733846 -0.000107733846 -0.00010771674 -0.000107696425 -0.000107733846 -0.000107733846
-0.000107733846 -0.000107733846 -0.000107733846 -0.000107733846 -0.000107733846 -0.000107733846 -0.000107733846 -0.000107733846
-0.000107733846 -0.000107733846 -0.000107733846 -0.000107733846 -0.000107733846 -0.000107733846 -0.000107733846 -0.000107733846
-0.000107733846 -0.000107733846 -0.000107733846 -0.000107726395 -0.00010767837 -0.00010048486 -3.8064438e-05 -7.579264e-05
-9.89891e-05 -9.563656e-05 -8.041231e-05 -7.1345785e-05 -9.1703325e-05 -8.8527355e-05 -0.00010170487 -9.743212e-05
-9.369589e-05 -0.000103492566 -6.7743626e-05 -5.186223e-05 -0.000107733846 -0.000107733846 -0.000107733846 -0.000107733846
-0.000107733846 -0.000107733846 -0.000107733846 -0.000107733846 -0.000107685126 -0.00010755982 -0.00010684433 -9.097572e-05
-6.0834453e-05 -4.7034606e-05 -4.6202263e-06 -9.480545e-06 -2.0115873e-05 9.32344e-06 -1.0863735e-05 -2.9827605e-05
-5.7552912e-05 -6.3299965e-05 -7.046494e-05 -5.012363e-05 3.3813594e-05 4.6677807e-05 6.683807e-06 -3.8981703e-05
-9.997993e-05 -0.00010773077 -0.000107733846 -0.000107733846 -0.000107733846 -0.000107733846 -0.00010773391 -0.00010773403
-0.00010773578 -0.00010576326 -0.00010191125 -7.120818e-05 7.6835626e-05 0.00015368531 3.5546494e-05 2.7128974e-05
0.00015530059 0.00012233215 0.00012137073 -5.840812e-05 -0.00018516564 -0.00018062015 -0.00010300086 -2.8415701e-05
9.453942e-05 0.00013373252 3.617913e-05 1.899979e-05 1.4556555e-05 -0.000105185696 -0.000107733846 -0.000107733846
-0.000107733846 -0.000107733846 -0.00010773424 -0.00010793914 -0.00010701849 -0.0001246245 -0.00011804526 -4.998372e-05
0.0001046454 -2.657269e-05 -0.00011865116 -0.0002016111 -4.0186747e-05 -0.00031546524 -0.0004187991 -0.00031742026
-0.00025116763 -0.00011443046 -0.00020019428 -0.00038223318 -0.00021402688 0.000102939215 1.4448703e-06 -4.749384e-05
-0.00010032172 -0.00013947018 -0.000105476065 -0.000107133215 -0.000107733846 -0.000107733846 -0.00010775103 -0.000118442345
-0.00012124033 -0.00013048766 -7.8522935e-05 -0.00015017393 4.370681e-05 -0.00022934229 -0.0003202057 -0.00038312917
-0.00067536783 -0.00062943064 -0.00077239226 -0.0009894264 -0.001232931 -0.00074391253 -0.00026735401 -0.0004318634
-0.00011861315 -0.00018853927 -0.00018111155 -0.0002453528 -0.0001780623 -0.00015267721 -0.00010758052 -0.00010772116
-0.000107733846 -0.00010773357 -0.00010800272 -4.6095152e-05 -9.435976e-05 -6.043486e-05 1.4298088e-05 -9.204239e-05
-0.00028913733 -0.00033968972 -9.346052e-05 -5.9210906e-05 -0.00022181196 -0.0005356121 -0.0010439334 -0.0012134978
-0.001122811 -0.0007306339 6.1991595e-06 6.818737e-05 0.00042783306 0.00035515308 0.00014477943 -0.00022984142
-0.00018423269 -0.000107221735 -0.0001060971 -0.000106165106 -0.000107700005 -0.000107591106 -0.000107393804 -3.841091e-05
-6.255001e-05 -7.6233824e-05 5.4435935e-05 3.3598386e-05 -0.0006490751 -0.0004270564 6.3704356e-05 0.00025823034
-0.0008257599 -0.0009942746 -0.00074139674 -0.00034749732 -0.00019054535 0.0004054008 0.00079332164 0.0007079908
0.00079506915 0.00059728825 0.000117734715 -0.00015146696 -8.370255e-06 -2.2451733e-05 -5.817339e-05 -0.00010705438
-0.00010759637 -0.00010711221 -9.873312e-05 -4.6544836e-05 3.2462867e-05 -2.9675843e-05 -5.927806e-05 8.346041e-05
-8.27234e-05 -0.00014378129 0.0002085643 -0.00034380416 -0.0003430475 -1.128913e-05 0.00015259294 0.0005204145
0.00044022375 0.00038839324 0.00024052477 -0.00018775895 0.00035514726 0.0005173492 0.00023774772 0.0003689175
0.00030473308 0.00010703861 -1.8446457e-05 -0.000112071204 -0.00010771153 -0.000106794796 -9.816567e-05 -6.155565e-05
00000000: 2bef e1b8 2bef e1b8 2bef e1b8 2bef e1b8
00000010: 2bef e1b8 2bef e1b8 2bef e1b8 2bef e1b8
00000020: 2bef e1b8 2bef e1b8 2bef e1b8 2bef e1b8
00000030: fce5 e1b8 14db e1b8 2bef e1b8 2bef e1b8
00000040: 2bef e1b8 2bef e1b8 2bef e1b8 2bef e1b8
00000050: 2bef e1b8 2bef e1b8 2bef e1b8 2bef e1b8
00000060: 2bef e1b8 2bef e1b8 2bef e1b8 2bef e1b8
00000070: 2bef e1b8 2bef e1b8 2bef e1b8 2bef e1b8
00000080: 2bef e1b8 2bef e1b8 2bef e1b8 2beb e1b8
00000090: 62d1 e1b8 66bb d2b8 61a7 1fb8 ddf2 9eb8
000000a0: 5e98 cfb8 7d90 c8b8 08a3 a8b8 7a9f 95b8
000000b0: d950 c0b8 c3a7 b9b8 634a d5b8 7954 ccb8
000000c0: 997e c4b8 260a d9b8 9511 8eb8 a586 59b8
000000d0: 2bef e1b8 2bef e1b8 2bef e1b8 2bef e1b8
000000e0: 2bef e1b8 2bef e1b8 2bef e1b8 2bef e1b8
000000f0: 03d5 e1b8 bd91 e1b8 9d11 e0b8 38ca beb8
00000100: 7f28 7fb8 0647 45b8 7107 9bb6 a10e 1fb7
00000110: 82be a8b7 df6b 1c37 6343 36b7 4b36 fab7
00000120: f864 71b8 e9bf 84b8 94c6 93b8 d73b 52b8
00000130: 12d3 0d38 eac7 4338 7745 e036 4980 23b8
00000140: 51ac d1b8 84ed e1b8 2bef e1b8 2bef e1b8
00000150: 2bef e1b8 2bef e1b8 34ef e1b8 44ef e1b8
00000160: 35f0 e1b8 38cd ddb8 30b9 d5b8 9a55 95b8
00000170: d022 a138 9626 2139 c217 1538 0793 e337
00000180: 2fd8 2239 4946 0039 6a88 fe38 3efb 74b8
00000190: 0629 42b9 da64 3db9 2a02 d8b8 415e eeb7
000001a0: 7743 c638 8d3a 0c39 0cbf 1738 bd61 9f37
000001b0: ed37 7437 2497 dcb8 2bef e1b8 2bef e1b8
000001c0: 2bef e1b8 2bef e1b8 61ef e1b8 625d e2b8
000001d0: 1d6f e0b8 a2ad 02b9 118f f7b8 9ca5 51b8
000001e0: 1275 db38 6be8 deb7 5bd4 f8b8 9167 53b9
000001f0: 318e 28b8 0765 a5b9 4492 dbb9 6d6b a6b9
00000200: 26af 83b9 63fa efb8 3eeb 51b9 7866 c8b9
00000210: 676c 60b9 12e1 d738 5eed c135 1f34 47b8
00000220: d063 d2b8 be3e 12b9 0833 ddb8 b5ac e0b8
00000230: 2bef e1b8 2bef e1b8 65f8 e1b8 4064 f8b8
00000240: 6842 feb8 84d3 08b9 aeac a4b8 0278 1db9
00000250: d451 3738 9a7b 70b9 48e1 a7b9 bade c8b9
00000260: 2b0b 31ba 6000 25ba 5e7a 4aba a4af 81ba
00000270: 4d9a a1ba 2003 43ba a62b 8cb9 b96b e2b9
00000280: f3bf f8b8 a0b2 45b9 c3e8 3db9 b2a2 80b9
00000290: 3cb6 3ab9 fa17 20b9 da9c e1b8 5be8 e1b8
000002a0: 2bef e1b8 05ef e1b8 857f e2b8 4b56 41b8
000002b0: 03e3 c5b8 707b 7db8 d2e1 6f37 e206 c1b8
000002c0: 5b97 97b9 6218 b2b9 3c00 c4b8 3a59 78b8
000002d0: 3296 68b9 5268 0cba 98d4 88ba 3b0e 9fba
000002e0: 492b 93ba 0388 3fba 6002 d036 d1ff 8e38
000002f0: c84e e039 d733 ba39 efcf 1739 9601 71b9
00000300: 962e 41b9 3bdc e0b8 7280 deb8 f5a4 deb8
00000310: 00dd e1b8 89a2 e1b8 9c38 e1b8 671b 21b8
00000320: 482d 83b8 b9df 9fb8 2452 6438 feeb 0c38
00000330: b126 2aba 8ae6 dfb9 0499 8538 1763 8739
00000340: cf77 58ba 5252 82ba 4b5a 42ba 4d30 b6b9
00000350: 21cd 47b9 f98b d439 eaf6 4f3a 7598 393a
00000360: 306c 503a 5693 1c3a 58e8 f638 1ad3 1eb9
00000370: f96d 0cb7 bb56 bcb7 34ff 73b8 6282 e0b8
00000380: 5ca5 e1b8 6ea1 e0b8 f10e cfb8 2339 43b8
00000390: bd28 0838 63f0 f8b7 55a1 78b8 7707 af38
000003a0: ca7b adb8 ffc3 16b9 0eb2 5a39 9d40 b4b9
000003b0: 0edb b3b9 7266 3db7 5b01 2039 6d6c 083a
000003c0: d5cd e639 42a1 cb39 6035 7c39 29e1 44b9
000003d0: 0f33 ba39 b89e 073a eb4b 7939 456b c139
000003e0: 95c4 9f39 eb79 e038 77bd 9ab7 c507 ebb8
000003f0: 30e3 e1b8 05f7 dfb8 4bde cdb8 7017 81b8

exp_avg_sq f4 [64, 784]
4.378433e-07 4.378433e-07 4.378433e-07 4.378433e-07 4.378433e-07 4.378433e-07 4.378433e-07 4.378433e-07
4.378433e-07 4.378433e-07 4.378433e-07 4.378433e-07 4.4063574e-07 4.473457e-07 4.3774855e-07 4.3783683e-07
4.378433e-07 4.378433e-07 4.378433e-07 4.378433e-07 4.378433e-07 4.378433e-07 4.378433e-07 4.378433e-07
4.378433e-07 4.378433e-07 4.378433e-07 4.378433e-07 4.378433e-07 4.378433e-07 4.378433e-07 4.378433e-07
4.3784075e-07 4.3784166e-07 4.3881863e-07 4.3924476e-07 4.4740966e-07 4.3963e-07 4.6779368e-07 4.6135366e-07
4.472143e-07 4.348925e-07 4.4413662e-07 4.4605463e-07 4.7587105e-07 4.6322685e-07 4.4851691e-07 4.4107955e-07
4.3698032e-07 4.3540103e-07 4.318937e-07 4.3195993e-07 4.378433e-07 4.378433e-07 4.378433e-07 4.378433e-07
4.378433e-07 4.378433e-07 4.3821314e-07 4.3830957e-07 4.370244e-07 4.3775873e-07 4.3638548e-07 4.4472213e-07
4.5306427e-07 4.60235e-07 5.756639e-07 5.4477465e-07 5.8130684e-07 6.387026e-07 6.7713927e-07 6.621206e-07
7.009784e-07 6.662016e-07 6.041254e-07 5.340887e-07 5.172921e-07 4.961075e-07 4.3990016e-07 4.299899e-07
4.3977138e-07 4.390575e-07 4.378433e-07 4.378433e-07 4.378433e-07 4.378433e-07 4.387976e-07 4.395724e-07
4.3803377e-07 4.3577103e-07 4.3251725e-07 4.8075e-07 5.201555e-07 5.432127e-07 7.2688374e-07 6.8331696e-07
7.388196e-07 9.2252327e-07 1.0395585e-06 1.1880626e-06 1.1913187e-06 1.2133959e-06 1.1114723e-06 9.2246125e-07
7.994467e-07 6.538996e-07 4.86836e-07 4.550485e-07 4.4644273e-07 4.3989385e-07 4.375791e-07 4.378433e-07
4.378433e-07 4.3786818e-07 4.38356e-07 4.3817977e-07 4.3690594e-07 4.3157948e-07 4.6711338e-07 6.1721727e-07
7.302827e-07 9.452087e-07 1.1328208e-06 1.328892e-06 1.6360024e-06 2.031225e-06 2.4622886e-06 2.3385035e-06
2.1166052e-06 2.1144417e-06 1.7973193e-06 1.4021408e-06 1.0985403e-06 8.414897e-07 5.767908e-07 5.1183764e-07
5.0695536e-07 4.5173957e-07 4.3861058e-07 4.397421e-07 4.378433e-07 4.378433e-07 4.378274e-07 4.4033453e-07
4.4504193e-07 4.6968222e-07 6.0860975e-07 8.9774255e-07 1.1443999e-06 1.5263375e-06 1.9408326e-06 2.1752912e-06
2.9345001e-06 3.6885126e-06 4.5209767e-06 4.534614e-06 4.1800517e-06 3.7506873e-06 3.193057e-06 2.5642812e-06
1.9570873e-06 1.343576e-06 9.4531805e-07 7.010955e-07 5.794538e-07 4.8437846e-07 4.5861256e-07 4.4161317e-07
4.378433e-07 4.37871e-07 4.400124e-07 4.493046e-07 4.8662207e-07 5.7455816e-07 9.3679733e-07 1.2414592e-06
1.7584762e-06 2.4116323e-06 3.104952e-06 4.000863e-06 5.069146e-06 5.5199034e-06 6.435811e-06 6.566805e-06
5.7757034e-06 5.252008e-06 4.9405976e-06 3.948979e-06 3.1816874e-06 2.326585e-06 1.6321221e-06 1.0956786e-06
7.080574e-07 5.0859956e-07 4.487924e-07 4.369848e-07 4.378459e-07 4.3861564e-07 4.372713e-07 4.5838888e-07
5.528746e-07 7.270583e-07 1.0739882e-06 1.4897412e-06 2.476661e-06 3.1747436e-06 4.3409495e-06 5.426034e-06
6.204955e-06 6.623708e-06 7.639224e-06 7.5209546e-06 6.9260295e-06 7.0337414e-06 6.5353947e-06 5.290853e-06
4.043785e-06 3.2467171e-06 2.3600783e-06 1.3325579e-06 8.8356813e-07 6.2351506e-07 4.7599448e-07 4.3678742e-07
4.378535e-07 4.3676792e-07 4.3850903e-07 4.838746e-07 6.0748175e-07 7.692137e-07 1.2097418e-06 1.9205404e-06
2.9856972e-06 3.6555778e-06 5.086291e-06 6.003031e-06 6.0842144e-06 7.1508794e-06 8.286559e-06 7.874821e-06
7.131682e-06 7.2256357e-06 7.1330496e-06 5.8697e-06 4.962722e-06 3.852666e-06 2.615746e-06 1.50463e-06
9.2626277e-07 6.2821283e-07 4.5411048e-07 4.3938536e-07 4.3769333e-07 4.339353e-07 4.4172975e-07 4.830813e-07
00000000: ba10 eb34 ba10 eb34 ba10 eb34 ba10 eb34
00000010: ba10 eb34 ba10 eb34 ba10 eb34 ba10 eb34
00000020: ba10 eb34 ba10 eb34 ba10 eb34 ba10 eb34
00000030: 8490 ec34 ba2a f034 b403 eb34 d60f eb34
00000040: ba10 eb34 ba10 eb34 ba10 eb34 ba10 eb34
00000050: ba10 eb34 ba10 eb34 ba10 eb34 ba10 eb34
00000060: ba10 eb34 ba10 eb34 ba10 eb34 ba10 eb34
00000070: ba10 eb34 ba10 eb34 ba10 eb34 ba10 eb34
00000080: 6010 eb34 8010 eb34 c696 eb34 57d1 eb34
00000090: 8433 f034 4a06 ec34 1325 fb34 f7af f734
000000a0: aa18 f034 2c7b e934 ac71 ee34 4879 ef34
000000b0: 387b ff34 6ab1 f834 b2cb f034 83cd ec34
000000c0: 1e9a ea34 10c1 e934 05df e734 1fe8 e734
000000d0: ba10 eb34 ba10 eb34 ba10 eb34 ba10 eb34
000000e0: ba10 eb34 ba10 eb34 8e43 eb34 cf50 eb34
000000f0: 2da0 ea34 1a05 eb34 5d48 ea34 25c2 ee34
00000100: ae3c f334 3716 f734 5287 1a35 a13c 1235
00000110: 1a0b 1c35 4f73 2b35 a8c4 3535 95bc 3135
00000120: de2a 3c35 06d5 3235 2e2b 2235 4c5e 0f35
00000130: 0bdc 0a35 3f2c 0535 6b2b ec34 5dd9 e634
00000140: b819 ec34 9ab7 eb34 ba10 eb34 ba10 eb34
00000150: ba10 eb34 ba10 eb34 e293 eb34 5ffe eb34
00000160: e72a eb34 eaf3 e934 b834 e834 e30c 0135
00000170: d0a0 0b35 4bd1 1135 121f 4335 2f6d 3735
00000180: 4c53 4635 51a3 7735 f586 8b35 8575 9f35
00000190: 66e5 9f35 f7db a235 e62d 9535 0e9f 7735
000001a0: 8f99 5635 a387 2f35 1daf 0235 644d f434
000001b0: 9fae ef34 8d2a ec34 6aec ea34 ba10 eb34
000001c0: ba10 eb34 2514 eb34 3157 eb34 f83e eb34
000001d0: e58f ea34 d5b3 e734 93c7 fa34 d9ae 2535
000001e0: a508 4435 3fba 7d35 6d0b 9835 625c b235
000001f0: 9d94 db35 2e50 0836 cc3d 2536 2fef 1c36
00000200: 000b 0e36 d5e5 0d36 6c3b f135 3131 bc35
00000210: 8f71 9335 bbe2 6135 c3d4 1a35 3765 0935
00000220: b515 0835 9d86 f234 2e7a eb34 b215 ec34
00000230: ba10 eb34 ba10 eb34 8a0e eb34 1e67 ec34
00000240: 19ee ee34 a228 fc34 585f 2335 66fc 7035
00000250: 4899 9935 8fdc cc35 403f 0236 38fb 1136
00000260: 54ee 4436 2a88 7736 e5b2 9736 0a28 9836
00000270: 5f42 8c36 51b4 7b36 4d48 5636 0416 2c36
00000280: 8156 0336 eb54 b435 c3c1 7d35 ea32 3c35
00000290: c38b 1b35 3c06 0235 3b37 f634 da16 ed34
000002a0: ba10 eb34 8814 eb34 d83a ec34 f437 f134
000002b0: 6aa0 0235 563b 1a35 3978 7b35 37a0 a635
000002c0: c804 ec35 87d7 2136 ab5e 5036 273f 8636
000002d0: a217 aa36 9c37 b936 32f3 d736 6d58 dc36
000002e0: eacc c136 683a b036 69c7 a536 7981 8436
000002f0: f984 5536 6d22 1c36 4a0f db35 3b0f 9335
00000300: 5611 3e35 b286 0835 8ff1 f034 bc9a ea34
00000310: 1511 eb34 e07a eb34 1cc2 ea34 7d18 f634
00000320: 4169 1435 112b 4335 f425 9035 1ef3 c735
00000330: b634 2636 ae0d 5536 79a8 9136 4711 b636
00000340: 2834 d036 3841 de36 382a 0037 825c fc36
00000350: 2466 e836 6103 ec36 9d4a db36 1588 b136
00000360: d9af 8736 2de2 5936 d661 1e36 57da b235
00000370: 572e 6d35 a15f 2735 2f8c ff34 9b7f ea34
00000380: 2012 eb34 ed7c ea34 396c eb34 9ce3 0135
00000390: d411 2335 f77b 4e35 695e a235 a2e2 0036
000003a0: e35d 4836 5952 7536 e8aa aa36 a56d c936
000003b0: 0127 cc36 96f1 ef36 8006 0b37 191e 0437
000003c0: af4c ef36 bd73 f236 6e58 ef36 57f4 c436
000003d0: 7585 a636 2646 8136 2d8a 2f36 b1f2 c935
000003e0: 4ba4 7835 75a2 2835 78cc f334 aae4 eb34
000003f0: 1dfc ea34 9df7 e834 e026 ed34 18ad 0135

exp_avg f4 [64]
0.00025396174 -0.0005598238 -0.0005734281 -6.7780624e-05 0.00046617148 0.00045296087 8.547616e-06 -0.00043868684
-1.2699935e-05 -0.00028218303 9.944149e-05 0.00073098554 0.0006061176 0.0008663408 -0.00096818723 0.0009182413
0.00022780908 -0.00046955864 2.3296392e-05 -5.284472e-05 -0.00018963186 -4.625819e-05 0.0002519351 -0.00036018377
0.00065406016 -0.0003406293 0.0002548369 0.00012646294 -0.00014678999 0.00022436588 -0.00034251172 7.352708e-05
0.00045386452 -4.1894065e-05 0.00064742647 0.00028724832 0.0007746376 -1.1476006e-05 0.0001231498 -0.00025869795
-0.00028870106 -0.00027543912 0.0002461988 -2.2558323e-05 0.000602536 3.223518e-05 0.0002626297 0.00075952616
-3.329664e-05 -0.00014516844 -0.0004914774 0.00047496922 0.0005575263 0.0005946829 -0.0007307346 0.0007357913
0.00022689097 0.0006225181 0.0002834666 0.00024710924 0.00034372162 -0.00011133515 0.00023198836 0.00083109696
00000000: 2b26 8539 24c1 12ba 1c52 16ba 7225 8eb8
00000010: 7a68 f439 617b ed39 bb67 0f37 8dff e5b9
00000020: ce11 55b7 f7f1 93b9 3e8b d038 9c9f 3f3a
00000030: dde3 1e3a 261b 633a f2cd 7dba 21b6 703a
00000040: 09e0 6e39 182f f6b9 9f6c c337 96a5 5db8
00000050: ead7 46b9 5a05 42b8 2816 8439 0cd7 bcb9
00000060: 3c75 2b3a 7e96 b2b9 a19b 8539 239b 0439
00000070: a3eb 19b9 c243 6b39 2593 b3b9 8d32 9a38
00000080: aaf4 ed39 69b7 2fb8 0eb8 293a d199 9639
00000090: 0d11 4b3a 1289 40b7 c621 0139 daa1 87b9
000000a0: cd5c 97b9 d068 90b9 3e14 8139 a13b bdb7
000000b0: 82f3 1d3a 4334 0738 90b1 8939 f01a 473a
000000c0: ffa7 0bb8 5b38 18b9 7dd6 00ba 4a05 f939
000000d0: f526 123a 7ee4 1b3a c58e 3fba 1ee2 403a
000000e0: 95e9 6d39 7c30 233a 3e9e 9439 718e 8139
000000f0: 8935 b439 9b7c e9b8 e741 7339 f9dd 593a

exp_avg_sq f4 [64]
2.4330504e-06 3.2438343e-06 1.8032212e-06 2.199694e-06 4.479438e-06 2.0530806e-06 3.022466e-08 1.8665013e-06
1.4809248e-06 3.3853719e-06 2.7904316e-06 2.1320993e-06 2.375233e-06 2.9691578e-06 3.9450747e-06 3.755328e-06
2.0596979e-06 3.1594193e-06 2.113506e-06 5.662623e-06 2.7614733e-06 1.5653076e-06 1.6076694e-06 2.2501963e-06
1.466128e-06 2.4920646e-06 3.3315655e-06 2.0885511e-06 1.3456668e-06 1.9795077e-06 1.947465e-06 2.5015058e-06
3.7909865e-06 2.5761412e-06 2.297187e-06 2.5416475e-06 2.0530845e-06 1.048629e-08 2.3645202e-06 1.731332e-06
2.3384484e-06 1.8115097e-06 2.7263648e-06 1.1788973e-06 2.4439707e-06 2.5658521e-06 2.1100652e-06 3.5248568e-06
1.948337e-06 4.3839286e-06 2.6781086e-06 3.0850624e-06 2.1758253e-06 2.1625654e-06 1.5430126e-06 2.2119557e-06
2.221674e-06 1.6171365e-06 2.6783587e-06 3.1553564e-06 2.281738e-06 2.9815376e-06 1.9546378e-06 2.4875337e-06
00000000: 7d47 2336 a6b0 5936 3506 f235 759e 1336
00000010: 144e 9636 a8c7 0936 5dd0 0133 7f84 fa35
00000020: 30c4 c635 3f30 6336 4043 3b36 3015 0f36
00000030: 3166 1f36 be41 4736 ef5f 8436 0b04 7c36
00000040: 5739 0a36 6906 5436 c2d5 0d36 9001 be36
00000050: c051 3936 8f17 d235 1ac7 d735 1402 1736
00000060: c6c7 c435 583d 2736 dc93 5f36 0929 0c36
00000070: c29c b435 afd7 0436 32b1 0236 8bdf 2736
00000080: a768 7e36 c5e1 2c36 5f29 1a36 2c91 2a36
00000090: b9c7 0936 3127 3432 26ae 1e36 1d60 e835
000000a0: 3dee 1c36 0023 f335 97f6 3636 9a3a 9e35
000000b0: 1903 2436 0131 2c36 a59a 0d36 948c 6c36
000000c0: 2dc0 0236 a919 9336 8eb9 3336 f808 4f36
000000d0: 6504 1236 9720 1136 8219 cf35 1c71 1436
000000e0: 1218 1536 630c d935 dabd 3336 9cc0 5336
000000f0: f61f 1936 6d16 4836 6c2c 0336 81ef 2636

exp_avg f4 [64, 64]
0.0016690698 -0.00094981276 -0.00032437837 0.0002720298 0.0013232686 0.0002503223 -8.222552e-07 -0.00088873046
0.00014695904 -0.0016577103 -0.00024221932 0.0018464071 0.00019331499 0.0008847393 -0.0015004141 6.1099825e-05
4.6672045e-05 -9.9454155e-05 0.00015727567 -0.00028964132 0.0004975085 -0.00048741017 0.0019696758 0.0014540821
0.0008485637 0.00092917593 0.00019784969 -6.917281e-05 -0.0013562783 0.0007738834 -3.9533075e-05 -0.0009107674
-0.0021214774 -0.00019924164 -0.0001436501 -0.00042890932 -0.00083592307 2.6336208e-08 0.0002067441 -8.749748e-05
0.001649881 -0.00094713597 0.0010278771 0.0003560864 9.100878e-06 -4.4858452e-06 -0.00019580306 -0.0014781285
0.0013931674 0.00028950642 -0.0013743159 0.00034704496 0.00043783485 -0.0005168288 -0.0014813995 0.00085276365
-0.0012258479 -0.0014851461 -0.0011113663 0.0011215948 0.0015279221 -4.0450537e-05 0.0018956672 -0.00091243297
-0.00070825825 0.0019361735 0.0024960346 0.0025334859 0.0011510983 0.00050546566 -1.6132716e-08 0.0016804998
0.00075166026 0.0018771278 0.0011593255 0.0023774968 0.0016815494 0.00021371085 0.0012365866 0.0003072017
0.00038722318 0.0028288702 0.0020747099 0.0014693786 0.0011026231 0.003438367 9.526678e-05 0.00022022928
0.001103331 0.0005214871 0.0034508172 0.00018539041 0.00047539035 -0.0006223597 5.583088e-05 -0.00047298498
0.00060509174 0.0011203475 -0.00020207198 0.0015842498 0.000121169214 3.854162e-08 -0.0010625185 0.00038757938
0.0005746971 0.0015168332 0.0009864853 0.0013150667 0.0010484948 0.0007662398 -6.313106e-05 0.0007082613
0.002140603 0.0012100546 0.0011364537 0.0017963735 0.0009287266 -0.00048790994 -0.00024927486 0.0026745657
0.0018915022 0.0005579351 0.0010810368 -0.0010390284 0.0009754965 0.0008410314 -0.00022344053 0.0012917431
-0.00022304007 0.0010933763 0.0011296041 0.00035457435 2.3694689e-05 0.0013100512 -1.023793e-06 0.0017739187
-0.00011682275 0.0008501345 -0.0002977068 -0.0015711813 0.00041517042 5.7534788e-05 0.00055940606 0.00084385055
0.00084308157 -0.00022287444 5.8891605e-05 0.00047635438 -0.0006085077 0.00078899827 0.00049238245 0.0006884692
0.0009127523 0.00086092186 0.00018049774 -0.00082281267 0.0006225746 -0.000516552 -0.00046611868 0.00089417124
0.0008632218 -0.00041610893 0.00023855496 0.00040309486 -0.00071131875 -3.4462277e-11 -5.9250346e-05 0.00020190876
2.2299959e-05 0.0011840443 0.0008847155 0.0009578496 0.00016887195 0.0003200165 6.379038e-05 0.0005239462
0.00036298277 0.00075496914 0.0009239447 0.00039616038 0.0012350156 -0.0011449826 0.001018265 0.0026298258
0.0014543275 0.00079908455 0.0018319933 0.00029814328 0.0012570142 0.00054290524 -0.0005168168 0.0006560798
-0.0025587797 0.0011331491 0.00086447585 2.9221781e-05 -0.00013865464 -0.0006258315 4.3003382e-07 0.0015277303
0.0003969841 0.0016903679 0.0014460485 -0.0005744777 3.0273952e-05 -0.0008604462 0.0005717269 0.00043172433
0.0002766831 0.0015333074 -1.8474379e-05 0.00011781673 1.33867525e-05 0.0011369198 -0.001221058 -0.00078118156
-0.00066861295 -0.0007108437 0.002645856 -0.00049833657 0.0010450807 -0.00092724216 -0.00046349212 -6.663862e-05
0.0010224193 0.0011361027 -0.00024062989 0.00024397447 -0.0004973557 7.086256e-08 -0.0006699668 -0.00040996555
-0.00069887924 0.00057046633 -0.00056763156 0.00030892092 -0.000116176496 0.0011876699 0.0006720523 0.00092455634
-0.00043897828 -0.00044095487 0.00075203023 -2.2111974e-05 0.00075755984 -0.0008769311 0.0007027659 0.00086848054
0.001539956 4.9761484e-06 0.0006010483 -0.001752787 -7.2861167e-06 0.00022737937 -0.002968032 0.00028166123
00000000: b0c4 da3a dbfc 78ba 5411 aab9 399f 8e39
00000010: 8771 ad3a b13d 8339 f2b8 5cb5 b1f9 68ba
00000020: 0419 1a39 8747 d9ba 41fc 7db9 2403 f23a
00000030: 99b4 4a39 d9ed 673a 8ba9 c4ba b822 8038
00000040: bac1 4338 0b92 d0b8 5eea 2439 00db 97b9
00000050: 3b6b 023a 168b ffb9 ad15 013b e696 be3a
00000060: 2572 5e3a f193 733a df75 4f39 df10 91b8
00000070: 26c5 b1ba 70de 4a3a 51d0 25b8 91c0 6eba
00000080: 7c08 0bbb 85eb 50b9 c8a0 16b9 3cdf e0b9
00000090: d921 5bba ef39 e232 72c9 5839 da7e b7b8
000000a0: d240 d83a 3849 78ba d5b9 863a 1cb1 ba39
000000b0: f9af 1837 1e85 96b6 7c50 4db9 c3bd c1ba
000000c0: f19a b63a e5c8 9739 6422 b4ba 96f3 b539
000000d0: 338d e539 cb7b 07ba 852b c2ba 008c 5f3a
000000e0: a1ac a0ba 3ca9 c2ba 44ab 91ba 7a02 933a
000000f0: 8f44 c83a 6fa9 29b8 0978 f83a 5730 6fba
00000100: 68aa 39ba 34c7 fd3a 8394 233b d708 263b
00000110: 73e0 963a 3a81 043a 3894 8ab2 3744 dc3a
00000120: 110b 453a f509 f63a 82f4 973a c7cf 1b3b
00000130: 6f67 dc3a 9217 6039 f614 a23a ea0f a139
00000140: 3704 cb39 9164 393b dbf7 073b 2a98 c03a
00000150: e485 903a 3a56 613b f7c9 c738 59ed 6639
00000160: a59d 903a 68b4 083a 1b27 623b 5c65 4239
00000170: d03d f939 da25 23ba f32b 6a38 f8fa f7b9
00000180: 059f 1e3a a0d8 923a 49e3 53b9 9aa6 cf3a
00000190: 3a1c fe38 f688 2533 3444 8bba 0634 cb39
000001a0: 45a7 163a 7ad0 c63a f44c 813a 515e ac3a
000001b0: a66d 893a 7cdd 483a 3b65 84b8 9caa 393a
000001c0: 5c49 0c3b b29a 9e3a 0ff5 943a 4b74 eb3a
000001d0: c975 733a 2ace ffb9 1bb1 82b9 c447 2f3b
000001e0: 48ec f73a 6442 123a 93b1 8d3a 0230 88ba
000001f0: 76b8 7f3a a978 5c3a 5c4b 6ab9 b54f a93a
00000200: dddf 69b9 9f4f 8f3a 390f 943a 2ae6 b939
00000210: f5c3 c637 06b6 ab3a 4269 89b5 d682 e83a
00000220: bdfe f4b8 8fdb 5e3a 8815 9cb9 19f0 cdba
00000230: 3bab d939 8251 7138 1ba5 123a da35 5d3a
00000240: 3f02 5d3a 67b3 69b9 6102 7738 34bf f939
00000250: 4384 1fba c7d4 4e3a 3a13 013a 637a 343a
00000260: c545 6f3a 7daf 613a fe43 3d39 06b2 57ba
00000270: 4634 233a 3869 07ba 6461 f4b9 d166 6a3a
00000280: d649 623a 3229 dab9 9c24 7a39 7a56 d339
00000290: cb77 3aba 1391 17ae 9383 78b8 78b7 5339
000002a0: cc10 bb37 ef31 9b3a 41ec 673a 3318 7b3a
000002b0: 3813 3139 e3c7 a739 33c7 8538 6f59 093a
000002c0: b94e be39 1fe9 453a e134 723a bfb3 cf39
000002d0: 3fe0 a13a 3e13 96ba 4e77 853a 2859 2c3b
000002e0: 229f be3a a879 513a 7f1f f03a 1d50 9c39
000002f0: 66c2 a43a c151 0e3a fd7a 07ba c5fc 2b3a
00000300: 33b1 27bb 2d86 943a fe9d 623a 4c21 f537
00000310: d263 11b9 d70e 24ba 66df e634 1f3e c83a
00000320: 4e22 d039 568f dd3a 5689 bd3a 8c98 16ba
00000330: d1f4 fd37 918f 61ba f1df 153a 0f59 e239
00000340: c70f 9139 42f9 c83a 6df9 9ab7 6014 f738
00000350: aa97 6037 b304 953a e80b a0ba 35c8 4cba
00000360: db45 2fba ea57 3aba 1966 2d3b cda2 02ba
00000370: 17fb 883a 2b12 73ba dc00 f3b9 56c0 8bb8
00000380: b302 863a 48e9 943a 9851 7cb9 66d3 7f39
00000390: fa60 02ba 1b2d 9833 b6a0 2fba a5f0 d6b9
000003a0: fe34 37ba 598b 153a 1ccd 14ba aaf6 a139
000003b0: c8a3 f3b8 97ab 9b3a ab2c 303a ed5d 723a
000003c0: ab26 e6b9 f62f e7b9 e523 453a 1a7d b9b7
000003d0: fb96 463a dae1 65ba d239 383a beaa 633a
000003e0: 59d8 c93a caf8 a636 ab8f 1d3a c6bd e5ba
000003f0: 447b f4b6 af6c 6e39 5083 42bb eeab 9339
