lightning_logs/version_1/checkpoints/epoch=2-step=2580.ckpt (torch, 668524 bytes, 18 tensors)

model.1.weight f4 [64, 784]
000000 43 c6 9b 3c 13 3c 94 3b 7b 85 93 3c 73 14 2a bd
       0.019015437 0.004523763 0.018007984 -0.04152341
000010 cb 7b 9f 3c f5 39 1f bd 4a 60 ef bb ec e9 89 bb
       0.019468209 -0.03887363 -0.0073051797 -0.004208794
000020 93 db 14 bd 72 2a 33 bc 91 d3 1e bd 97 cb 1c bd
       -0.036342215 -0.010935413 -0.038775984 -0.038280096
000030 a6 c1 81 bb 47 b1 1e bb 5a 13 59 bc f2 18 04 bc
       -0.0039598523 -0.0024214552 -0.013249243 -0.008062588
000040 8f bd 27 bd 9d 95 c4 3b af e4 5a bb 42 65 66 bc
       -0.04095226 0.0059992806 -0.0033400466 -0.014062228
000050 82 b5 2b bc 13 aa 8e bc 9f 76 9c ba 5d 2d 7f 3c
       -0.010480287 -0.017415082 -0.0011937207 0.01557478
000060 b9 80 b6 3c a7 c1 d6 bc 6e ba 52 bc ec 22 1d 3c
       0.022278177 -0.026215388 -0.012861831 0.009590846
000070 27 33 89 bc 11 c1 ef bc 26 bc 55 3c f3 b6 d3 3c
       -0.016748024 -0.029266866 0.013045346 0.025844073
000080 b8 9a db 39 82 0b 59 bc 1c 60 a9 3c a3 67 81 bc
       0.0004188621 -0.013247373 0.020675711 -0.015796488
000090 27 b1 39 3a 15 d2 eb bb 2e 81 bb 3b ef 97 da 3c
       0.00070835877 -0.0071966746 0.0057221865 0.026683776
0000a0 26 8c 24 bd 67 77 13 bd 34 06 dc bc f5 74 e1 bb
       -0.04017272 -0.036002543 -0.026858427 -0.0068803974
0000b0 8a 6e 3c 3c 29 49 0e bd 8c 53 dc 3c 68 64 a5 bc
       0.011500964 -0.03473774 0.026895307 -0.020189479
0000c0 3f 30 88 3c 3e 1a 82 3b 06 55 8a 3b 1a 2d c3 bc
       0.016624568 0.0039704135 0.0042215614 -0.023825217
0000d0 d7 cf a1 bc 81 ee c4 bc 40 bc 11 3c 2b 8d 60 bb
       -0.019752426 -0.024039509 0.00889498 -0.003426383
0000e0 f7 3c 2a bd 5d 62 cc 3b 31 48 de bc 28 1c 7e 3c
       -0.041562047 0.0062373118 -0.027134033 0.015509643
0000f0 7d 4b d7 bc 37 65 b2 bb 06 cc 67 3b fc f4 f9 3b
       -0.026281113 -0.0054441947 0.003536941 0.0076280814
000100 88 8c b0 3c 0f e8 f9 3c 30 9d 2f 3c 7b ca 52 bb
       0.021551386 0.030506162 0.010718629 -0.0032164145
000110 af bd ad bc bb d0 a9 3c f8 06 4a 3d e0 e3 3e 3b
       -0.021208612 0.020729413 0.049323052 0.0029127523
000120 70 50 93 3c 74 d7 a5 3b e7 56 51 3c fc fb 95 3b
       0.017982692 0.0050610844 0.012777067 0.004577158
000130 77 7e ea bc 28 32 ee ba 56 1b 12 3c 34 9d 16 bd
       -0.028624756 -0.0018172907 0.00891765 -0.036771014
000140 3d 6e 45 3a 9b 40 a4 bb a3 10 97 bc 07 e4 90 bc
       0.00075313804 -0.0050125844 -0.01844055 -0.017686857
000150 0b e0 d7 bc 61 21 a2 bb b8 83 4e 3c a2 9d 88 3b
       -0.02635195 -0.0049478267 0.012604646 0.004169182
000160 66 5b d2 3c 4b d1 d1 bc f9 d0 90 bc b6 b5 06 3d
       0.025678348 -0.025612494 -0.01767777 0.032888137
000170 b3 9c be bb de b3 cb 3c 69 e5 43 3b 80 91 70 3d
       -0.00581702 0.02486604 0.0029891378 0.05873251
000180 21 a1 9d 3d 4c af 8c 3d dc f4 0c 3d 4c 7c 44 3d
       0.076967485 0.06869373 0.034413204 0.0479701
000190 49 8e 50 3d a1 d8 a0 3c 04 41 a9 3c 7d a9 5e 3d
       0.050916944 0.019634547 0.020660885 0.054360855
0001a0 24 4b 94 bc aa ce 58 bc 75 20 47 bc 09 ff 12 bd
       -0.018102236 -0.013232866 -0.012153734 -0.03588775
0001b0 d9 f6 cc bc 5c e9 91 bc 0e fe 92 3c 64 af 27 39
       -0.02502005 -0.01781147 0.017943408 0.00015991699
0001c0 5a d8 82 3b 43 cb d9 bc 42 b8 6f bc 23 89 02 bd
       0.0039930763 -0.02658618 -0.014631333 -0.031869065
0001d0 79 1b 04 bc 41 9f fe bc 59 64 ed bb ad 52 2d bb
       -0.008063191 -0.031081798 -0.0072446284 -0.0026446984
0001e0 a6 c3 b3 3c d6 ec 93 3d 32 77 dd 3c ee 06 94 3d
       0.021943878 0.07222907 0.027034376 0.07227884
0001f0 e4 b8 5e 3c da fa 49 3d b8 fc 30 bb fc e7 ac 3b
       0.013593886 0.049311496 -0.00270061 0.005276678
000200 b1 de 2e bc ca 96 48 3d 5e b3 2d bb 6c 47 74 bc
       -0.010673211 0.04897193 -0.0026504616 -0.014909606
000210 f3 de 41 bb 31 7d 47 bd f2 58 19 bd e8 46 25 bc
       -0.002958235 -0.048703376 -0.03743834 -0.010087706
000220 a6 aa 78 bc f5 a5 b5 3c e6 65 15 bd d1 01 2a 3a
       -0.0151774045 0.022173861 -0.03647413 0.0006485256
000230 78 5f 15 3c ff d4 15 bd 41 f6 06 bd 81 91 05 bd
       0.009117 -0.036580082 -0.03294969 -0.032609466
000240 f9 27 0a bb 4f 2e dd 3b 0a 5f 7e 3d d7 7a be 3c
       -0.0021080954 0.006749905 0.062102355 0.023251934
000250 5e de a6 3d b3 69 70 3d 39 0a 43 3c c5 fb e2 3c
       0.08147882 0.058694553 0.011904293 0.027707944
000260 47 d5 32 3c 34 25 5b 3c 64 03 56 3c 54 4f 99 3b
       0.010915107 0.013375569 0.013062332 0.004678646
000270 d2 34 d2 3b de bc 55 bc c3 22 24 3d db 28 ee 3a
       0.006414988 -0.013045518 0.040072214 0.0018170135
000280 87 55 49 bd e0 10 f1 bc 98 5f b1 bc d3 5e 12 bd
       -0.04915383 -0.029426992 -0.021652028 -0.035734963
000290 13 53 37 3b 3d 25 f4 bc 9e 52 36 bd 11 3c e2 bc
       0.00279731 -0.029802913 -0.044512384 -0.027616533
0002a0 61 69 9b 3a 65 79 18 bd af de b9 3b 11 bf e8 3c
       0.0011856967 -0.037225146 0.005672298 0.02841142
0002b0 bf a2 55 3d 94 66 7c 3d 37 5a a0 3d 1d 94 63 3d
       0.05215716 0.061621264 0.07829707 0.055561174
0002c0 ab e7 ab 3c 6a 4e 76 3d 62 fb 2e 3d 03 7f 28 3d
       0.020984491 0.060133375 0.042720206 0.041136753
0002d0 34 f4 8c bc 04 82 42 bb 7f 81 e2 3c 0c 65 95 3c
       -0.017206289 -0.0029679546 0.02764964 0.01823666
0002e0 cd 9e a0 bc f6 44 bd 3c 12 b7 b8 bc 76 6c b7 bc
       -0.019606972 0.023104172 -0.022548232 -0.022390585
0002f0 86 90 0a bd 4f 0e e7 bc dd fc 59 bd 17 7f d2 bc
       -0.033829235 -0.028205065 -0.053219665 -0.025695367
000300 0e 66 9b bc 61 00 df bc ba ff a4 bb 8f 2f 3d 3c
       -0.018969562 -0.02722186 -0.005035368 0.011546983
000310 d9 76 97 bc 6e fa df 3b 28 f6 0c bd df 2a 23 3d
       -0.018489288 0.0068352735 -0.03441444 0.039835807
000320 99 88 b3 3c a6 c7 89 3d c4 8c 5b 3d 5b 35 8a 3d
       0.02191572 0.06727533 0.05360104 0.06748458
000330 80 2c 3a 3d d2 aa 9d bb ab b7 5f bc 02 68 0c bb
       0.045452595 -0.004811623 -0.01365463 -0.0021424298
000340 28 49 f4 3c 30 1a 5c 3d a2 74 e4 3b b9 7e 96 3c
       0.02982004 0.05373591 0.0069719115 0.018370973
000350 d9 d1 fc 3c 6c f4 05 bc 98 87 85 3a 87 15 1b 3d
       0.030861782 -0.0081759505 0.0010187505 0.037862327
000360 a8 f0 b1 bc 37 80 85 3c 09 7c c6 bb 4c ac b4 bd
       -0.0217212 0.01629649 -0.0060572666 -0.088219255
000370 33 05 c2 bc 1e b3 48 bb 7d 4c e9 bc c3 58 2c bd
       -0.02368412 -0.003062434 -0.028478855 -0.042076837
000380 b7 37 a4 3c 45 21 1e bc 1b 3c f9 3c 9d 8c 54 3c
       0.020046098 -0.009651487 0.030424168 0.012972978
000390 3c d6 3a 3d 21 78 d5 3c 28 9e ad 3c 80 9b d6 3c
       0.045614466 0.026058258 0.021193579 0.026197195
0003a0 59 6d 9c bc b2 ba 41 ba ff d8 bc 3c f0 43 3a bb
       -0.01909511 -0.00073901855 0.02305269 -0.0028421842
0003b0 52 f5 84 3c 51 50 ee bc e3 25 5f 3c 9b 1f 33 3d
       0.01623026 -0.029091032 0.013619873 0.043731313
0003c0 00 af 0b 3d 01 14 fe ba 8b f9 17 bc 38 c5 a6 bb
       0.03410244 -0.0019384624 -0.009275804 -0.0050894283
0003d0 d9 9b 8c bb fe 17 aa bc b2 21 3c bd 2f 31 71 bd
       -0.0042910394 -0.020763393 -0.04593057 -0.058884796
0003e0 e3 ae 86 bd fe ca 15 bc 42 9e 97 bc 9e 55 8a 3c
       -0.06576326 -0.009142635 -0.01850808 0.016886529
0003f0 1a 26 10 bc 59 2e 84 bc f7 6b b4 3c 63 7f 2f 3d
       -0.008798147 -0.016135382 0.022024138 0.042846095

model.1.bias f4 [64]
000000 69 18 10 3a ff 58 54 bc e3 e0 8b bc 8c 1a fd 3a
       0.00054968015 -0.012960671 -0.017075008 0.001931028
000010 f0 4d db 3c 85 22 86 3c 1a 5b fc 3a 8a 02 bf bc
       0.026770562 0.016373882 0.0019253225 -0.02331664
000020 39 5f f7 bb af 0d 16 3c 9a 1a 97 bb 6e 78 82 bc
       -0.007549193 0.009158536 -0.0046113255 -0.015926566
000030 47 9a f8 3b 77 29 eb 3c 62 df b3 3c e4 03 a1 bc
       0.0075867507 0.028706295 0.021957103 -0.019655176
000040 62 c5 72 bc 15 6a f0 bc 5a 8d e6 3c c9 2c 8f 3b
       -0.014817568 -0.029347459 0.028143574 0.0043693525
000050 b9 91 05 bd 55 49 05 3d 51 54 56 bc 49 2c 6c 3a
       -0.032609675 0.032540638 -0.013081626 0.00090092845
000060 f5 f5 83 bb 00 db c5 3c 89 e8 de 3c d9 23 91 3c
       -0.004027123 0.024152279 0.02721049 0.017717289
000070 7f 5a 8b bc 43 c0 26 3d 28 89 25 bc 10 a0 2c bc
       -0.017010925 0.0407107 -0.010103501 -0.010536209
000080 e2 a0 7c bb 16 5c dd 3c 0b 5d f6 bc d8 5c 30 bc
       -0.0038548042 0.027021449 -0.030073663 -0.010764323
000090 52 d1 a1 bb e8 68 14 3d 34 36 ea 39 75 b9 15 bc
       -0.004938283 0.03623286 0.00044672342 -0.009138455
0000a0 45 53 91 bc c0 2e 0b 3c 4c a7 1f bd a8 e3 fe 3b
       -0.017739901 0.008495033 -0.038977906 0.0077786036
0000b0 a4 0b 13 3d d7 22 9d bc b4 78 f4 3c 89 d1 d8 bb
       0.035899773 -0.019181652 0.029842712 -0.0066167754
0000c0 5f 86 0d bd 6e fb 06 bd 84 1e b5 3a 43 83 b3 3b
       -0.034551974 -0.032954626 0.0013818298 0.005478294
0000d0 1e 7a 74 bc fb 60 fb 3b fd 09 25 3c ea 09 d9 bc
       -0.014921693 0.007671473 0.010073182 -0.026493985
0000e0 01 ad 01 3d 37 de 97 bb 70 6e 8b 3c 66 a0 78 bc
       0.03165913 -0.0046346444 0.017020434 -0.015174961
0000f0 db 43 a5 3c 44 68 02 bd 50 f8 8b bc 20 bf a1 bc
       0.020173958 -0.031837717 -0.017086178 -0.019744456

model.4.weight f4 [64, 64]
000000 fd 91 fc 3d 16 b4 b7 bd e8 2f 2f 3d dc 1b 76 bc
       0.123325326 -0.089698955 0.042770296 -0.015021291
000010 40 9b 5f 3d 94 fc b0 bd 86 9b d8 bd cc e9 20 3d
       0.054591417 -0.086419255 -0.10576539 0.039285466
000020 cc a9 e9 bd d5 3a d5 3d 84 1a 1d 3c 35 ff a7 3d
       -0.11409339 0.10411612 0.009588841 0.08202974
000030 da 08 64 bd 5d 74 b4 3c ce c9 a7 3c 08 a1 cd 3d
       -0.055672504 0.022028143 0.02048197 0.1004048
000040 20 bc 2e bc 8e 54 63 bc c2 42 b5 bd b7 bf d1 bd
       -0.01066497 -0.01387514 -0.08850624 -0.10241645
000050 c7 ff 1f 3e 09 4b d9 3c 5b 85 28 3e b1 f8 96 3d
       0.15624915 0.026525037 0.16457121 0.07371653
000060 20 c5 54 bd ac f9 25 bd c1 e2 ab bc a2 2f ec bd
       -0.051945806 -0.04052131 -0.020982148 -0.11532523
000070 b1 b2 0f be b0 20 9c bd 3c 4d f7 bd b7 f3 6c bd
       -0.14033009 -0.07623422 -0.12075278 -0.057849612
000080 91 eb 22 3e 31 ea bc bd 83 a6 a8 bc bb be b6 bd
       0.15910174 -0.09224356 -0.020587211 -0.08923098
000090 be 96 86 3c 24 ea 95 3b 26 dd 8b bd 71 3b 93 3d
       0.016429301 0.004575031 -0.0682929 0.07189072
0000a0 34 a2 99 3d 9a 76 03 3e a8 9c 3f 3d e9 b4 5d 3d
       0.07501641 0.12838212 0.04678026 0.054127607
0000b0 5f 5f a9 bc 53 69 29 3e c4 69 e0 3b 6e 70 0d bd
       -0.02067536 0.16544084 0.0068485457 -0.03453105
0000c0 77 74 cd 3b db 8f a8 3d 45 0f 20 3e 6e 17 71 bd
       0.006269987 0.08230563 0.15630825 -0.058860235
0000d0 73 96 17 3e c3 e8 3f bd 66 8a 5e 3d bf 4e 1e be
       0.14803486 -0.04685284 0.054331206 -0.15459727
0000e0 0f 3a 13 3e 1c 51 b7 3d 0a dd 9e 3d 9c 4f 6c bd
       0.14377616 0.08951017 0.077570036 -0.05769311
0000f0 75 6b 15 bc 2d 2b 0d be 73 f9 6d bd e7 13 b7 bd
       -0.009119858 -0.13786002 -0.05809922 -0.08939343
000100 a6 c2 5e be c6 97 fb 3d 42 a9 e3 3d f3 a6 d9 3d
       -0.2175394 0.12284808 0.11116268 0.10627546
000110 e5 c2 76 bd fb 32 35 bd e4 33 96 bd 5c 19 a5 3c
       -0.06024446 -0.044238072 -0.07334116 0.020153694
000120 05 37 80 bb 9a c8 ac bc c9 f5 1f be 5e 3e 2a 3c
       -0.003912809 -0.021091748 -0.15621103 0.010390846
000130 6a 05 1a bd be a3 ce 3d e9 f0 ee bd 5c 85 e8 3c
       -0.03760282 0.10089825 -0.11667044 0.028383903
000140 b9 7b 0c be fe 21 05 3e 5c b9 ad 3d 42 e5 32 3e
       -0.13719071 0.13001248 0.0848262 0.17470267
000150 69 9e 28 3d 2d f7 96 bc af 4d a2 bd ee 42 92 3c
       0.041166697 -0.01842841 -0.07924973 0.01785418
000160 f0 36 73 bd 89 dc 99 3d b1 1e 96 3d 87 c9 2b bd
       -0.059378564 0.07512767 0.07330073 -0.04194024
000170 84 ae 10 3c ac e7 81 3c 91 bf cc 3d 2a e8 d3 3c
       0.00883067 0.01585754 0.09997476 0.02586754
000180 a9 72 a3 3d de 3f ea 39 23 b8 c7 3d b1 6e c2 bd
       0.07980854 0.00044679543 0.09751918 -0.09493769
000190 77 9d 36 3d ef 42 83 3d a0 18 a4 bd ab 5f 16 bd
       0.044583764 0.06409251 -0.08012509 -0.03671233
0001a0 ae ee 1e 3e 19 6d c5 3d a5 b8 b9 bd 84 d8 d6 3d
       0.15520737 0.09639949 -0.09068421 0.10490516
0001b0 dc e5 8e 3d d7 e3 70 3a 82 9e 2b 3c 4f 43 6b bd
       0.06977436 0.0009189224 0.010474803 -0.057437237
0001c0 11 27 d0 bd 5e be ce bd 11 d2 0f 3e 7b aa 4d be
       -0.10163701 -0.100949034 0.14044978 -0.20084564
0001d0 40 76 90 3d 54 f3 e9 bc 0f fc ed 3d 40 a7 ba 3d
       0.070538044 -0.02855841 0.11620342 0.09113932
0001e0 c5 1e 4f bd b0 77 00 3b 22 4f 26 3e 11 15 9e 3d
       -0.050566453 0.001960259 0.16241124 0.07718862
0001f0 0b 72 ef 3d bb 4a 07 be 1b 2d 85 bd 2f 36 13 bd
       0.11691674 -0.13212101 -0.06502744 -0.035940345
000200 58 dc 9b bb 39 f5 8a 3d 55 f5 98 bd 62 8d b7 3d
       -0.0047564916 0.06785054 -0.07468668 0.089625135
000210 9b 3d 97 bd cc 2e 9e 3c 1c be 90 3d b1 90 ac 3d
       -0.07384797 0.019309424 0.070675105 0.08426035
000220 b1 90 a5 3c ec 63 8b 3d 97 ca 20 3e b3 d5 80 bd
       0.020210596 0.06806168 0.15702282 -0.0629076
000230 ba 26 07 3e 49 1c ba 3c a6 54 72 bd 54 d5 4e 3d
       0.13198367 0.022718566 -0.05916276 0.050496414
000240 b8 9b f6 3d 7a 2f 8e bc e8 80 15 be 0f 1a 2c bd
       0.1204142 -0.017356623 -0.14599955 -0.04201704
000250 b6 95 3f bd 05 b9 46 3b 06 d2 d3 3d 4c 86 20 be
       -0.046773635 0.0030322683 0.10342793 -0.1567623
000260 5e 45 de b9 d0 61 af 3d 81 fb 00 3e 00 d8 95 3d
       -0.00042394822 0.08563578 0.12595941 0.07316589
000270 12 6a 7c bd ad e2 ad 3c fe 67 29 bd df e4 17 be
       -0.061624594 0.021226251 -0.04135894 -0.14833401
000280 6a 08 42 bd 3c c2 5a 3e 1f eb 5f 3d cf 31 08 be
       -0.047371306 0.21363157 0.05466759 -0.1330025
000290 ab 04 fe bd e5 d4 3d bd f3 01 c0 3c 5e ab d8 3d
       -0.12403234 -0.04634561 0.02343843 0.10579561
0002a0 57 47 cc 3d 82 71 ae bd c4 7d c8 bb ef 9e 3f 3d
       0.099745445 -0.08517744 -0.006118508 0.04678243
0002b0 16 11 1e 3d b9 45 78 3a 77 2f e5 bb 87 69 18 3e
       0.038590513 0.00094708387 -0.0069941836 0.14884005
0002c0 b2 3d 64 3d 4c b6 1c 3e 7b 93 db 3c 44 81 92 3d
       0.0557229 0.15303916 0.026803723 0.07153562
0002d0 c3 17 99 bd 7a 80 b4 bc 77 a8 e7 3d e1 7c 28 3d
       -0.07475235 -0.022033919 0.11311429 0.04113472
0002e0 cc 10 ba 3d 0b e7 83 3d c0 b1 d9 3d 21 c0 d6 bd
       0.09085235 0.06440552 0.10629606 -0.104858644
0002f0 28 3d 95 bd bf 25 ac 3d 8b 1b ba bd da ee 9e bc
       -0.07287055 0.08405637 -0.09087285 -0.019401003
000300 85 d6 03 3d 98 42 bf bd 20 f5 94 3d 68 4c 43 3d
       0.032187004 -0.093388736 0.072733164 0.04768029
000310 4b d6 6a bd 82 e5 f7 bd 83 47 d8 bd 34 0a 83 3d
       -0.057333272 -0.12104322 -0.10560515 0.063984305
000320 aa 7d 59 bd 18 d2 90 3d 46 75 f1 bd 70 5b bb bd
       -0.05309836 0.07071322 -0.11789946 -0.091483
000330 f7 c9 f8 bd f2 94 b5 bd 84 bf 41 bc 3b 82 26 bb
       -0.12147897 -0.088663 -0.011825446 -0.0025407213
000340 cb 75 eb bd d0 18 64 bc a4 e5 cc 3d 1e 42 29 bd
       -0.114970766 -0.013921931 0.10004738 -0.04132282
000350 1f a1 9c bd 31 e1 e2 bd 1a e2 fa bc c6 5f 87 bc
       -0.07647919 -0.11078108 -0.030625392 -0.01652516
000360 f4 b6 c2 bd a8 ee 00 be f9 39 a6 3b 4a c8 d7 3d
       -0.09507552 -0.1259104 0.005072829 0.10536249
000370 77 20 f4 bd 1f 34 65 3d 9d 67 b2 bd dc 4c cd bd
       -0.11920255 0.05595791 -0.08711169 -0.100244254
000380 cb 85 d0 bd 05 c3 8a bd ff e9 f6 3b df 46 ff bd
       -0.10181769 -0.06775478 0.0075352187 -0.124646895
000390 58 b3 0d 3d 28 ed c7 bd 18 2b 6e bd b2 59 de 3c
       0.034594864 -0.09762031 -0.058146566 0.02714238
0003a0 94 f0 63 bd a8 bd d9 bd 73 93 5d 3d 53 f6 81 3d
       -0.055649355 -0.10631877 0.054095697 0.06345811
0003b0 34 40 6d 3d ef 23 cc bd 5d cd c1 3d 9d 7b 87 3d
       0.057922557 -0.09967791 0.09462998 0.06615374
0003c0 35 ec 99 bd 16 de cf 3d 46 e9 bd 3a 24 06 01 be
       -0.07515756 0.101497814 0.0014489077 -0.12599999
0003d0 b8 db 4e 3d 49 4a 0c 3d 43 6c bf bc b8 c9 2a bd
       0.05050251 0.03425053 -0.023367053 -0.04169628
0003e0 b4 84 4f bd 55 2b 0f 3c 6f 96 f0 bd 5c b6 f4 bd
       -0.050663665 0.0087383585 -0.11747443 -0.11948845
0003f0 63 d6 cd 3d 2e ce c3 bd 9a 31 2a 3d e7 9b 9a bc
       0.10050657 -0.0956081 0.04155121 -0.018873168

model.4.bias f4 [64]
000000 53 e7 63 bd 37 d8 a7 3d 6d c9 e5 3d 65 4d 12 bc
       -0.05564053 0.081955366 0.112200595 -0.008929585
000010 cc 69 9f bd df 78 88 bd 0d f4 f3 3d a9 fa b7 bb
       -0.07783851 -0.06663679 0.11911783 -0.005614598
000020 63 dd e2 3b c9 9c c1 3d 56 0c a7 3d 3b ac a8 3d
       0.006923364 0.094537325 0.0815665 0.08235975
000030 bf aa 48 3b 40 8a 4c bd 68 ae 85 bd 6b 98 44 3d
       0.003061935 -0.049936533 -0.06527406 0.04799692
000040 e4 b9 06 3e 62 6c 04 3e e7 e5 c0 3c a2 53 93 bd
       0.13156849 0.1293197 0.023547126 -0.07193686
000050 54 06 6f 3d a2 c9 d8 bd 68 46 99 bc dc 7a 59 bd
       0.058355644 -0.105853334 -0.01871033 -0.053095683
000060 21 6b 1e 3e b3 00 8b bd 21 e7 f8 3d 87 1e 67 3d
       0.15470554 -0.06787243 0.12153459 0.056425598
000070 aa dd 93 bd 07 0b af 3c c6 79 91 3d 0a e5 10 3d
       -0.072200134 0.021367563 0.071033046 0.03537468
000080 76 b6 c8 bd 46 ab d5 3d fa a3 a4 3c e7 41 ce bc
       -0.09800427 0.104330584 0.020097721 -0.025177909
000090 10 c0 3a 3c 42 ea 0f 3e 26 bd ea 3d 54 97 00 3d
       0.01139833 0.14054206 0.114618585 0.031394318
0000a0 fc 41 c2 b8 fe 3e 11 3e f3 14 07 3e 51 a6 4a 3d
       -9.2629314e-05 0.14184186 0.13191585 0.049475018
0000b0 24 3b b3 3d 12 9f 6b 3d fe f4 d3 3c 31 5b 44 3d
       0.087515146 0.05752475 0.025873657 0.04793853
0000c0 54 0c d5 bc 1d c0 31 bd a6 46 8c bd 7d 0c 95 bd
       -0.026006855 -0.043396104 -0.068494126 -0.072777726
0000d0 b5 2f a0 bd 58 83 17 bd 09 88 15 3e 55 9c d4 3d
       -0.078215994 -0.036990494 0.14602675 0.103813805
0000e0 eb 20 dd 3b a1 35 7d 3d 3f be 05 3d 0b f0 78 3c
       0.006748309 0.061818723 0.032652136 0.015193949
0000f0 96 f7 c4 3d 0c 0c 6d 3d c9 cb a6 bd 5b b8 b7 bc
       0.09617536 0.057872817 -0.08144338 -0.022426775

model.7.weight f4 [10, 64]
000000 35 e2 75 3c 6f ca f0 bc c1 b5 a9 3d 7a 88 30 bd
       0.015007545 -0.029393403 0.0828662 -0.043098904
000010 40 5b e1 3c 0a d3 72 bd cf f1 9e bd 58 ab 10 3e
       0.027509332 -0.059283294 -0.07760965 0.14127862
000020 93 ef 70 be 2b e4 52 bd f5 69 0f bd fc f6 5a 3c
       -0.2352889 -0.05148713 -0.035013158 0.01336455
000030 97 15 8e 3d ca 89 97 3d 7b 43 af 3c cd 60 ff bd
       0.06937712 0.07399328 0.021394482 -0.12469635
000040 04 b2 c3 bd 60 82 81 bd 1b f7 2f 3d 94 55 87 3d
       -0.09555438 -0.06323695 0.042960268 0.066081196
000050 d0 99 66 3d 7c d2 63 bc 0a 73 ed 3d d7 98 c4 3d
       0.05629903 -0.013905164 0.115942076 0.095994644
000060 64 65 b5 3d cf da 19 be b3 44 45 be bc 3a 12 be
       0.08857229 -0.15024875 -0.19264488 -0.14280218
000070 32 08 81 3d eb 5c 9e bd b4 c7 94 3d f2 d0 d8 3d
       0.06300391 -0.077325664 0.07264653 0.10586728
000080 ae c1 94 bd b0 67 95 3d c4 6f cc bd 3c 4f b5 3d
       -0.07263504 0.072951674 -0.09982255 0.088530034
000090 ee a2 ac 3d 74 84 ff bd 67 79 d6 3d 49 98 e4 3d
       0.08429514 -0.12476435 0.104723744 0.111618586
0000a0 ea e8 90 39 0b 66 e8 bd bf 3a 0a be c2 05 7c be
       0.00027639355 -0.11347588 -0.13498972 -0.24611571
0000b0 af ee 8b 3c a3 29 9e 3c 8d ef 55 3d e8 54 41 be
       0.017081587 0.019306963 0.052230407 -0.18880045
0000c0 1a 9f 29 bd 67 f4 0c 3e ec 76 32 bd 4a 9b 16 be
       -0.041411497 0.13765107 -0.043570444 -0.14707676
0000d0 c3 8e 2b 3e 22 06 cc 3d fd b1 3a be cc 9a a7 3d
       0.16753678 0.09962107 -0.1823196 0.08183822
0000e0 12 c9 0c be 7c ee 34 3d 9d c6 09 be 65 6a 4f bd
       -0.13748577 0.04417275 -0.13454671 -0.050638575
0000f0 1c 8c cf bd 2d ef 7c bd 3c 2d 33 bc 37 19 1b 3e
       -0.101341456 -0.061751533 -0.010936078 0.15146337
000100 bb d9 0c be 62 26 ad 3d 94 55 d5 bc de ff 9d bd
       -0.13754933 0.084545866 -0.026041783 -0.077148184
000110 71 e3 4c be 79 c1 26 3e bd 07 5b bd e9 be 57 3e
       -0.20008637 0.16284741 -0.053474177 0.2106892
000120 72 9b dd bc 09 4e b2 bd c7 8a 0e bd 16 ef 85 3c
       -0.027051661 -0.0870629 -0.034800317 0.016349357
000130 31 12 90 bc 98 e8 a0 3c d5 80 07 be be ff 8a 3d
       -0.0175868 0.01964216 -0.1323274 0.0678706
000140 84 5a 63 bd 8b 7e c0 3d 44 be a3 bd 45 e5 05 be
       -0.055506244 0.09399136 -0.07995275 -0.1307574
000150 17 d9 0a be a1 bb 00 3e 0b 26 2f bc f0 29 65 3d
       -0.13559376 0.12571575 -0.0106902225 0.055948198
000160 95 89 4a be f9 97 c6 bd 22 1a fc 3d e3 6e da 3d
       -0.19779046 -0.09696955 0.12309672 0.10665681
000170 a1 b8 ff 3c 94 0a cc bc 45 3b 09 be 7b b1 75 3c
       0.031215968 -0.024907388 -0.13401516 0.014995928
000180 d1 f3 21 3e ad 6d 9e 3d 57 14 08 3e 11 d3 17 be
       0.15815665 0.07735763 0.13289009 -0.14826609
000190 ee 87 f6 bd d2 db 46 bc b4 5d 05 be 0c 83 70 be
       -0.12037645 -0.01213737 -0.13024026 -0.2348749
0001a0 4e 1e d8 3d 36 52 3b 3d 23 69 ae 3d 78 b4 a5 bc
       0.10552655 0.0457327 0.08516147 -0.020227656
0001b0 32 4e 0b 3d b6 d9 be bd 9a 74 0c be 4d 85 c5 bd
       0.03401012 -0.09318869 -0.13716355 -0.09644566
0001c0 56 cc 46 be 1f 42 a0 bd ff 91 32 3e 34 f3 2e 3e
       -0.19413885 -0.078251116 0.17438506 0.17084962
0001d0 ce 97 5a be 3e 18 11 bd a4 4a 4d 3d 91 d4 1a bc
       -0.21346971 -0.03542351 0.05012001 -0.009450094
0001e0 bb 42 3d be 0d 48 da bd 87 e5 8a bd f5 a9 31 3e
       -0.18482487 -0.10658274 -0.0678206 0.1734999
0001f0 46 40 23 3e c6 ef 1b 3e 19 fd 1d be 54 da 5e bd
       0.15942487 0.15228185 -0.1542858 -0.054407433
000200 c5 fd b2 bd e7 2b 2e bd 64 ff 2e be 0d 12 34 bd
       -0.08739809 -0.042522337 -0.17089611 -0.043962527
000210 9a bf e6 bd ad bd 0e be 76 15 30 3e c3 8d 31 3e
       -0.11267014 -0.13939543 0.17195687 0.17339234
000220 c3 a1 04 be 93 7d da bc 3a d7 6f 3b 1f 3e 17 3e
       -0.12952332 -0.026671207 0.003659679 0.14769791
000230 6a b0 24 3d f2 e7 26 bd 4c 6f 00 be 1a 5c f7 3d
       0.040207304 -0.040748544 -0.12542456 0.12078114
000240 55 ec 02 3d 75 68 08 3e f9 45 c4 3d 3a a1 e2 bd
       0.031963665 0.13321097 0.09583659 -0.11065908
000250 4e de 1c 3e a2 9a 21 be d5 c1 45 be 66 4b 2e 3e
       0.15319178 -0.15781644 -0.19312222 0.1702095
000260 c2 54 0e 3d 3e 7d 06 3e d0 e7 b4 bd b9 6a 03 bd
       0.0347488 0.13133714 -0.08833277 -0.0320842
000270 c1 00 bb bd 5d 65 12 3e 35 b8 6d 3c 8c 52 49 bd
       -0.09131003 0.1429648 0.01450925 -0.04915099
000280 36 75 0a be 95 b3 86 bd 56 4e c8 bd 29 e5 d7 bd
       -0.13521275 -0.06577221 -0.097805664 -0.10541756
000290 fb 43 19 3d d8 43 67 be d3 67 bf 3d ea d7 2d be
       0.037418347 -0.22584474 0.09345975 -0.16976896
0002a0 da 2e 17 3e bd 38 bf bd 37 f5 e2 3d f2 a9 74 be
       0.14763966 -0.09336994 0.11081927 -0.23892954
0002b0 c4 38 52 3d 59 78 fa 3c 7d f0 78 bd 81 8e 4d 3d
       0.051323667 0.030574964 -0.060776222 0.05018473
0002c0 5f 88 52 3d 6d 02 46 3c fa 5a 6b be 6f 12 46 3d
       0.051399585 0.012085539 -0.22983924 0.048357423
0002d0 cb 62 08 3d 5a 89 b1 bd b9 0d fb 3c ea d0 28 3e
       0.03329734 -0.08668776 0.030646192 0.16485944
0002e0 c9 47 19 3e 1c 65 23 bd f7 46 bb bc 14 1a 2f 3e
       0.1496879 -0.039891347 -0.022860987 0.17099792
0002f0 16 e4 05 3e 2b fd 1f bc e9 64 c6 3d 8c 83 8c 3d
       0.13075289 -0.00976495 0.09687216 0.06861028
000300 ce 75 c7 bc 8c a9 38 be 1c 50 19 be f3 85 e3 3d
       -0.024348166 -0.18033427 -0.14971966 0.11109533
000310 ca 1d 8f 3d 8e d9 a9 3d ba 3e 98 bd 19 f4 08 be
       0.06988104 0.082934484 -0.07433839 -0.13374366
000320 b0 d7 9b 3c dd cb bb bd d7 b2 f2 bd 10 29 0c be
       0.019023746 -0.09169743 -0.11850517 -0.13687539
000330 16 c7 ce 3d 61 fa b3 bd 1e 2e cb 3d 80 c6 be 3d
       0.100965664 -0.0878799 0.099209055 0.093152046
000340 78 c7 69 3d ef 74 26 be 9f 83 98 bb 67 7e a4 bd
       0.057074994 -0.16255544 -0.0046543623 -0.08031922
000350 16 c8 56 bd 92 9d 03 3c ae 54 c6 bd aa f5 33 3e
       -0.05243691 0.008033173 -0.0968412 0.17574182
000360 4f 7f 06 3e e1 21 07 3d 04 ae 8c 3b 27 48 e5 3c
       0.13134502 0.032991294 0.004293205 0.027988506
000370 cb 80 16 bd 7d 6e 4b 3c b8 de 85 bc 0d 6a 48 be
       -0.03674392 0.012416479 -0.016341552 -0.19571705
000380 22 68 9d bd 87 3b 0d 3e b5 0f a1 3d 3c a5 fa 3d
       -0.076858774 0.13792239 0.07864324 0.12238547
000390 0c 68 07 3d ee e9 4f bc 18 44 52 bc 5a d8 2b be
       0.03305821 -0.0126900505 -0.012833618 -0.1678175
0003a0 65 2d c9 3d ae 64 68 3c 78 78 ed 3d 44 ac 22 3d
       0.098231114 0.01418416 0.11595243 0.039715067
0003b0 d3 ad 59 be ba 5e 70 bd b8 eb d0 3c 3c 37 a5 bc
       -0.21257715 -0.05868409 0.025503024 -0.02016794
0003c0 27 6c 75 bc 1d 8b 0c be 37 f6 28 3e 9f 20 4a be
       -0.014979399 -0.13724943 0.16500174 -0.19739006
0003d0 b0 41 b5 bd e5 cf d1 3d 02 b5 06 3a f0 cb 5d bd
       -0.088504195 0.10244731 0.00051386666 -0.054149568
0003e0 22 46 08 bd 5a 36 cc 3d 5a fc 83 3d 9b 23 52 bd
       -0.03327001 0.09971304 0.064446166 -0.051303487
0003f0 44 f7 df 3d c0 93 f4 3d cf 68 d0 bd 78 28 c6 3d
       0.10935834 0.119422436 -0.10176241 0.096756876

model.7.bias f4 [10]
000000 25 5d 11 be 1e 54 f9 bd 5a 60 a3 bc 6b ae 17 bd
       -0.14195688 -0.12174247 -0.019943405 -0.037031572
000010 f7 df 22 bd e0 09 a9 3d ab 5b 00 be 64 62 39 bd
       -0.03976437 0.08253837 -0.12534969 -0.04525985
000020 c0 18 ad bd 9c 05 e3 3d
       -0.08451986 0.11085054

exp_avg f4 [64, 784]
000000 78 36 b0 39 78 36 b0 39 78 36 b0 39 78 36 b0 39
       0.00033609918 0.00033609918 0.00033609918 0.00033609918
000010 78 36 b0 39 78 36 b0 39 78 36 b0 39 78 36 b0 39
       0.00033609918 0.00033609918 0.00033609918 0.00033609918
000020 78 36 b0 39 78 36 b0 39 78 36 b0 39 78 36 b0 39
       0.00033609918 0.00033609918 0.00033609918 0.00033609918
000030 78 36 b0 39 78 36 b0 39 78 36 b0 39 78 36 b0 39
       0.00033609918 0.00033609918 0.00033609918 0.00033609918
000040 78 36 b0 39 78 36 b0 39 78 36 b0 39 78 36 b0 39
       0.00033609918 0.00033609918 0.00033609918 0.00033609918
000050 78 36 b0 39 78 36 b0 39 78 36 b0 39 78 36 b0 39
       0.00033609918 0.00033609918 0.00033609918 0.00033609918
000060 78 36 b0 39 78 36 b0 39 78 36 b0 39 78 36 b0 39
       0.00033609918 0.00033609918 0.00033609918 0.00033609918
000070 78 36 b0 39 78 36 b0 39 78 36 b0 39 78 36 b0 39
       0.00033609918 0.00033609918 0.00033609918 0.00033609918
000080 78 36 b0 39 78 36 b0 39 78 36 b0 39 78 36 b0 39
       0.00033609918 0.00033609918 0.00033609918 0.00033609918
000090 78 36 b0 39 aa 77 b0 39 9a e3 b0 39 5e 13 b0 39
       0.00033609918 0.00033658493 0.00033738912 0.00033583766
0000a0 f2 fe ae 39 12 e5 af 39 b2 36 b0 39 b0 37 b0 39
       0.00033377815 0.00033549272 0.00033610087 0.00033610826
0000b0 e2 b9 ad 39 5c 8c ae 39 ca 39 b0 39 5e 40 b0 39
       0.00033135625 0.00033292442 0.00033612392 0.00033617293
0000c0 d6 3d b0 39 8e 32 b0 39 8c 31 b0 39 10 36 b0 39
       0.00033615407 0.00033607002 0.0003360625 0.00033609616
0000d0 78 36 b0 39 78 36 b0 39 78 36 b0 39 78 36 b0 39
       0.00033609918 0.00033609918 0.00033609918 0.00033609918
0000e0 78 36 b0 39 78 36 b0 39 78 36 b0 39 78 36 b0 39
       0.00033609918 0.00033609918 0.00033609918 0.00033609918
0000f0 f4 7e b0 39 74 7c b0 39 d4 36 b0 39 7c 0e b0 39
       0.00033663923 0.0003366206 0.00033610186 0.00033580128
000100 26 f2 af 39 88 81 b0 39 d4 0f aa 39 6e 83 aa 39
       0.00033559016 0.00033665844 0.0003243672 0.0003252285
000110 00 df ac 39 5a d7 b5 39 70 5c da 39 ea c4 e8 39
       0.00032972544 0.0003468346 0.00041649071 0.000443972
000120 20 a1 bf 39 60 d3 c4 39 c4 30 bb 39 b8 85 b3 39
       0.00036550406 0.0003754152 0.00035703753 0.0003424117
000130 a4 7a b2 39 5c 90 b1 39 a0 5a b1 39 3c 7c b0 39
       0.0003404218 0.00033867627 0.00033827592 0.00033661898
000140 0a 3b b0 39 78 36 b0 39 78 36 b0 39 78 36 b0 39
       0.00033613323 0.00033609918 0.00033609918 0.00033609918
000150 78 36 b0 39 78 36 b0 39 a0 36 b0 39 80 36 b0 39
       0.00033609918 0.00033609918 0.00033610035 0.00033609942
000160 fa 7b b0 39 66 72 b0 39 de 21 b0 39 30 2b a0 39
       0.00033661706 0.0003365457 0.0003359457 0.00030549755
000170 53 10 28 39 c6 8a 86 39 1e 61 87 39 25 a5 31 39
       0.0001602781 0.00025661866 0.00025821564 0.00016941557
000180 8c 92 95 38 76 6f f0 38 0e 4e fc b8 1c a1 90 b9
       7.13217e-05 0.00011464853 -0.00012030835 -0.00027585856
000190 da 41 a1 39 80 03 70 3a 13 87 49 3a 97 4e e1 39
       0.00030757376 0.0009155795 0.0007687669 0.00042973898
0001a0 46 91 c9 39 ef 51 04 3a 02 32 db 39 24 81 ae 39
       0.00038445945 0.00050476094 0.00041808194 0.00033284083
0001b0 fe 04 aa 39 e0 2f b0 39 78 36 b0 39 78 36 b0 39
       0.00032428646 0.00033605006 0.00033609918 0.00033609918
0001c0 78 36 b0 39 78 36 b0 39 00 37 b0 39 b0 36 b0 39
       0.00033609918 0.00033609918 0.00033610314 0.0003361008
0001d0 04 42 b0 39 08 e2 af 39 5a 3e ad 39 8e 11 83 39
       0.0003361852 0.00033547007 0.00033043587 0.00024999346
0001e0 70 a8 ee 37 a0 d3 22 b9 86 70 5d b9 f4 45 9b b9
       2.8450246e-05 -0.0001552836 -0.0002111812 -0.00029616023
0001f0 ca 77 1e ba 9d f2 b7 ba ac c2 f9 ba 10 1d db ba
       -0.00060450716 -0.0014034096 -0.0019055209 -0.0016717035
000200 84 f9 5a ba cd 9a 0c 3a 3e d7 45 3a ec 6c 73 3a
       -0.0008353221 0.0005363643 0.0007547027 0.0009285945
000210 55 2f 7c 3a fb 41 bf 3a e6 9b b5 3a d5 77 a2 3a
       0.000962009 0.0014591807 0.0013855665 0.0012395332
000220 c4 99 e2 39 96 2d b0 39 0c 59 b0 39 08 59 b0 39
       0.00043220643 0.000336033 0.0003363568 0.0003363567
000230 78 36 b0 39 78 36 b0 39 8c 36 b0 39 1a 31 b0 39
       0.00033609918 0.00033609918 0.00033609977 0.0003360592
000240 04 ec a8 39 34 9d 90 39 42 50 7a 39 c2 b6 a4 38
       0.00032219302 0.00027582946 0.00023871756 7.854171e-05
000250 ee 67 c9 b9 af 65 71 ba 6c 76 a9 ba 16 86 e0 ba
       -0.0003841514 -0.00092085724 -0.0012928969 -0.0017129804
000260 3f 7a d1 ba 47 75 23 bb 12 5c 44 bb 00 2d fa ba
       -0.0015981867 -0.002494173 -0.0029962105 -0.0019086897
000270 ea c9 9a ba aa ba 8c b9 77 71 f0 39 a8 76 90 3a
       -0.0011809443 -0.00026841956 0.00045860905 0.001102169
000280 bc 4b 93 3a 48 36 f7 39 e5 ef 2e 3a 65 75 83 3a
       0.001123778 0.00047151954 0.00066733203 0.0010029493
000290 94 1a ca 39 ac ac ae 39 1c be b0 39 16 98 b0 39
       0.00038548245 0.00033316517 0.00033710978 0.0003368265
0002a0 78 36 b0 39 78 36 b0 39 72 33 b0 39 63 b6 7d 39
       0.00033609918 0.00033609918 0.00033607666 0.00024195905
0002b0 88 a2 d4 b8 1b 84 94 b9 46 9a bf b9 c3 11 2c ba
       -0.000101392216 -0.00028327186 -0.00036545302 -0.0006563926
0002c0 ea d4 46 ba 2d 43 c4 b9 47 75 b8 ba b4 70 3a bb
       -0.0007584827 -0.00037434083 -0.0014073037 -0.0028448524
0002d0 1d 30 60 bb c5 95 65 bb af 54 29 bb 77 92 0c bb
       -0.0034208365 -0.0035031897 -0.002583783 -0.0021449605
0002e0 c7 f9 58 bb 8b 0e 23 bb 1c b6 34 ba 30 73 03 38
       -0.0033107863 -0.0024880494 -0.00068935915 3.134011e-05
0002f0 29 09 9c b9 0b a0 fe b9 46 0d be b9 00 1e ce b6
       -0.00029761464 -0.00048565897 -0.00036249514 -6.142771e-06
000300 96 73 97 39 96 77 ae 39 c6 c5 b0 39 bc a0 b0 39
       0.00028887083 0.00033276965 0.0003371669 0.00033689092
000310 78 36 b0 39 94 f8 aa 39 16 52 b0 39 fd 18 68 b9
       0.00033609918 0.00032610132 0.00033630495 -0.00022134553
000320 a7 fb 58 b9 72 c3 5e b9 6e 1a aa b9 ec 5e 95 ba
       -0.00020693113 -0.00021244379 -0.00032444618 -0.0011396087
000330 ba ae 84 ba 36 e5 7e ba 3f 92 ed ba c8 97 6a bb
       -0.0010122873 -0.0009723486 -0.001812525 -0.0035796035
000340 70 e1 38 bb 11 42 48 bb 7b bc 23 bb 54 09 f1 ba
       -0.0028210543 -0.0030556957 -0.002498417 -0.0018389621
000350 47 82 0f bb ac bf ad ba 44 0e 5d b9 5c 86 fb b9
       -0.002189772 -0.0013255975 -0.00021081517 -0.00047974556
000360 b6 83 66 ba 28 48 53 ba 17 36 e4 b9 92 d1 a7 b9
       -0.000879343 -0.00080597633 -0.0004352785 -0.00032008864
000370 60 37 fc 38 e6 51 af 39 ce 50 b0 39 78 36 b0 39
       0.00012026611 0.0003343962 0.0003362954 0.00033609918
000380 78 36 b0 39 74 36 b0 39 ac 44 b0 39 8b 4d 05 39
       0.00033609918 0.00033609907 0.000336205 0.00012712755
000390 fe d1 b0 39 6a 63 82 39 69 12 0a 39 6d 63 ce b9
       0.00033725792 0.00024869601 0.00013167564 -0.0003936546
0003a0 8c 68 8f ba 4d ed 9d ba aa 9b cc ba c6 c8 d5 ba
       -0.0010941192 -0.001204887 -0.0015610356 -0.0016310445
0003b0 38 03 89 39 3a d6 40 3a 18 77 96 3a c4 69 b7 3a
       0.00026133074 0.0007356141 0.0011479585 0.0013993313
0003c0 24 c3 93 3a 14 9d 2d 3a cb 39 82 39 0c 33 43 ba
       0.0011273366 0.0006622833 0.0002483859 -0.0007446266
0003d0 8a d3 09 ba 46 23 7d ba 94 49 81 b9 10 e0 01 b8
       -0.0005257657 -0.000965644 -0.00024659617 -3.096467e-05
0003e0 50 b9 f8 39 22 5d bb 39 92 37 b0 39 78 36 b0 39
       0.00047440315 0.0003573681 0.0003361074 0.00033609918
0003f0 78 36 b0 39 82 04 b1 39 10 0f b5 39 e6 24 b5 39
       0.00033609918 0.0003376343 0.00034534233 0.00034550502

exp_avg_sq f4 [64, 784]
000000 7c 96 7e 36 7c 96 7e 36 7c 96 7e 36 7c 96 7e 36
       3.7936543e-06 3.7936543e-06 3.7936543e-06 3.7936543e-06
000010 7c 96 7e 36 7c 96 7e 36 7c 96 7e 36 7c 96 7e 36
       3.7936543e-06 3.7936543e-06 3.7936543e-06 3.7936543e-06
000020 7c 96 7e 36 7c 96 7e 36 7c 96 7e 36 7c 96 7e 36
       3.7936543e-06 3.7936543e-06 3.7936543e-06 3.7936543e-06
000030 f0 9d 7e 36 a2 b5 7e 36 7c 96 7e 36 7c 96 7e 36
       3.7940881e-06 3.7954674e-06 3.7936543e-06 3.7936543e-06
000040 7c 96 7e 36 7c 96 7e 36 7c 96 7e 36 7c 96 7e 36
       3.7936543e-06 3.7936543e-06 3.7936543e-06 3.7936543e-06
000050 7c 96 7e 36 7c 96 7e 36 7c 96 7e 36 7c 96 7e 36
       3.7936543e-06 3.7936543e-06 3.7936543e-06 3.7936543e-06
000060 7c 96 7e 36 7c 96 7e 36 7c 96 7e 36 7c 96 7e 36
       3.7936543e-06 3.7936543e-06 3.7936543e-06 3.7936543e-06
000070 7c 96 7e 36 7c 96 7e 36 7c 96 7e 36 7c 96 7e 36
       3.7936543e-06 3.7936543e-06 3.7936543e-06 3.7936543e-06
000080 6a 96 7e 36 6a 96 7e 36 7a 6e 7e 36 40 a6 7e 36
       3.7936502e-06 3.7936502e-06 3.7913255e-06 3.794572e-06
000090 75 f6 7e 36 1e c4 7e 36 c9 44 7f 36 bd e4 7e 36
       3.7992406e-06 3.7963105e-06 3.8038e-06 3.7982093e-06
0000a0 44 14 7f 36 5f c1 7e 36 b7 65 7e 36 73 3d 80 36
       3.8009757e-06 3.7961506e-06 3.7908155e-06 3.821851e-06
0000b0 96 52 7f 36 0e f5 7e 36 18 9a 7e 36 a0 b3 7e 36
       3.8046032e-06 3.799159e-06 3.7938644e-06 3.7953505e-06
0000c0 fd f5 7e 36 ff 03 80 36 2c f2 7f 36 20 a9 7e 36
       3.7992133e-06 3.8151625e-06 3.8138924e-06 3.7947393e-06
0000d0 7c 96 7e 36 7c 96 7e 36 7c 96 7e 36 7c 96 7e 36
       3.7936543e-06 3.7936543e-06 3.7936543e-06 3.7936543e-06
0000e0 7c 96 7e 36 7c 96 7e 36 d8 96 7e 36 0a 97 7e 36
       3.7936543e-06 3.7936543e-06 3.7936752e-06 3.7936866e-06
0000f0 aa 92 7e 36 2b 95 7e 36 27 d2 7e 36 b1 15 7f 36
       3.793432e-06 3.7935777e-06 3.7971274e-06 3.8010587e-06
000100 d2 bb 7f 36 af 0d 80 36 0f 41 82 36 2b 1f 81 36
       3.8107287e-06 3.8162902e-06 3.8818757e-06 3.848128e-06
000110 1c 09 86 36 1d d0 8c 36 43 f8 85 36 c9 27 97 36
       3.9945717e-06 4.1965527e-06 3.9926103e-06 4.5047823e-06
000120 79 14 95 36 b9 52 90 36 1e 94 8c 36 28 5a 89 36
       4.4429294e-06 4.3011646e-06 4.1895682e-06 4.0934137e-06
000130 ce a4 83 36 94 98 81 36 76 04 81 36 c9 70 7f 36
       3.92329e-06 3.862262e-06 3.845019e-06 3.806361e-06
000140 7b 2a 7f 36 76 92 7e 36 7c 96 7e 36 7c 96 7e 36
       3.8022688e-06 3.79342e-06 3.7936543e-06 3.7936543e-06
000150 7c 96 7e 36 7c 96 7e 36 94 92 7e 36 88 92 7e 36
       3.7936543e-06 3.7936543e-06 3.793427e-06 3.7934242e-06
000160 b0 a2 7e 36 3b fc 7f 36 4f 7a 80 36 47 3a 82 36
       3.7943646e-06 3.8144779e-06 3.828936e-06 3.8810863e-06
000170 01 62 85 36 76 45 8c 36 7a 67 99 36 8e 41 a0 36
       3.975118e-06 4.1804115e-06 4.5718016e-06 4.776003e-06
000180 ee f0 ba 36 3b 52 ef 36 08 5c 15 37 60 5f 2b 37
       5.57128e-06 7.132328e-06 8.90252e-06 1.02146005e-05
000190 0d 8e 1d 37 e4 df 0c 37 d0 0b f0 36 7d 39 ca 36
       9.391003e-06 8.396779e-06 7.1539325e-06 6.0267616e-06
0001a0 57 4a bb 36 0a 2d a0 36 d8 60 9a 36 39 e0 87 36
       5.5816886e-06 4.773615e-06 4.6008317e-06 4.0494165e-06
0001b0 d6 b4 81 36 21 d8 7f 36 44 bc 7f 36 7c 96 7e 36
       3.8655517e-06 3.8123765e-06 3.8107546e-06 3.7936543e-06
0001c0 7c 96 7e 36 9a 96 7e 36 bf 79 7e 36 d7 a2 7e 36
       3.7936543e-06 3.793661e-06 3.7919815e-06 3.7943735e-06
0001d0 9b 54 80 36 cd b8 81 36 05 67 84 36 6c bd 90 36
       3.8245466e-06 3.8660132e-06 3.9458996e-06 4.313586e-06
0001e0 3b 56 ac 36 88 ce ed 36 80 3c 14 37 39 81 45 37
       5.136038e-06 7.087194e-06 8.835574e-06 1.1772202e-05
0001f0 ca 52 92 37 e1 05 cd 37 ed 33 03 38 52 4d 09 38
       1.7443108e-05 2.4440642e-05 3.1281194e-05 3.2735355e-05
000200 87 64 e2 37 a0 2e b2 37 fd c5 8e 37 f1 91 63 37
       2.6988111e-05 2.1240965e-05 1.7019915e-05 1.3564234e-05
000210 fd ca 2c 37 a3 b7 07 37 44 df e2 36 54 63 b4 36
       1.0299261e-05 8.089383e-06 6.7613164e-06 5.3759813e-06
000220 40 02 8c 36 07 61 82 36 fa e2 7e 36 e6 a4 7e 36
       4.172587e-06 3.8855974e-06 3.7981067e-06 3.7944933e-06
000230 7c 96 7e 36 7c 96 7e 36 78 8e 7e 36 92 07 80 36
       3.7936543e-06 3.7936543e-06 3.7931877e-06 3.8155786e-06
000240 32 e4 84 36 bd e3 90 36 ca 4e a3 36 ba 39 d5 36
       3.960472e-06 4.3180466e-06 4.866951e-06 6.354615e-06
000250 e6 ad 2d 37 69 69 85 37 42 16 bd 37 e3 88 07 38
       1.0352092e-05 1.5903921e-05 2.254092e-05 3.2313994e-05
000260 ba a5 37 38 0e e7 5e 38 8e aa 7c 38 a6 bf 8a 38
       4.3784945e-05 5.314411e-05 6.0240323e-05 6.61605e-05
000270 5c 69 7d 38 f9 31 4f 38 ac d4 18 38 65 c3 ea 37
       6.0418024e-05 4.9399187e-05 3.643769e-05 2.7985961e-05
000280 ed 2d 9d 37 94 28 49 37 83 26 0b 37 ac 49 ce 36
       1.8737244e-05 1.1989981e-05 8.294012e-06 6.147855e-06
000290 f3 37 94 36 85 52 81 36 b7 ee 7d 36 3e 9e 7e 36
       4.417257e-06 3.854106e-06 3.7838888e-06 3.7941059e-06
0002a0 7c 96 7e 36 7a 96 7e 36 5a a2 7e 36 e6 76 85 36
       3.7936543e-06 3.7936538e-06 3.794345e-06 3.9775505e-06
0002b0 2f 88 91 36 ae 29 ac 36 94 47 e8 36 51 f3 33 37
       4.3371906e-06 5.1308516e-06 6.9224716e-06 1.0725883e-05
0002c0 86 9d 90 37 f8 47 d8 37 f3 81 1a 38 0f d1 57 38
       1.723949e-05 2.578272e-05 3.6837486e-05 5.1454695e-05
0002d0 31 40 86 38 84 26 99 38 72 dc a7 38 fd 3a b8 38
       6.4015745e-05 7.3027826e-05 8.004242e-05 8.784791e-05
0002e0 bb ef b7 38 e7 5c 91 38 77 fa 5e 38 f9 7a 27 38
       8.770773e-05 6.931443e-05 5.3162188e-05 3.993043e-05
0002f0 30 20 da 37 79 6f 82 37 4e 30 23 37 bc b5 c8 36
       2.6002614e-05 1.5549116e-05 9.726804e-06 5.981621e-06
000300 97 40 90 36 d4 76 80 36 65 af 7e 36 06 82 7e 36
       4.2990537e-06 3.8285307e-06 3.7951042e-06 3.7924633e-06
000310 78 96 7e 36 28 d0 7f 36 12 ae 7e 36 98 48 85 36
       3.7936534e-06 3.8119124e-06 3.7950272e-06 3.97216e-06
000320 df a8 a2 36 7a a1 c4 36 1b 67 16 37 fa 93 75 37
       4.8476354e-06 5.8600535e-06 8.964703e-06 1.4637591e-05
000330 a2 48 c7 37 d2 bf 0f 38 f2 1f 36 38 0d 48 67 38
       2.3756471e-05 3.4272503e-05 4.3421933e-05 5.5141794e-05
000340 37 c9 86 38 c2 7c 9c 38 bc bd a6 38 08 a5 b4 38
       6.427097e-05 7.4618976e-05 7.9508376e-05 8.613808e-05
000350 10 31 b0 38 27 00 9a 38 51 92 86 38 c0 48 48 38
       8.4014726e-05 7.3433206e-05 6.4168715e-05 4.775147e-05
000360 5c bf 0d 38 60 82 a4 37 df 24 3b 37 a9 3c db 36
       3.3795237e-05 1.9611034e-05 1.1154653e-05 6.5337704e-06
000370 09 b3 92 36 81 87 82 36 69 50 7f 36 07 9c 7e 36
       4.3719815e-06 3.8900766e-06 3.8044766e-06 3.793977e-06
000380 8a 97 7e 36 dc f9 7e 36 65 82 7e 36 ad 1e 86 36
       3.7937157e-06 3.7994387e-06 3.792485e-06 3.9970823e-06
000390 e3 3a a0 36 b3 f7 d8 36 de 75 2b 37 e1 82 8f 37
       4.775227e-06 6.4661376e-06 1.0219837e-05 1.7107874e-05
0003a0 b2 b9 d2 37 06 f5 07 38 7f ea 27 38 87 70 59 38
       2.5120422e-05 3.2414704e-05 4.0034294e-05 5.184163e-05
0003b0 11 55 74 38 fe dc 7c 38 0e e8 71 38 cd f0 83 38
       5.8253358e-05 6.0287297e-05 5.7674995e-05 6.2914194e-05
0003c0 c4 a4 8a 38 bc ad 89 38 6a 2a 7b 38 fa 82 40 38
       6.611043e-05 6.5650296e-05 5.9882565e-05 4.589835e-05
0003d0 c0 6b 0b 38 07 56 ae 37 d6 ac 43 37 7a 7a e1 36
       3.3240533e-05 2.0782476e-05 1.1663147e-05 6.7197807e-06
0003e0 d6 17 91 36 a9 aa 82 36 00 b8 7f 36 fb bc 7e 36
       4.3241116e-06 3.8941694e-06 3.8105063e-06 3.795895e-06
0003f0 31 91 7e 36 1c fa 7e 36 39 70 7f 36 89 08 87 36
       3.7933462e-06 3.7994532e-06 3.8063283e-06 4.024307e-06

exp_avg f4 [64]
000000 9e b1 4f ba 1a 9e 58 39 63 f6 08 3a 47 16 0e bb
       -0.00079228904 0.00020658263 0.0005224703 -0.0021680759
000010 6e 20 88 ba b6 79 7e b9 7b 7c f6 39 cb f7 81 b9
       -0.0010385641 -0.00024268668 0.00047013522 -0.00024789418
000020 91 6f 03 b9 3b 3d 41 3a 78 60 70 ba f6 5d 68 ba
       -0.00012534695 0.000737149 -0.00091696484 -0.0008864099
000030 14 31 a8 3a b0 28 70 39 02 d7 86 38 11 29 da ba
       0.0012832009 0.00022903341 6.429666e-05 -0.0016644319
000040 fc 3c 7d b9 6c f8 0f b9 3c c1 95 3a e6 f4 05 3a
       -0.00024150679 -0.00013730087 0.0011425386 0.000511004
000050 4e cf 18 b9 b0 8e d1 ba 33 54 93 b9 72 3a b0 ba
       -0.00014573077 -0.0015987959 -0.00028100758 -0.0013445152
000060 0c 41 00 3a fe d8 0f 3a 1f 0c e3 39 8a 2a 28 ba
       0.0004892505 0.00054873514 0.00043305845 -0.000641503
000070 b2 2a 8c 3a d0 aa ba 37 73 2e 58 39 0e da 6e b9
       0.0010693877 2.2252469e-05 0.00020616669 -0.0002277868
000080 60 49 ef b7 52 bf a4 b8 94 e8 2d 3a 13 66 1f 39
       -2.8525188e-05 -7.8557656e-05 0.0006634083 0.00015201447
000090 60 90 be 38 ce 30 bb 3a a0 92 53 ba 29 7a ab b9
       9.086798e-05 0.0014281513 -0.000807086 -0.00032706678
0000a0 71 9a 54 ba 78 54 05 39 08 9d ad b8 81 9a c3 ba
       -0.0008110172 0.00012715335 -8.278532e-05 -0.0014923365
0000b0 f1 c2 ee b9 8d 79 58 ba 81 4c bd 3a eb 61 e4 b8
       -0.0004554014 -0.00082578586 0.0014442356 -0.00010890126
0000c0 53 69 b5 b9 c2 d5 00 bb 86 7a ce b9 28 f3 52 b9
       -0.00034601483 -0.001965866 -0.0003938267 -0.00020117743
0000d0 d1 0c cd 39 77 d3 0c 3a 7b d5 7c 3a dc b7 0a 3b
       0.00039110196 0.0005372087 0.0009644848 0.0021166718
0000e0 2a 77 a1 ba 1e c6 a3 3a 60 6d 95 3a 14 0e 7a b9
       -0.0012318839 0.0012494957 0.0011400394 -0.00023847102
0000f0 85 bd 6c b9 c0 bf 54 3a 64 ee 3b 3a da 82 cc 3a
       -0.00022577315 0.0008115731 0.0007169007 0.0015602962

exp_avg_sq f4 [64]
000000 f2 d6 b0 37 9f 20 9d 37 f3 90 78 37 18 25 8f 37
       2.1080927e-05 1.8731049e-05 1.48157005e-05 1.7064202e-05
000010 62 7c 64 37 5b c5 3a 37 40 82 22 37 74 f7 69 37
       1.3618819e-05 1.1132414e-05 9.686279e-06 1.3945497e-05
000020 34 4b be 37 ba b7 2c 37 1e d7 8d 37 6a 35 62 37
       2.2684784e-05 1.0294776e-05 1.6908682e-05 1.3483086e-05
000030 62 7f a5 37 35 7e 57 37 a7 d2 8b 37 c0 13 8e 37
       1.972885e-05 1.28443835e-05 1.6668184e-05 1.6936916e-05
000040 06 1f 32 37 8f be f4 36 08 73 75 37 e1 ef 7d 37
       1.061685e-05 7.2939506e-06 1.4629921e-05 1.5135826e-05
000050 14 9f 29 37 fe f0 87 37 be ab 31 37 ca 93 8a 37
       1.0110223e-05 1.6205475e-05 1.0590009e-05 1.6519702e-05
000060 36 4f a1 37 30 77 0b 37 19 2d 60 37 30 71 80 37
       1.9229581e-05 8.312796e-06 1.3361941e-05 1.5311496e-05
000070 b1 6f 5f 37 72 2e 6b 37 bc 9e 51 37 c9 0f 80 37
       1.3317841e-05 1.4017905e-05 1.2494329e-05 1.526614e-05
000080 c1 75 42 37 ee 59 cc 36 b7 2d 45 37 7c 82 97 37
       1.1590718e-05 6.090143e-06 1.1752759e-05 1.8061364e-05
000090 bd 42 3e 37 94 8d 83 37 86 91 4d 37 47 dc 83 37
       1.1340421e-05 1.5682344e-05 1.22528345e-05 1.5718992e-05
0000a0 43 0c 42 37 30 04 a2 37 03 5e 63 37 57 8e 72 37
       1.1566156e-05 1.9313855e-05 1.3552143e-05 1.4457465e-05
0000b0 93 ee 4d 37 92 0d 99 37 22 61 8e 37 5e 20 83 37
       1.22745e-05 1.824534e-05 1.697295e-05 1.5631489e-05
0000c0 5b 15 a7 37 bd 32 92 37 16 26 7f 37 02 ad ca 37
       1.9917896e-05 1.7428183e-05 1.5208052e-05 2.416084e-05
0000d0 7a 6c 7f 37 5b 06 6f 37 bd 8a 37 37 8e 1d 04 38
       1.5224441e-05 1.424699e-05 1.09399525e-05 3.1498777e-05
0000e0 78 a7 8b 37 d9 34 88 37 b9 d2 74 37 00 8f 7e 37
       1.6648075e-05 1.6237072e-05 1.4592596e-05 1.5172875e-05
0000f0 09 47 7a 37 d1 c4 a2 37 c5 1d ae 37 ef 3b 9a 37
       1.49177e-05 1.9403555e-05 2.0756279e-05 1.838614e-05
