lightning_logs/version_5/checkpoints/epoch=2-step=645.ckpt (torch, 668780 bytes, 18 tensors)

model.1.weight f4 [64, 784]
000000 3e c1 07 bd 3b a8 80 bc 7b d2 e9 3c 9e e0 f8 bc
       -0.033143274 -0.015705219 0.028542748 -0.030380543
000010 19 92 5e bc aa a2 05 bc ab b0 7f bc 92 74 9c 3c
       -0.013584637 -0.008156458 -0.015606086 0.019098554
000020 41 49 e8 3b 88 3a 48 3c 5b 86 76 3c 98 71 ff bc
       0.0070888107 0.012220986 0.015046681 -0.031182095
000030 d2 f9 8b bc c1 a8 1d bb da 49 fc 3c 8a c2 ae 3a
       -0.017086897 -0.0024056884 0.030796934 0.0013333124
000040 de 85 56 bc b0 e0 cb 3c 9b 53 ee 3c b5 df 80 3b
       -0.01309344 0.024887413 0.0290926 0.003932918
000050 c3 fb 43 bb 18 5e c9 3c 40 4a e1 3c 40 41 21 bc
       -0.00299047 0.024581 0.027501225 -0.009842217
000060 aa 94 11 bd 64 24 02 bd 6c d8 df bc 66 e6 f2 bc
       -0.035542168 -0.031772986 -0.027324878 -0.029650878
000070 6e 50 79 3c ab e4 d3 3c c3 1e 09 bd 3e 9f db bc
       0.01521693 0.025865873 -0.033476602 -0.026809331
000080 9e dc e1 bb ed 91 0d bd d1 1e f6 3c 83 85 1c bc
       -0.0068927547 -0.034562994 0.030043991 -0.009553316
000090 65 bb c9 3b 87 c7 6b bc 38 31 02 bd 6b d0 8d bc
       0.0061563724 -0.014390833 -0.03178522 -0.017311295
0000a0 99 df 8b b9 fe 67 05 3c 1d 57 10 bd d3 cb 23 bd
       -0.0002667874 0.008142469 -0.035239328 -0.039989304
0000b0 d9 af ee bc 15 7d c7 bc 4b ac 1a bd 43 95 e0 3c
       -0.029136585 -0.024351636 -0.037761968 0.027414924
0000c0 61 90 d3 ba 5c ff 70 bc 5c da 29 bc fd c0 94 bb
       -0.0016141051 -0.01470932 -0.010367002 -0.0045396076
0000d0 56 0b 8b 3a 12 79 76 bc 64 64 7e 3c d2 61 bb bb
       0.0010608237 -0.015043514 0.015526865 -0.005718448
0000e0 3a a3 df bc 36 86 d3 bc b0 eb 86 3c 10 e5 10 bd
       -0.027299512 -0.025820833 0.016469806 -0.0353747
0000f0 49 f3 b9 bc f9 d8 01 3d 17 46 eb bc 77 90 11 bd
       -0.022699015 0.031701062 -0.028719945 -0.035538163
000100 16 59 ef bc 55 a8 b4 bc 3d af 0a bc 08 46 b5 bb
       -0.029217284 -0.022052923 -0.008464632 -0.00553203
000110 65 7a dd bc db c0 2c bd e4 b8 ff 3b 05 7a 1d bd
       -0.027035901 -0.04217611 0.007804023 -0.038446445
000120 46 6d 29 bd ba 59 2e bd 05 54 50 bc a7 f2 f5 bc
       -0.041363977 -0.04256604 -0.012715344 -0.030022932
000130 2a 63 fd bc d9 cf 9c 3c 28 54 b5 bb 15 d2 ee 3c
       -0.030931074 0.019142078 -0.005533714 0.02915291
000140 47 cc 0d 3c 8f 38 ee bc 2f 78 06 bd d1 4e 82 3c
       0.008654661 -0.029079704 -0.03282946 0.015906723
000150 7b bc ef 3b 90 8f b1 3c 87 e2 0c 3b cc 9b b4 ba
       0.00731617 0.021674901 0.0021497326 -0.0013779341
000160 07 97 5c 3c 8f 31 bc 3c 6c 2b 53 bc 68 3a 54 3a
       0.013463742 0.02297285 -0.012888771 0.00080958614
000170 a9 36 b5 bc 69 8f 58 bc f8 c2 34 bd 5e 38 67 bc
       -0.02212079 -0.013217785 -0.04413125 -0.01411256
000180 13 9d 89 bd 90 6b b0 bc 35 5b fa bc 70 a4 32 bd
       -0.06719413 -0.021535665 -0.030561069 -0.04361385
000190 26 a7 42 bc 42 d8 74 bc e1 9a fa bc 72 39 8c bc
       -0.011880672 -0.014944138 -0.03059143 -0.017117236
0001a0 de e9 46 3b 52 a4 ba 3c ce 8d 57 3b d0 0a 01 3d
       0.0030351798 0.022783432 0.0032890919 0.031504452
0001b0 cc ea 0f bd 9e 51 e0 3c 2c 06 40 ba b5 76 66 bc
       -0.03513603 0.027382668 -0.00073251384 -0.014066388
0001c0 f5 59 00 bd a1 52 e0 3b ef 2a e3 bc c6 4a e8 3b
       -0.03133579 0.0068457876 -0.027730433 0.007088992
0001d0 52 0d 3f bc 52 e6 12 3a 26 e9 54 bc 9e ac d2 bc
       -0.011660891 0.00056037784 -0.01299504 -0.025717076
0001e0 b5 bd 06 bd 9e af 5f bd 47 ed 2d bd a1 76 73 bc
       -0.032895762 -0.05461084 -0.042462613 -0.014859826
0001f0 93 a3 69 bc 45 c7 19 bd 8f f5 a2 bd 57 bd b4 bd
       -0.014260191 -0.037543554 -0.07956993 -0.08825176
000200 23 ce 5a bd 65 18 91 bd ef 9a 0d bd 9f 36 b4 bc
       -0.053419244 -0.07084731 -0.034571584 -0.021998702
000210 15 30 ae 3b ca 4d e0 bc c5 9c 20 3c 80 7e 02 bd
       0.0053157904 -0.027380843 0.009803002 -0.03185892
000220 5c 19 93 bc b2 b3 87 bc 13 4b d0 bc d6 10 86 bc
       -0.017956428 -0.016565178 -0.025426423 -0.01636545
000230 fe 4b 57 3b 47 63 86 3b 1f 05 de bc 01 42 a8 3c
       0.0032851691 0.0041011903 -0.027102051 0.020539286
000240 01 d5 e3 3b 32 9e 0e bd 7e 0c 2d 3c f6 d6 dc 3a
       0.0069528823 -0.034818836 0.01056206 0.0016848731
000250 cb 11 33 bc bf fe 90 bc 8b d5 4a bd a8 d8 dc bb
       -0.010929535 -0.017699597 -0.049520057 -0.0067396946
000260 a5 4b 07 bd 21 d0 06 bd 7e 73 47 bb 61 32 f3 bb
       -0.033031125 -0.03291333 -0.003043383 -0.007421777
000270 b5 2f 08 bd bb 88 08 bc c8 d1 e5 b9 6d 73 c0 bc
       -0.033248622 -0.00833338 -0.00043834583 -0.02349254
000280 35 1f 8d 3b 5f 96 f2 bc 2a a5 2c 3c c7 8b df 3b
       0.0043066987 -0.029612718 0.010537425 0.0068220827
000290 16 f2 91 3b a8 4b 65 bc e1 78 a2 3b c8 26 ba 3c
       0.0044539077 -0.013995089 0.0049582575 0.02272357
0002a0 58 eb bb 3c af 07 fb 3c 2a 42 a3 3c 7c 68 55 3c
       0.02293937 0.030643312 0.01992901 0.013025399
0002b0 48 c7 9f 3b 57 b0 81 bb be c5 2a 3d d5 cf 70 ba
       0.004876051 -0.003957789 0.041692488 -0.0009186243
0002c0 7b 03 3d bb da ea 61 3d ce 45 42 3d d4 ce 81 bc
       -0.0028841186 0.055155613 0.047429852 -0.015845694
0002d0 9e b7 44 3d a1 a8 ed 3b 6f 50 2d 3d 41 cb 67 3d
       0.048026673 0.007252768 0.042313036 0.056590322
0002e0 26 50 16 bb 76 ec af 3a 1e a6 f7 3a b3 68 23 bd
       -0.0022935956 0.0013421911 0.0018894111 -0.03989477
0002f0 b5 48 59 bc 70 1b 95 bc 5a 12 8f 3a d1 4c 0c 3c
       -0.013261964 -0.01820156 0.0010915503 0.008563236
000300 b1 14 1c bc 9c 84 87 3c b7 49 d2 bc c0 9d ef 3c
       -0.009526418 0.016542725 -0.025669916 0.029250026
000310 7c d2 f6 3c bd 67 9d 3c 0d 78 ed 3c a1 e3 ad bc
       0.030129664 0.019214505 0.028987909 -0.021226706
000320 54 b3 18 3a 67 e7 47 bc 4a 2e 01 bc 0f 3c 52 3d
       0.0005825062 -0.012201167 -0.007884571 0.051326808
000330 5e ea a4 3b 94 f4 b8 3c db a0 70 3d 90 e2 36 3d
       0.0050328216 0.022577561 0.058747154 0.04464966
000340 f6 30 91 3c e5 09 27 3d 44 60 f9 3c 0a ad 54 3d
       0.017723542 0.04078092 0.03044141 0.051922835
000350 a4 75 6f 3d d2 69 ac 3b fa 32 7a 3b 2b b4 fb bb
       0.0584618 0.005261638 0.0038177357 -0.00768139
000360 8c cb db ba 76 3e ba 3b 36 f3 46 bb b6 41 99 3c
       -0.0016769036 0.0056837155 -0.0030357367 0.018708091
000370 d2 23 9a ba f1 b3 c8 3c 5e 4f 15 3c 07 d5 be bc
       -0.0011759943 0.024499865 0.009113161 -0.023294939
000380 69 21 d9 bc 88 53 cb 3c a9 2b 5a 3c 95 26 75 bc
       -0.026505189 0.024820104 0.013316073 -0.014962812
000390 59 d0 f6 3c 4d ef 99 3c bd 2b a5 3c 83 a8 54 3c
       0.030128645 0.018790865 0.020162458 0.012979629
0003a0 ab 07 48 3d 53 38 b2 3c 5a 39 77 3d 69 b6 28 3d
       0.048835438 0.021755373 0.06035743 0.041189585
0003b0 04 39 99 3d 08 a2 d6 3c b0 10 2a 3d bc 37 f6 b9
       0.07481578 0.02620031 0.04151982 -0.00046962302
0003c0 85 d3 26 3c 6d fd 18 bc 57 c2 93 3c 47 32 f2 3c
       0.010182266 -0.009337765 0.018037004 0.02956499
0003d0 09 71 48 3d cd ee fe bb bf 77 f1 3c fa a7 41 3c
       0.048935924 -0.007779932 0.029476045 0.011819834
0003e0 9b 99 b7 bc 15 21 2c 3c e5 bc 37 bc fa 7e 2f 3c
       -0.022412112 0.010505934 -0.01121447 0.010711426
0003f0 c8 ae 63 bb ad 29 05 bd 2f bf f4 3c f4 7a c0 3c
       -0.003474163 -0.03251045 0.02987632 0.023496129

model.1.bias f4 [64]
000000 8b 06 0b 3d b4 e6 13 3d fd 8b 14 3d 3c cf ab bc
       0.033941787 0.036108688 0.036266316 -0.02097284
000010 a9 37 ef 3c d4 aa 51 3c 70 2c ca bc 8f 5f a1 b8
       0.029201346 0.012797076 -0.024679393 -7.6948774e-05
000020 16 f1 15 3c 2c 90 c5 3c 03 94 46 bc fb 2d dd 3c
       0.009151718 0.024116598 -0.01212025 0.026999464
000030 51 3f 1e bc 18 44 91 bb fe 6e b2 3b df 26 b7 bc
       -0.0096586505 -0.0044331662 0.00544536 -0.022357402
000040 17 d4 10 3d 1c 26 a3 bc c6 8d 38 bc 0e ef c6 3c
       0.035358515 -0.019915633 -0.01126427 0.024283912
000050 4c a8 2f 3d 01 dc 33 3a 6a 40 30 3c 78 5f b7 bc
       0.04288511 0.0006861091 0.010757545 -0.02238439
000060 45 b3 93 3b d6 0e f0 3b e4 06 9d 3c 65 69 77 b7
       0.0045074546 0.0073259873 0.019168325 -1.4746886e-05
000070 68 80 04 3d 15 81 08 3d d9 c4 8d 3a e5 1a 18 3d
       0.03234902 0.033326227 0.0010816111 0.037135024
000080 b5 53 e0 3c 36 17 2a 3d 49 7a 70 3c 4c 19 13 3d
       0.027383665 0.041526042 0.014677593 0.035912797
000090 56 d0 13 bc c6 f8 28 3d 96 f2 cd 3c 0d 08 83 3b
       -0.009021839 0.041252874 0.025140088 0.0039987625
0000a0 6d ef 0e bc c3 85 8e bc cd 5b 08 bd 1c ee f6 3c
       -0.008724076 -0.017397767 -0.033290673 0.030142836
0000b0 57 48 d4 bc e1 0b 33 3d aa 6d 07 3d 15 00 32 3d
       -0.0259134 0.0437125 0.03306357 0.04345711
0000c0 11 bb b8 3b 89 6e 17 3d 92 4f b3 bc b0 3e 10 3d
       0.0056375344 0.03697065 -0.021888528 0.035216033
0000d0 ed 7f 9d bc 5d 95 88 bc 4c aa 43 3a e4 41 52 3c
       -0.019226039 -0.016672784 0.0007464036 0.012833092
0000e0 cc b8 47 bc 5e 0b 26 bb 32 eb b8 b8 6c 40 1b 3d
       -0.012190055 -0.0025336365 -8.817612e-05 0.037903234
0000f0 67 c5 d1 3a b6 84 01 3d a4 64 96 3c ca 76 20 3d
       0.0016004265 0.031620704 0.018358536 0.039175786

model.4.weight f4 [64, 64]
000000 4d a1 a2 bc 61 59 ec bd 1a 6f b9 3c 27 ee 97 3d
       -0.019852305 -0.11540485 0.022635985 0.07418471
000010 20 7a 7c bd d6 a3 19 3e 34 01 63 3d 1b fa ca bd
       -0.061639905 0.15003905 0.05542107 -0.09910985
000020 e2 a8 bb bd 2a d3 82 3d 65 aa ae bd a8 4a 94 bd
       -0.09163071 0.063879326 -0.08528594 -0.07240802
000030 f8 a1 9f bd 93 1c be bd 72 49 ed 3d 3d ba 79 bc
       -0.07794565 -0.09282794 0.11586274 -0.015242157
000040 ce 4e ba bd c9 f2 97 3d 31 dc 63 3d f5 f7 99 bd
       -0.09097062 0.074193545 0.055629913 -0.07517997
000050 23 a7 23 3e c0 25 14 3d 71 0d ca bd 0c 65 03 bd
       0.15981726 0.036168814 -0.09865845 -0.032078788
000060 b0 b9 b5 3b 9b f2 88 bd 9c ae 04 be 2b 59 ad bd
       0.0055458173 -0.06686898 -0.12957233 -0.08464273
000070 b3 a7 f2 3b de 70 87 3d 73 2b 4b 3d f5 a1 4e bd
       0.007405245 0.066133246 0.049601983 -0.050447423
000080 50 8d e0 3d 4f ee 59 3d 3f 07 c6 bd 7e 53 7d bd
       0.10964453 0.053205784 -0.09669351 -0.061847202
000090 39 52 c2 bd 6f b1 ee 3c a8 b3 13 3e 88 51 99 bd
       -0.09488339 0.029137341 0.14424002 -0.07486254
0000a0 d3 42 46 3d d9 61 aa 3b d6 25 ae bd f0 13 10 bd
       0.048403572 0.0051996526 -0.085033104 -0.035175264
0000b0 66 4f ab 3d c7 ea 88 bd 34 a3 02 3e a4 ec e4 bc
       0.083647534 -0.06685405 0.1275757 -0.02794487
0000c0 56 90 9d bd a3 8a 00 3c 13 7f 20 3e c1 8e 4a 39
       -0.076935455 0.007845554 0.15673475 0.00019317401
0000d0 58 ca 97 3d ac f8 89 3d 6a b7 5e 3d fb da 85 3d
       0.07411641 0.067368835 0.054374136 0.06535908
0000e0 d0 9e 16 bd b1 67 a4 bd 82 fc ba bd 97 1c 2b 3e
       -0.03677255 -0.0802759 -0.09130193 0.16710125
0000f0 2a 04 1c 3d 7f 77 e0 3d f1 53 6c 3b b1 03 e9 3d
       0.03808991 0.10960292 0.0036060775 0.11377657
000100 50 e1 65 bd da 3b e2 3d fd b4 95 3c 17 0f 1b 3e
       -0.056123078 0.11046572 0.018274779 0.15142475
000110 73 a2 65 3d d9 bc e3 3b d8 13 98 3b 0c 07 f4 3d
       0.056063127 0.0069500026 0.0046410374 0.119154066
000120 f6 15 ad 3d 90 e4 95 bd 2f 86 95 3d 8c 03 0d 3d
       0.08451454 -0.073189855 0.07300984 0.03442721
000130 dc 54 a8 3d da cd b9 3c fe df 23 be f9 5b 86 bd
       0.08219311 0.022681165 -0.16003415 -0.06560511
000140 bf 5e 76 3b 6a b0 f6 3d 17 76 b4 3b 11 11 7c bd
       0.0037593094 0.12045367 0.0055072415 -0.061539713
000150 40 0f a0 3d 33 0f a5 3d ae cd 90 bd 9f 60 2b bd
       0.07815409 0.0805954 -0.0707048 -0.041840192
000160 b7 24 f3 3d 34 d2 07 bd 86 42 45 3d 98 76 0a bd
       0.11872237 -0.03315945 0.048159145 -0.033804506
000170 c9 27 1e bd 6a 37 fd bc 0d f3 14 be 96 a7 4c bd
       -0.03861216 -0.030910213 -0.14545842 -0.04996451
000180 4a 5e f6 bd e2 d7 a0 bd f3 11 16 be 52 b0 40 3e
       -0.12029703 -0.078536764 -0.14655285 0.18817261
000190 b8 a0 c9 bd 55 13 bb 3d 0f f7 1e bc a7 88 b5 3c
       -0.09845108 0.09134547 -0.009702458 0.022159887
0001a0 fa fa d3 bd 81 65 2f 3c 31 db 72 3d 22 2d aa 3d
       -0.10350604 0.010705353 0.05929107 0.0830939
0001b0 af 36 0f be fd aa d6 bc de 9e 15 be ae 13 3a bb
       -0.13985704 -0.02620458 -0.14611384 -0.0028393078
0001c0 5d c4 b3 bd 85 07 6f 3d 3c e2 bd 3c b3 43 0e 3b
       -0.08777688 0.05835678 0.023179166 0.0021707832
0001d0 0a 5f 79 bb 8a cb 3c bc 87 b6 4b bd 2d b5 d9 3d
       -0.0038051032 -0.011523137 -0.04973462 0.1063026
0001e0 42 1f 16 3e 30 84 88 bd 47 e7 77 3d f9 70 a5 3c
       0.14660361 -0.06665838 0.060523298 0.020195471
0001f0 7c 1a 36 3d 05 11 df 3d 01 8f 11 3e 68 21 21 3e
       0.04445885 0.10891918 0.14214708 0.157354
000200 5d 75 05 bd 8d 0f 6a 3c 27 ba b6 3c da ee 5e 3d
       -0.03258263 0.014285934 0.022305561 0.054427005
000210 6d 38 2a 3d a7 49 c1 3d 23 82 f2 3d ac 2c f2 bc
       0.041557718 0.09437876 0.11841228 -0.029562317
000220 2c 0c 64 3d af ab 1d bd cd 6b 8a bd 0f 43 b2 bd
       0.05567567 -0.03849381 -0.067588426 -0.08704197
000230 3d b7 2a bd a1 bf 91 3d f2 38 cb bd 9c bf 37 3d
       -0.041678656 0.071166284 -0.09922971 0.044860467
000240 e9 5c 09 3d df 5f 7b bc f5 4a 86 3d a7 65 de 3d
       0.03353587 -0.015342682 0.06557266 0.108592324
000250 77 9a 2e 3c 6f 4a df bd 1a 43 ce 3d 92 ed 1e be
       0.0106569445 -0.10902869 0.10071392 -0.15520313
000260 a9 94 38 bd 39 31 69 bd d6 a6 35 3d 9d a6 18 3d
       -0.04506365 -0.056931708 0.04434856 0.03726827
000270 fb aa cc 3d 86 d0 da 3d 45 7c 8f 3a 21 fc 1e 3d
       0.099935494 0.10684304 0.0010947069 0.038814668
000280 0e 00 12 3e ad 4a b1 3c 2d 13 85 bd 7e 26 d2 3d
       0.14257833 0.021642053 -0.06497798 0.10261248
000290 e0 44 d3 bd 7f 5c eb 3d e6 28 99 3c f5 ea 07 3d
       -0.10315871 0.114922516 0.01869626 0.033183057
0002a0 1d 71 c3 3c 6b 85 b8 bd e2 9c ae 3d a9 86 63 bd
       0.023857648 -0.090098225 0.08526017 -0.055548344
0002b0 c4 40 a6 bd aa 2a 95 bd 9c 63 74 3c 43 a6 96 bd
       -0.08117822 -0.07283528 0.014916327 -0.07355931
0002c0 84 04 e3 3d ef 72 9b bd 74 92 30 3d e2 be c6 bd
       0.11084846 -0.07590281 0.04310842 -0.09704377
0002d0 f6 aa c0 3d 3c 8a 28 be fb 0d 13 be bb f5 89 bd
       0.09407608 -0.16458982 -0.14360802 -0.067363225
0002e0 97 40 ee 3d c6 a2 ce bd 5e 90 4b 3d b4 2f c0 bd
       0.11633413 -0.1008964 0.049698226 -0.09384099
0002f0 e4 34 a1 3b 5a 65 bc 3d ae 8b f7 3c 95 cc e0 3d
       0.004919635 0.09199019 0.030217972 0.10976521
000300 80 af 1e be ab 12 59 bd 1e 75 0e bd 81 11 d7 3c
       -0.15496635 -0.05299632 -0.03477966 0.026253464
000310 20 0b d8 bd 64 1c e8 bd 1d 1e 7d bd 39 08 27 3d
       -0.10548997 -0.1133354 -0.061796296 0.040779326
000320 3d 50 02 3e ca 45 a5 bd 5a 96 15 3d d5 6b 13 bc
       0.12725921 -0.08069952 0.03652034 -0.008997877
000330 92 33 37 bd c5 d1 b3 3d 6e 92 84 3d 25 0e 7a bd
       -0.044726916 0.08780245 0.06473242 -0.061048646
000340 90 82 16 bc 85 5e 56 bd bb 83 8c bd 3a 92 d6 bd
       -0.009186402 -0.052336235 -0.06861063 -0.10477109
000350 3b 0b 6f bd 6e 0b 02 3d c2 c5 47 3d eb e8 a1 3d
       -0.05836032 0.03174918 0.04877258 0.07905754
000360 26 43 26 3d 8e 95 d3 bd 56 7a 8c bd 2b 36 69 3c
       0.04059138 -0.1033126 -0.06859271 0.014234106
000370 1f a8 db bd 91 7b e4 3d 46 74 92 3d 98 8a c1 bd
       -0.10725426 0.11156381 0.07151084 -0.09450263
000380 dd 9c 07 3d e9 07 6b ba 21 2e ba bc 8d 30 1e 3e
       0.03310858 -0.0008965717 -0.022727074 0.15448208
000390 53 5c cc 3d 60 3e 00 3d 7a 4a 04 3e 79 fe 05 3e
       0.09978547 0.031309485 0.12919036 0.13085355
0003a0 52 bf a0 3d 23 9e 3b 3e 55 6f f4 3d 07 fb 07 bc
       0.078489915 0.18322043 0.119352974 -0.008299596
0003b0 1c 1a 2f bd 5b a1 c8 3d 06 14 86 3d ae 24 10 3e
       -0.04274951 0.09796401 0.06546788 0.14076492
0003c0 5c 31 93 3b 30 cc 33 3e 2c 95 31 be dc 32 e3 3c
       0.004491968 0.1755836 -0.17342061 0.027734213
0003d0 a6 4f 84 bd 4e 85 ff bc 34 dc 9d 3d 39 94 84 3d
       -0.06460504 -0.031191494 0.07708016 0.06473584
0003e0 93 41 b9 bb f0 8f 58 bb 8e e3 4c 3c 4c 2b b9 bd
       -0.005653569 -0.0033044778 0.012505425 -0.09041461
0003f0 3f 24 b1 3b 82 3e 04 3e 0c a4 fa bd 85 ce 80 bb
       0.005405932 0.1291447 -0.12238321 -0.003930869

model.4.bias f4 [64]
000000 1d e4 c6 3b 73 59 0d 3d 09 79 12 3e a6 98 be 3d
       0.0060696737 0.034509134 0.14303984 0.09306459
000010 90 7c 2f bc 03 73 5a bd 73 a3 af bd 21 fa 1a 3c
       -0.01071085 -0.05333234 -0.08576097 0.009459049
000020 c8 fb 05 3e 2e 70 91 3d 2c ab cb 3d 3f 01 7f bd
       0.13084328 0.07101475 0.09944758 -0.062257048
000030 a8 0d 68 bb a7 7c ee 3c 4b d0 a9 bd 24 33 ee 3c
       -0.003540853 0.029112173 -0.08291682 0.02907712
000040 0d b4 77 bd 80 51 cc bd 16 5f 02 bd 0f a3 e4 3d
       -0.060474444 -0.099764824 -0.031828962 0.111639135
000050 59 e9 88 3d 6f 0a f3 3d e5 ad e8 3a 65 10 ad bb
       0.066851325 0.118672244 0.001775202 -0.0052814954
000060 bc f8 92 bd cc e1 b6 bd e7 f4 3f bc 15 b4 91 bd
       -0.071763486 -0.08929786 -0.011716104 -0.07114426
000070 7d 8a ad 3d 82 bb 70 3d 0d e1 7b bd 88 5b 92 3c
       0.0847368 0.05877257 -0.061493922 0.017865911
000080 11 2a 6d bd f7 7e 40 bd 63 fc 19 3c 32 b9 6a 3d
       -0.057901446 -0.046996083 0.009398553 0.057305522
000090 55 79 a5 bd 64 2e eb 3d 45 b2 cb 3d 56 1e b8 3c
       -0.08079783 0.11483458 0.099461116 0.022475403
0000a0 4c 6c 93 bc 8d 47 ba bc ce ce ac 3d 61 7e 9d 3d
       -0.017995976 -0.022739196 0.08437882 0.076901205
0000b0 71 a8 80 bd 68 73 22 bd dd 1d ab 3d 5f 9d e2 3d
       -0.06282128 -0.03966084 0.08355305 0.110651724
0000c0 9f 53 bf 3d 51 ee d4 3d 56 fe f7 3d 03 5c 01 3e
       0.09342121 0.10397018 0.121090576 0.12632756
0000d0 c1 bb ac 3d fc 98 11 bc e1 aa 8e bd bc 9c cd 3c
       0.08434249 -0.008886572 -0.06966186 0.02509915
0000e0 9c ad cc bd f1 75 76 bd a3 17 11 bb 69 ac 9d bc
       -0.09994051 -0.06017107 -0.0022139333 -0.01924725
0000f0 d8 ed 78 3c 54 13 f5 3d 3f c5 b9 3d 60 39 dc 3d
       0.015193425 0.11966577 0.09070825 0.10753131

model.7.weight f4 [10, 64]
000000 1b 71 90 bb ce d3 08 3e 74 22 2a 3e 69 66 e7 bd
       -0.0044080145 0.13362047 0.16614705 -0.1129883
000010 3f 7f 83 3d 03 f5 0d be 83 f4 11 be e6 a5 8e bd
       0.06420755 -0.13862996 -0.1425343 -0.06965236
000020 a5 96 fa bd 32 70 25 be 45 b1 19 bc fe 34 14 be
       -0.122357644 -0.1615608 -0.009380643 -0.1447334
000030 c3 86 77 3c 34 69 9d bd 7f 84 ef bc 77 6d 8b bd
       0.015107813 -0.076860815 -0.029237984 -0.06807988
000040 2a 73 0c bd 8f 36 ab 3d e3 65 44 be aa 1f 84 3d
       -0.034289517 0.083600156 -0.19179492 0.06451352
000050 dc 3f 1b 3d 2d d0 67 3d 10 2b 0f be 5b 69 13 3e
       0.037902698 0.056595016 -0.13981271 0.14395659
000060 49 1f 52 bd 3e 44 1f be b0 fa f5 3d e8 09 22 bd
       -0.051299367 -0.15553376 0.120107055 -0.03956023
000070 40 82 94 bd 26 c9 2f 3d 3f 3f 8d 3d 2d ed 0e be
       -0.07251406 0.04291644 0.06896829 -0.13957663
000080 82 ce 75 3d 2e 50 7e 3d 1f 01 19 be 02 d1 f8 3d
       0.060011394 0.062088184 -0.14941834 0.1214924
000090 a5 f2 e4 3d b2 1f ac bd 0f 8c b2 bd e5 df c4 bb
       0.11179093 -0.08404483 -0.0871812 -0.0060081356
0000a0 9c 1c c2 3b be 9a bf 3c da a9 be 3c e6 5a 83 bd
       0.0059238207 0.023389217 0.02327435 -0.06413822
0000b0 ce 61 a6 3d a4 20 03 be 73 be 3c 3c 49 11 15 3a
       0.081241235 -0.1280542 0.011520016 0.00056864746
0000c0 59 bf 23 3d 48 d6 9f bd 0d 8b e2 bd 74 dc ae bd
       0.039977405 -0.07804543 -0.11061678 -0.08538142
0000d0 5c eb 89 3d de 0f 80 3d 83 93 37 bd 69 7d a5 bd
       0.06734344 0.062530264 -0.044818413 -0.08080561
0000e0 fd 5a 04 3e 3e 0c ff 3d 2f 12 20 3e e2 d4 9f 3c
       0.12925334 0.12453507 0.15631936 0.01951069
0000f0 2b ed c2 3d 8c 8a 39 bd c7 57 c2 bd 94 fd a7 39
       0.095178925 -0.045298144 -0.094893984 0.00032041653
000100 26 da c3 3d a0 32 ba bd df 26 06 be b7 3b c1 3d
       0.09563093 -0.09091687 -0.13100766 0.09435218
000110 51 71 eb bd 6b 27 f9 3c d4 99 36 bd 0e 11 17 3e
       -0.11496223 0.030414304 -0.044580296 0.147526
000120 a2 9b af bd 09 96 04 3e bf b8 e2 ba e3 cb 7d bd
       -0.085746065 0.12947859 -0.001729749 -0.06196202
000130 40 56 45 bd bf 48 0d 3e 77 39 9c bc 34 0a c7 3d
       -0.048177958 0.13797282 -0.01907037 0.09718743
000140 cc dd 3a 3c 7c 60 35 be 1c 6c 21 be 16 2e f1 bd
       0.01140542 -0.17712587 -0.15763897 -0.11776368
000150 ec 1e 1f 3e e7 b0 a8 3d 9d 38 11 be 91 5e 34 be
       0.1553914 0.082368664 -0.14181753 -0.17614199
000160 1c 08 08 3d d8 55 32 3d 36 5a b2 3d aa da 48 bc
       0.03321086 0.0435389 0.087086126 -0.012259165
000170 4d 64 1b bc b5 5f 17 3e f9 b1 a6 3d 32 cb 13 3c
       -0.009484363 0.14782603 0.08139414 0.0090206135
000180 2a ce c8 bd 2b 9a df bd 92 02 8a bd 6d 25 16 be
       -0.09804948 -0.10918077 -0.067387715 -0.14662714
000190 b0 2b 51 bd bb d3 8e bd c7 c5 04 bd ba a5 1d be
       -0.051067054 -0.06973978 -0.032415178 -0.15395251
0001a0 0e 03 18 be b8 e4 b8 3d 9a be 09 3e 1f c7 a2 bd
       -0.14844915 0.09028 0.13451615 -0.079481356
0001b0 0a b8 7e 3c 0b 1c cc bd 78 58 fa 3d c3 bb 28 be
       0.015546808 -0.09966286 0.12223905 -0.16477875
0001c0 92 d2 e1 3b 77 db 2b be d0 d6 81 3d e8 c9 f9 3d
       0.006891557 -0.16782938 0.063398 0.12196714
0001d0 7c 81 b6 bd 0e 13 c3 3c c4 0e d2 3d 54 05 04 be
       -0.08911416 0.023812797 0.102567226 -0.12892658
0001e0 c0 95 a6 3d 70 ac 5b 3d 88 4d 9c bd 67 d2 2a 3d
       0.08134031 0.053631246 -0.076319754 0.04170456
0001f0 bb 9c 0b bd 5b 91 36 be fb 15 9c bc c6 19 31 be
       -0.034085017 -0.17828886 -0.01905345 -0.17294988
000200 4d 3a a2 bd 47 46 b1 3c 18 04 22 3d 77 ca cf 3d
       -0.07921276 0.021639956 0.039554685 0.10146039
000210 42 b6 41 3c 59 8c 0b be 16 98 a2 3d ef a1 20 3c
       0.011823239 -0.13627757 0.07939164 0.009804233
000220 db 2b 08 be 92 87 27 be 1b 61 1f be 4d 8c fe bd
       -0.1329798 -0.1636031 -0.15564387 -0.12429104
000230 9c c6 37 be 48 65 0a be d9 fc 0a 3e 81 53 1f 3e
       -0.17946857 -0.13515198 0.13573016 0.15559198
000240 01 53 9c 3d 02 e2 a9 3d fd 8a 64 3d 1a ee 3a 3c
       0.07633019 0.08295061 0.055796612 0.011409307
000250 34 a6 88 3d 1c 9e df 3c f4 df 93 3d 95 2e 12 be
       0.06672326 0.027297072 0.0722045 -0.14275582
000260 f9 0e c0 bd 65 46 b9 bd 52 04 07 3e 05 aa 1b bd
       -0.09377856 -0.0904663 0.13185242 -0.03800394
000270 e5 73 8b 3d c6 44 f7 3d df f4 a6 3d b3 1e ca 3b
       0.068092145 0.12073664 0.08152174 0.0061682104
000280 15 35 e5 bd 25 94 8c bd 09 7e b6 bd d1 51 57 3c
       -0.11191765 -0.06864194 -0.08910758 0.013142065
000290 5e e9 bd bc 71 0e 76 bd 9a 07 58 bd 5e 81 18 3e
       -0.023182567 -0.060072366 -0.052741624 0.148931
0002a0 38 f2 ea bc 24 3a a7 bc fc 16 eb 3d 25 8e 09 be
       -0.028679952 -0.020413466 0.11478993 -0.1343313
0002b0 0b 03 33 bd e2 df 91 3d f8 4a f3 3d 56 9b 9c 3d
       -0.043704074 0.071227804 0.118795335 0.076468155
0002c0 dc ae 19 bd 31 13 cc bd db 1d 16 3d fc 0b d7 bd
       -0.037520275 -0.09964598 0.036649566 -0.10500333
0002d0 fd 31 12 3e 9f 1b c1 3d f4 16 59 bd 4e ea d8 3d
       0.14276882 0.094290964 -0.053000405 0.10591565
0002e0 a9 69 ee bc 81 bc 11 be d7 e2 14 bd 39 09 f2 bd
       -0.029103117 -0.14232065 -0.036349144 -0.11818165
0002f0 4c 6e 12 be 0d e7 24 3e 68 2c 43 bc c3 e2 b2 bc
       -0.14299887 0.16103764 -0.011912443 -0.021836644
000300 c2 be 0f 3e 58 18 9a 3c c4 48 a3 bd 04 ca d9 bd
       0.14037612 0.018810436 -0.07972863 -0.106342345
000310 ed 09 8a 3c fe ed 92 bc 1d 0d 1c bc d1 8a 03 3e
       0.016850436 -0.01793575 -0.009524611 0.12845923
000320 cb 02 c6 3d fa 07 ee 3c 72 ae 17 be be 1b 1d 3e
       0.096685015 0.029056538 -0.1481264 0.15342614
000330 7c 4b d7 bc 92 c7 16 3c ef ce cc bd e8 b4 f9 bd
       -0.026281111 0.009202855 -0.10000407 -0.12192708
000340 ef aa 00 be 3b 3e c6 bb ae a6 ef bd 4c d6 c9 3d
       -0.12565206 -0.006049899 -0.117017135 0.09855327
000350 bc fa ed 3d dc f5 7d b9 09 54 c6 3d 08 d3 0b 3d
       0.116200894 -0.0002421955 0.09683997 0.034136802
000360 c7 e7 1b bd 7a 91 c3 bc 91 64 3b 3d 3c 93 d8 3d
       -0.038062837 -0.02387308 0.045750204 0.10574958
000370 99 f9 6b bd 02 67 31 bd 6a 2c 2b bd 22 a0 95 3d
       -0.05761108 -0.043311127 -0.041790403 0.073059335
000380 7d 27 8d bc 44 1f 61 bc d9 b7 12 3e 62 94 a5 3d
       -0.017230744 -0.013740364 0.14327945 0.080849424
000390 a1 59 7d 3d 3e 1b 9a bd 3d b0 87 3c 91 06 ff 3c
       0.061853055 -0.07524727 0.01656353 0.03113106
0003a0 cc a3 15 3e 4c e6 84 bd 5d 33 88 3d 1b 06 90 bd
       0.14613265 -0.06489238 0.06650422 -0.070324145
0003b0 75 37 5e 3b b4 6e 69 bd 0b eb 98 bc 6a b0 13 3e
       0.0033907567 -0.05699034 -0.018666765 0.14422765
0003c0 4b 3a 10 3e 77 ad 8f bd 8e 88 64 3d 5a 7a 51 bd
       0.14084737 -0.07015508 0.05579429 -0.051142074
0003d0 dc 46 12 be bb 70 13 be db cf 30 be 1e f8 2c bc
       -0.14284843 -0.14398472 -0.1726679 -0.010557203
0003e0 63 e3 21 be 94 41 31 be f4 47 a5 bd a3 13 b2 bd
       -0.15809397 -0.17310172 -0.080703646 -0.08695152
0003f0 c5 33 f1 3d 1b 83 1b 3e 82 59 15 bd 3d 7e e3 bd
       0.117774524 0.15186732 -0.036462314 -0.111080624

model.7.bias f4 [10]
000000 6b c1 1f 3d e8 52 9b bd 3b a9 ba bd 53 90 90 3c
       0.039002817 -0.075841725 -0.091143094 0.017646944
000010 5c 21 ec bd cd c4 6d 3d cf b2 98 bc 76 48 d0 bd
       -0.115298 0.058049012 -0.01863995 -0.10170071
000020 11 87 ed 3d 81 d4 35 bd
       0.115980275 -0.044392113

exp_avg f4 [64, 784]
000000 66 ca 12 b8 66 ca 12 b8 66 ca 12 b8 66 ca 12 b8
       -3.499761e-05 -3.499761e-05 -3.499761e-05 -3.499761e-05
000010 66 ca 12 b8 66 ca 12 b8 66 ca 12 b8 66 ca 12 b8
       -3.499761e-05 -3.499761e-05 -3.499761e-05 -3.499761e-05
000020 66 ca 12 b8 66 ca 12 b8 66 ca 12 b8 66 ca 12 b8
       -3.499761e-05 -3.499761e-05 -3.499761e-05 -3.499761e-05
000030 56 ca 12 b8 42 ca 12 b8 68 ca 12 b8 66 ca 12 b8
       -3.4997553e-05 -3.499748e-05 -3.4997618e-05 -3.499761e-05
000040 66 ca 12 b8 66 ca 12 b8 66 ca 12 b8 66 ca 12 b8
       -3.499761e-05 -3.499761e-05 -3.499761e-05 -3.499761e-05
000050 66 ca 12 b8 66 ca 12 b8 66 ca 12 b8 66 ca 12 b8
       -3.499761e-05 -3.499761e-05 -3.499761e-05 -3.499761e-05
000060 66 ca 12 b8 66 ca 12 b8 66 ca 12 b8 66 ca 12 b8
       -3.499761e-05 -3.499761e-05 -3.499761e-05 -3.499761e-05
000070 66 ca 12 b8 66 ca 12 b8 66 ca 12 b8 66 ca 12 b8
       -3.499761e-05 -3.499761e-05 -3.499761e-05 -3.499761e-05
000080 66 ca 12 b8 64 ca 12 b8 27 32 35 b7 65 64 26 38
       -3.499761e-05 -3.4997604e-05 -1.0800118e-05 3.9670984e-05
000090 e7 59 ff 37 6b 58 ca b7 12 f0 07 b8 63 81 e4 b7
       3.0440233e-05 -2.412145e-05 -3.241009e-05 -2.7239968e-05
0000a0 df 9c e9 b7 ef 54 fb b7 e8 c2 04 b8 86 67 0e b8
       -2.7848813e-05 -2.9961082e-05 -3.1652773e-05 -3.3951852e-05
0000b0 1f 55 f2 b7 d3 a2 a4 b7 9e 9c 08 b8 f6 f7 11 b8
       -2.8888286e-05 -1.9626144e-05 -3.2570788e-05 -3.4801626e-05
0000c0 4a b8 12 b8 20 47 12 b8 c0 29 12 b8 50 bd 12 b8
       -3.4980745e-05 -3.4875353e-05 -3.4847995e-05 -3.4985424e-05
0000d0 66 ca 12 b8 66 ca 12 b8 66 ca 12 b8 66 ca 12 b8
       -3.499761e-05 -3.499761e-05 -3.499761e-05 -3.499761e-05
0000e0 66 ca 12 b8 66 ca 12 b8 66 ca 12 b8 66 ca 12 b8
       -3.499761e-05 -3.499761e-05 -3.499761e-05 -3.499761e-05
0000f0 66 ca 12 b8 56 ca 12 b8 07 3e e9 b7 94 41 6b 38
       -3.499761e-05 -3.4997553e-05 -2.7804648e-05 5.608944e-05
000100 cc 47 80 38 7f 12 df 37 f0 ca 16 37 68 84 d4 b6
       6.116889e-05 2.6592284e-05 8.987947e-06 -6.3335065e-06
000110 3f 21 93 37 57 d3 d6 38 4f a3 8c 38 91 43 6d 37
       1.7539247e-05 0.0001024368 6.706139e-05 1.4142032e-05
000120 43 05 fe 37 d7 4e b7 b7 b8 ef 22 b8 12 40 0b b8
       3.028161e-05 -2.1852013e-05 -3.8847065e-05 -3.3199853e-05
000130 9c 58 0a b8 a4 97 09 b8 04 a2 11 b8 c2 6b 12 b8
       -3.2984288e-05 -3.280457e-05 -3.4721583e-05 -3.490947e-05
000140 0a b4 12 b8 b4 c0 12 b8 66 ca 12 b8 66 ca 12 b8
       -3.4976787e-05 -3.498858e-05 -3.499761e-05 -3.499761e-05
000150 66 ca 12 b8 66 ca 12 b8 66 ca 12 b8 5c ca 12 b8
       -3.499761e-05 -3.499761e-05 -3.499761e-05 -3.4997574e-05
000160 66 ca 12 b8 3c cb 12 b8 94 63 09 b8 a4 57 4c 38
       -3.499761e-05 -3.499839e-05 -3.2756085e-05 4.8719012e-05
000170 55 c5 ab 38 67 81 9d 38 9a 47 35 38 4e 25 18 38
       8.190671e-05 7.5104464e-05 4.3220447e-05 3.6274367e-05
000180 17 4a 11 39 3c 9a 9d 39 d0 b4 02 39 97 dc f7 35
       0.00013855878 0.00030060287 0.00012465124 1.8467134e-06
000190 28 2f 6a b8 b6 fa 95 b9 b0 d0 d8 b9 c9 62 d6 b8
       -5.5833865e-05 -0.0002860629 -0.00041354215 -0.00010222715
0001a0 fc dc a6 b8 00 80 ac b8 3b b1 74 b8 95 fa 76 b8
       -7.9566584e-05 -8.225441e-05 -5.8339192e-05 -5.8884343e-05
0001b0 cb b4 1a b8 1c bf 12 b8 66 ca 12 b8 66 ca 12 b8
       -3.6884838e-05 -3.4987097e-05 -3.499761e-05 -3.499761e-05
0001c0 66 ca 12 b8 66 ca 12 b8 66 ca 12 b8 84 ca 12 b8
       -3.499761e-05 -3.499761e-05 -3.499761e-05 -3.499772e-05
0001d0 54 8c 15 b8 74 f3 14 b8 00 42 f0 b7 75 49 90 38
       -3.565506e-05 -3.5512683e-05 -2.8640963e-05 6.8801375e-05
0001e0 0a 7f eb 38 8c 30 c2 38 1d e6 ef 38 6c 67 46 38
       0.00011229336 9.2596834e-05 0.0001143927 4.7303198e-05
0001f0 4b 2d a9 39 7e a3 8b 39 7d 83 88 39 50 d4 7f 38
       0.00032267938 0.00026633957 0.00026037908 6.099447e-05
000200 25 ee 5b b8 a7 df 55 b9 4e 87 61 b9 ba ef 99 b9
       -5.243546e-05 -0.0002039658 -0.00021508077 -0.00029361044
000210 9c 77 5f b9 0a 98 25 b9 04 27 80 b8 7f ef d7 b7
       -0.00021311495 -0.00015792265 -6.110783e-05 -2.5741521e-05
000220 ad 06 87 b8 b0 96 36 b8 9e 11 14 b8 66 ca 12 b8
       -6.438545e-05 -4.353252e-05 -3.5302357e-05 -3.499761e-05
000230 66 ca 12 b8 66 ca 12 b8 84 20 12 b8 d0 4c 23 b8
       -3.499761e-05 -3.499761e-05 -3.4839395e-05 -3.8933766e-05
000240 0a 7f 26 b8 dd 94 a8 b7 d7 0a 5b b7 9f 92 94 38
       -3.96958e-05 -2.009648e-05 -1.3055941e-05 7.0845e-05
000250 48 96 fd 38 a8 50 35 39 11 eb 95 39 1c df 82 39
       0.00012091972 0.00017291552 0.00028594633 0.00024961762
000260 7f 6f bb 39 61 97 3d 3a b9 82 4c 3a ba 82 99 3a
       0.0003575049 0.0007232335 0.00078014616 0.0011711933
000270 4e 5f 8d 3a b8 05 07 3a 13 6c 89 39 2f 75 48 39
       0.0010785849 0.00051506935 0.00026211198 0.0001911714
000280 25 a9 99 38 e3 36 ae 38 b4 45 35 36 13 93 d5 b7
       7.327114e-05 8.30719e-05 2.7011674e-06 -2.5460065e-05
000290 c0 d7 9a b8 94 c9 57 b8 22 a0 2a b8 64 ca 12 b8
       -7.383479e-05 -5.144773e-05 -4.0680294e-05 -3.4997604e-05
0002a0 66 ca 12 b8 5c ca 12 b8 50 af 10 b8 b0 82 db b8
       -3.499761e-05 -3.4997574e-05 -3.4495548e-05 -0.00010467076
0002b0 74 cc d7 b8 a3 6e 19 b9 cb 03 28 b9 cf 44 f6 b8
       -0.00010290081 -0.00014632432 -0.00016023142 -0.00011743011
0002c0 fd b5 3c b8 71 db d2 b8 7d c2 93 b9 7d f9 a0 36
       -4.4992183e-05 -0.000100544545 -0.0002818293 4.797416e-06
0002d0 e2 34 a8 39 51 67 30 3a 78 eb 75 3a 23 af ad 3a
       0.00032082858 0.00067292625 0.0009381096 0.0013251047
0002e0 bf 7d 86 3a 1d 7b b4 39 69 a5 d8 39 11 15 4d 39
       0.0010260864 0.00034424002 0.0004132197 0.00019558171
0002f0 74 97 25 b8 c0 ee d9 38 96 30 80 37 df ae f9 b8
       -3.9480117e-05 0.00010391837 1.5281414e-05 -0.000119058175
000300 82 27 f7 b8 56 ed e3 b8 e7 2c dc b8 28 52 12 b8
       -0.00011785237 -0.00010868411 -0.00010498781 -3.4885627e-05
000310 4c d8 12 b8 12 29 19 b8 84 be 2f b8 b1 b8 04 b9
       -3.5010555e-05 -3.6516292e-05 -4.1900683e-05 -0.00012657304
000320 d5 19 14 b9 ba ff a7 b9 03 ca e0 b9 39 05 c9 b9
       -0.00014124003 -0.00032043253 -0.0004287512 -0.000383416
000330 19 42 21 ba 26 51 16 ba 14 67 84 ba ec 3a aa b9
       -0.0006151512 -0.0005734138 -0.001010152 -0.00032468827
000340 88 68 8c b8 07 07 df b8 45 af 8f b9 46 48 cd 37
       -6.695191e-05 -0.000106347776 -0.0002740567 2.447156e-05
000350 ff 12 8a 39 63 4f ab 39 d5 11 90 38 e3 fc f3 b7
       0.00026335564 0.0003267481 6.8697766e-05 -2.9085617e-05
000360 55 11 b5 38 2c 15 3a 38 08 bf 7d b7 1a a8 33 b9
       8.633981e-05 4.4365574e-05 -1.5124453e-05 -0.00017133393
000370 e1 82 0c b9 89 6f 05 b9 57 ef 89 b8 64 66 11 b8
       -0.00013400197 -0.00012725418 -6.5772496e-05 -3.4666053e-05
000380 9c ef 12 b8 b3 16 28 b8 28 6b 36 b8 77 4b cb b8
       -3.5032266e-05 -4.007546e-05 -4.349198e-05 -9.693851e-05
000390 54 82 44 b9 b7 de 5b b9 1e e3 c4 b9 72 99 46 ba
       -0.00018740568 -0.00020968435 -0.0003755325 -0.0007575966
0003a0 12 10 46 ba 10 a3 58 ba 0a ce 30 ba b8 5d 43 b9
       -0.0007555495 -0.00082640443 -0.00067445694 -0.00018631562
0003b0 da 2f a4 b9 32 76 0e ba f2 4b 83 ba 30 c8 eb b9
       -0.0003131617 -0.00054344826 -0.001001714 -0.00044971844
0003c0 67 b2 df 39 48 b0 2c 3a f8 fe 03 3a a2 75 fa 38
       0.00042666795 0.0006587547 0.0005035247 0.0001194284
0003d0 14 fd 4b b9 e7 13 f4 b9 9e e5 a8 b9 db 55 8c b9
       -0.00019453868 -0.00046554135 -0.00032214535 -0.00026766848
0003e0 81 e1 37 b9 db fb e6 b8 49 6a 0f b8 5c c3 05 b8
       -0.00017536247 -0.000110141664 -3.4192843e-05 -3.1891614e-05
0003f0 91 d3 12 b8 a2 b1 1c b8 e2 f0 3f b8 b9 55 18 b9
       -3.500615e-05 -3.735873e-05 -4.576229e-05 -0.00014527784

exp_avg_sq f4 [64, 784]
000000 99 b8 4d 34 99 b8 4d 34 99 b8 4d 34 99 b8 4d 34
       1.9159269e-07 1.9159269e-07 1.9159269e-07 1.9159269e-07
000010 99 b8 4d 34 99 b8 4d 34 99 b8 4d 34 99 b8 4d 34
       1.9159269e-07 1.9159269e-07 1.9159269e-07 1.9159269e-07
000020 99 b8 4d 34 99 b8 4d 34 99 b8 4d 34 99 b8 4d 34
       1.9159269e-07 1.9159269e-07 1.9159269e-07 1.9159269e-07
000030 f6 28 4d 34 15 a6 4c 34 0a a3 4d 34 b3 b7 4d 34
       1.9107014e-07 1.9059401e-07 1.9151426e-07 1.9158942e-07
000040 99 b8 4d 34 99 b8 4d 34 99 b8 4d 34 99 b8 4d 34
       1.9159269e-07 1.9159269e-07 1.9159269e-07 1.9159269e-07
000050 99 b8 4d 34 99 b8 4d 34 99 b8 4d 34 99 b8 4d 34
       1.9159269e-07 1.9159269e-07 1.9159269e-07 1.9159269e-07
000060 99 b8 4d 34 99 b8 4d 34 99 b8 4d 34 99 b8 4d 34
       1.9159269e-07 1.9159269e-07 1.9159269e-07 1.9159269e-07
000070 99 b8 4d 34 99 b8 4d 34 99 b8 4d 34 99 b8 4d 34
       1.9159269e-07 1.9159269e-07 1.9159269e-07 1.9159269e-07
000080 77 b8 4d 34 7d c1 4d 34 a0 e1 4e 34 9a d6 54 34
       1.915922e-07 1.9162503e-07 1.9267327e-07 1.982211e-07
000090 df 03 51 34 2a 25 4b 34 8b 19 4c 34 47 8b 4d 34
       1.946605e-07 1.8919368e-07 1.9008273e-07 1.9142782e-07
0000a0 69 83 55 34 24 ea 4c 34 47 1c 51 34 64 75 4f 34
       1.9884978e-07 1.908416e-07 1.9474929e-07 1.9321084e-07
0000b0 aa 6f 4f 34 49 fa 4c 34 cb de 4c 34 39 a3 4f 34
       1.9319e-07 1.9090034e-07 1.9080032e-07 1.9337757e-07
0000c0 12 f9 50 34 d9 6c 4e 34 c3 27 4d 34 82 d4 4d 34
       1.9462121e-07 1.9224844e-07 1.9106578e-07 1.9169423e-07
0000d0 99 b8 4d 34 99 b8 4d 34 99 b8 4d 34 99 b8 4d 34
       1.9159269e-07 1.9159269e-07 1.9159269e-07 1.9159269e-07
0000e0 99 b8 4d 34 99 b8 4d 34 99 b8 4d 34 63 c2 4d 34
       1.9159269e-07 1.9159269e-07 1.9159269e-07 1.916283e-07
0000f0 c0 cd 4d 34 b2 d5 4d 34 83 bc 50 34 24 55 59 34
       1.9166964e-07 1.9169855e-07 1.944009e-07 2.0240674e-07
000100 99 47 58 34 95 f5 4c 34 c3 d8 5a 34 5b 62 65 34
       2.0142615e-07 1.9088323e-07 2.038169e-07 2.1363068e-07
000110 34 8f 6e 34 f0 14 71 34 10 62 6f 34 5f 8b 64 34
       2.2217574e-07 2.2452491e-07 2.2294284e-07 2.1284858e-07
000120 87 b6 5c 34 ab 6e 5d 34 55 3d 4e 34 73 ca 4c 34
       2.05555e-07 2.062249e-07 1.9207558e-07 1.9072631e-07
000130 66 a7 4e 34 d8 e1 4b 34 17 33 4a 34 52 ba 4d 34
       1.9246144e-07 1.898801e-07 1.8831302e-07 1.9159896e-07
000140 8e 62 50 34 b9 ed 4d 34 99 b8 4d 34 99 b8 4d 34
       1.9407364e-07 1.9178596e-07 1.9159269e-07 1.9159269e-07
000150 99 b8 4d 34 99 b8 4d 34 99 b8 4d 34 30 c5 4d 34
       1.9159269e-07 1.9159269e-07 1.9159269e-07 1.9163849e-07
000160 63 db 4e 34 1d d4 4d 34 9c 9d 54 34 ec 88 63 34
       1.9265057e-07 1.9169279e-07 1.9801377e-07 2.1190834e-07
000170 08 89 69 34 40 32 75 34 66 d1 8c 34 93 1e 90 34
       2.1749668e-07 2.2835684e-07 2.622939e-07 2.6844336e-07
000180 c8 50 99 34 a9 29 ac 34 7f db b9 34 c3 84 a3 34
       2.8557247e-07 3.2067808e-07 3.461864e-07 3.0457713e-07
000190 d8 0e 89 34 5d 94 7e 34 1e 43 79 34 5a 88 7a 34
       2.552904e-07 2.3709568e-07 2.3214349e-07 2.3332669e-07
0001a0 f3 c5 7b 34 b4 f2 64 34 8e c7 51 34 2c 7e 4c 34
       2.344821e-07 2.132245e-07 1.953724e-07 1.9044882e-07
0001b0 6a 84 4d 34 a9 f8 4d 34 99 b8 4d 34 99 b8 4d 34
       1.9140285e-07 1.9182575e-07 1.9159269e-07 1.9159269e-07
0001c0 99 b8 4d 34 c6 b8 4d 34 65 e2 4d 34 77 4c 4e 34
       1.9159269e-07 1.9159333e-07 1.9174475e-07 1.9213063e-07
0001d0 9c 1d 50 34 d5 35 5e 34 5d 9d 6a 34 1a c3 7b 34
       1.9382281e-07 2.0694945e-07 2.1850197e-07 2.3447174e-07
0001e0 b4 f4 83 34 b7 21 91 34 a7 d3 bb 34 b6 a7 cc 34
       2.4578696e-07 2.7032885e-07 3.4985462e-07 3.8119987e-07
0001f0 48 87 e0 34 ff 80 10 35 05 c0 3b 35 82 22 38 35
       4.182168e-07 5.3831894e-07 6.9942354e-07 6.8595557e-07
000200 a5 ea 23 35 c4 f9 0c 35 f6 bb e7 34 4c e7 ca 34
       6.1063685e-07 5.251752e-07 4.3163863e-07 3.7793723e-07
000210 98 5d ad 34 e5 4b 8a 34 e8 e8 73 34 81 c7 60 34
       3.229186e-07 2.5759724e-07 2.271587e-07 2.0934205e-07
000220 85 f2 51 34 66 ba 4e 34 32 ea 4d 34 99 b8 4d 34
       1.955287e-07 1.9253056e-07 1.9177313e-07 1.9159269e-07
000230 99 b8 4d 34 99 b8 4d 34 0c 12 4e 34 3f 16 54 34
       1.9159269e-07 1.9159269e-07 1.919181e-07 1.9752132e-07
000240 08 4a 59 34 64 a5 7f 34 13 db 87 34 52 f1 94 34
       2.0236632e-07 2.3808894e-07 2.5305107e-07 2.7742732e-07
000250 85 39 a3 34 68 fa be 34 ac 8e 06 35 fe 86 33 35
       3.0402967e-07 3.5572452e-07 5.0126505e-07 6.6879136e-07
000260 1a e0 6e 35 f5 03 97 35 e3 c9 bd 35 bd ba d6 35
       8.898802e-07 1.1251528e-06 1.4140354e-06 1.599859e-06
000270 08 91 ea 35 0f 12 c6 35 c4 20 8d 35 d8 2f 46 35
       1.7476568e-06 1.4757405e-06 1.0514855e-06 7.383037e-07
000280 2c fc 09 35 af a9 cb 34 9f 4a a1 34 97 20 7e 34
       5.1403435e-07 3.7935158e-07 3.004288e-07 2.366745e-07
000290 36 c2 65 34 52 eb 4c 34 7a 7b 4d 34 3a bb 4d 34
       2.139794e-07 1.908459e-07 1.9137033e-07 1.9160225e-07
0002a0 99 b8 4d 34 02 b0 4d 34 b4 0d 4e 34 ce d0 55 34
       1.9159269e-07 1.9156144e-07 1.919023e-07 1.9913134e-07
0002b0 35 07 64 34 d5 eb 8c 34 71 f2 b1 34 03 d2 de 34
       2.1236777e-07 2.6248622e-07 3.3145218e-07 4.1503526e-07
0002c0 4a ca 0e 35 a0 16 3e 35 4f 79 8a 35 31 e6 bd 35
       5.319349e-07 7.081344e-07 1.0317107e-06 1.4148592e-06
0002d0 85 d2 f7 35 a0 d5 19 36 f2 b1 38 36 df 9d 3e 36
       1.8464203e-06 2.2923123e-06 2.7521714e-06 2.84041e-06
0002e0 59 00 35 36 45 16 16 36 5a 60 e3 35 9c d8 9d 35
       2.6971304e-06 2.2364704e-06 1.694086e-06 1.1760453e-06
0002f0 58 58 64 35 ec 77 1e 35 a5 2f dc 34 d3 8a 9a 34
       8.5065176e-07 5.9034096e-07 4.101286e-07 2.8785743e-07
000300 51 09 6c 34 f8 6b 53 34 ec c9 4f 34 a9 0d 4d 34
       2.1982602e-07 1.9690185e-07 1.9351836e-07 1.9097082e-07
000310 75 b8 4d 34 3e f2 4c 34 b2 5f 4d 34 b8 3b 51 34
       1.9159218e-07 1.9087108e-07 1.9126927e-07 1.9486367e-07
000320 0e 74 69 34 f4 98 99 34 f2 96 d0 34 2a 76 1e 35
       2.1742036e-07 2.860976e-07 3.8852846e-07 5.903154e-07
000330 d5 ab 6b 35 d4 c0 a3 35 99 78 e7 35 a7 9a 1a 36
       8.779437e-07 1.2200567e-06 1.724594e-06 2.3037808e-06
000340 7e d1 2f 36 99 d6 59 36 7e a8 76 36 92 bc 88 36
       2.6198973e-06 3.2460432e-06 3.6754932e-06 4.0750683e-06
000350 f5 5d 7d 36 8d 91 3e 36 fe 85 13 36 fe 2e db 35
       3.7754628e-06 2.8396928e-06 2.19827e-06 1.6330448e-06
000360 a4 6f 9a 35 ad dc 45 35 92 1a 09 35 87 f3 bc 34
       1.1506386e-06 7.3709344e-07 5.107514e-07 3.5194918e-07
000370 90 4d 82 34 bd 4f 57 34 bf ef 4f 34 33 68 4d 34
       2.427082e-07 2.0052444e-07 1.9365596e-07 1.913002e-07
000380 dd e3 4c 34 6d 27 4e 34 eb 38 4c 34 e8 48 52 34
       1.9081877e-07 1.9199588e-07 1.9019687e-07 1.9584297e-07
000390 41 08 7b 34 8a 06 a0 34 6d 81 f4 34 96 61 45 35
       2.33792e-07 2.980708e-07 4.554271e-07 7.3530225e-07
0003a0 6b 3c 94 35 34 a9 be 35 06 f1 f5 35 58 65 11 36
       1.1044443e-06 1.4205348e-06 1.832407e-06 2.1665674e-06
0003b0 9f 68 28 36 fe 4f 42 36 a1 94 5b 36 95 7a 71 36
       2.5094848e-06 2.8954814e-06 3.2720056e-06 3.598315e-06
0003c0 62 41 69 36 3a 06 36 36 0d e3 14 36 a0 1d ee 35
       3.4757763e-06 2.7123738e-06 2.218588e-06 1.7741004e-06
0003d0 14 c4 aa 35 f1 67 5b 35 7f 96 17 35 4c 47 c7 34
       1.2723053e-06 8.173511e-07 5.6470884e-07 3.7118514e-07
0003e0 d3 b3 8d 34 14 9c 6b 34 f9 e4 62 34 f5 15 4e 34
       2.6394136e-07 2.1942861e-07 2.113119e-07 1.9193233e-07
0003f0 a0 b7 4d 34 17 8a 4e 34 0a 5c 4d 34 83 b1 56 34
       1.9158915e-07 1.9235482e-07 1.9125596e-07 1.9994881e-07

exp_avg f4 [64]
000000 e5 03 ad 38 a9 df 99 b9 07 9d b2 b9 7b 05 b0 39
       8.250008e-05 -0.00029349074 -0.000340678 0.0003357342
000010 f6 0a 1f b9 2b 7d dd 39 b3 97 89 3a 6b 5e b5 b9
       -0.00015167505 0.00042245662 0.001049748 -0.00034593357
000020 a5 15 63 ba a0 c3 89 b8 8c 1e ee 39 57 10 2d 3a
       -0.0008662588 -6.569107e-05 0.00045417657 0.0006601861
000030 d2 10 df 39 96 dd 86 3a 54 8e 00 b9 1d a4 47 39
       0.00042546407 0.0010289426 -0.00012260053 0.00019039256
000040 1e b6 c5 39 9f 58 8a b9 1e 2f 58 ba 10 b8 82 3a
       0.00037710456 -0.0002638744 -0.0008246767 0.0009973068
000050 e9 9b 8e 3a 6d 90 73 ba f0 44 c9 39 72 24 a7 ba
       0.0010880205 -0.00092912355 0.0003838907 -0.001275195
000060 7c 8f 53 3a 04 31 0a 3a d2 29 24 3a 4a 49 47 ba
       0.0008070392 0.0005271586 0.0006262335 -0.00076021685
000070 4a d3 6c 3a 46 05 ef b9 51 19 2d 3a 2e 1b 56 3a
       0.000903417 -0.0004558956 0.00066031987 0.0008167502
000080 1e 6e 59 38 6b 57 a7 ba 17 25 d8 39 ea 6e 1c 3a
       5.1839386e-05 -0.0012767141 0.00041226365 0.0005967455
000090 78 8d 10 ba cb f0 8b 39 15 c7 08 ba 5d f4 80 b9
       -0.00055142445 0.0002669155 -0.0005217654 -0.00024596127
0000a0 bd 81 27 b8 d7 39 9d 39 67 85 80 3a 32 39 58 b9
       -3.993673e-05 0.00029988468 0.0009805382 -0.00020620672
0000b0 1b 40 79 3a 5f 03 46 b9 c4 48 2e 3a 14 ad 5c b5
       0.00095081487 -0.00018884007 0.0006648416 -8.220825e-07
0000c0 45 dd 81 3a a8 14 88 3a 6a f9 19 3a 48 2f 38 ba
       0.0009907862 0.0010382133 0.00058736524 -0.00070260884
0000d0 e9 c7 61 b7 d2 90 64 39 e8 ce 97 b9 79 26 16 ba
       -1.345759e-05 0.00021797724 -0.00028955122 -0.0005727779
0000e0 a2 62 79 ba cd 2a bd 36 d2 a3 20 ba e5 78 96 38
       -0.00095132936 5.6376216e-06 -0.0006127927 7.175076e-05
0000f0 c2 34 2f 3a 57 0d 3e 3a 02 33 8a b9 93 95 1c 3a
       0.0006683582 0.00072499126 -0.00026359415 0.0005973216

exp_avg_sq f4 [64]
000000 74 e5 8e 35 3c 03 bb 35 6b 00 00 36 67 7b 46 36
       1.0646604e-06 1.3933527e-06 1.907373e-06 2.9576129e-06
000010 f9 b8 46 36 f7 3f 0b 36 73 5a 0a 36 bf df d5 35
       2.9611967e-06 2.0749846e-06 2.061625e-06 1.5934855e-06
000020 1d b0 8f 36 4c 19 0e 36 1a e5 0d 36 5f 9b 19 36
       4.2822344e-06 2.1174374e-06 2.1143992e-06 2.2889215e-06
000030 ac c8 e1 35 da f9 0e 36 61 56 20 36 56 84 fe 35
       1.682221e-06 2.1305082e-06 2.3892137e-06 1.896299e-06
000040 98 73 fc 35 84 b6 2f 36 a0 33 84 36 83 7a 9c 36
       1.8809105e-06 2.618327e-06 3.9399165e-06 4.6634245e-06
000050 0f d3 27 36 c7 98 4d 36 0e ed 0f 36 f7 b5 90 36
       2.5007791e-06 3.0636309e-06 2.1446644e-06 4.312718e-06
000060 db a4 2c 36 79 2f 52 36 66 a5 23 36 04 da e1 35
       2.5725956e-06 3.1320071e-06 2.4385167e-06 1.6827257e-06
000070 d6 c8 3d 36 7a f7 ee 35 1a 9f 09 36 4f 81 0f 36
       2.8280097e-06 1.7804407e-06 2.05072e-06 2.1383928e-06
000080 51 b2 22 36 e3 59 da 35 55 3c 05 36 82 bb b9 35
       2.4243675e-06 1.6268426e-06 1.9853662e-06 1.3838146e-06
000090 1d 7d 47 36 e0 36 24 36 3e 70 bd 35 bf 5e 56 36
       2.9726136e-06 2.4469846e-06 1.4114264e-06 3.1943634e-06
0000a0 ec e1 e8 35 26 ab c8 35 48 6e 44 36 56 d8 38 36
       1.7351099e-06 1.4950972e-06 2.9270468e-06 2.754406e-06
0000b0 a2 b8 4e 36 9f e3 05 36 c1 59 55 36 dc 31 cd 35
       3.0803863e-06 1.9951037e-06 3.1791717e-06 1.5288201e-06
0000c0 c3 8a b1 35 a9 fd 7d 36 b0 53 30 36 9f af 11 36
       1.3227913e-06 3.7847587e-06 2.6274756e-06 2.1708909e-06
0000d0 54 89 e9 35 aa d6 d4 35 a9 5d 42 35 cc 02 e2 35
       1.739982e-06 1.5857706e-06 7.2406925e-07 1.6839126e-06
0000e0 ed 2e 51 36 62 8e 21 36 27 fd f3 35 af b9 33 36
       3.1170741e-06 2.4073747e-06 1.8178588e-06 2.678116e-06
0000f0 ff 4e a4 35 29 99 d1 35 c4 e8 32 36 43 e0 c4 35
       1.2241943e-06 1.5616289e-06 2.6659554e-06 1.4668407e-06
